check_points/student_tflite_models_direct_quantization/student_model_quant.tflite (tflite, 67664 bytes, 12 tensors)

model_3/conv1d_3/BiasAdd/ReadVariableOp f4 [32]
0	0xbca3254d	-0.019915247
1	0xbe0a916e	-0.1353204
2	0xbe03e78b	-0.12881295
3	0xbdcedda8	-0.10100871
4	0xbda3b0b1	-0.079926856
5	0xbe114952	-0.14188126
6	0xbd856fe8	-0.06515485
7	0xbdeb8a22	-0.11500956
8	0x00000000	0.0
9	0xbdeea36b	-0.11652263
10	0x00000000	0.0
11	0xbccdefeb	-0.025138816
12	0xbca8fb0b	-0.02062752
13	0xbac3b4ca	-0.0014931199
14	0xbde33479	-0.11093993
15	0xbd03f60f	-0.03221708
16	0xbc8d6b65	-0.017263124
17	0x00000000	0.0
18	0xbe284720	-0.16433382
19	0xbd313678	-0.043264836
20	0xbe3cd311	-0.1843989
21	0x3daa9e3c	0.08330962
22	0xbe08e5db	-0.13368933
23	0xbd86fdaa	-0.06591351
24	0xbdebda93	-0.11516299
25	0xbda39a3c	-0.07988402
26	0xbcb7b5db	-0.022425583
27	0xbdc15bdf	-0.09441351
28	0xbb35e3f9	-0.002775429
29	0xbd8506ea	-0.064954594
30	0xbba835dd	-0.005133374
31	0xbca8d40d	-0.020608926

model_3/conv1d_3/Conv1D f4 [32, 1, 1, 4]
0	0x3d0f9c77	0.035061326
1	0x3e58f3b9	0.21186723
2	0xbe89a243	-0.26881608
3	0x3e24f6be	0.1610975
4	0x3db78ad8	0.08962029
5	0x3e223789	0.15841497
6	0x3e4e604f	0.20153926
7	0xbe0565e0	-0.13027143
8	0xbd9e4e97	-0.077298336
9	0x3e67a802	0.22622684
10	0xbd93db30	-0.07219541
11	0x3df5820d	0.11987696
12	0xbe3e2597	-0.18569027
13	0x3e5071bc	0.20355886
14	0xbe358225	-0.17725427
15	0x3eaaf517	0.33390114
16	0x3e82cec5	0.25548378
17	0xbeeb99e3	-0.46015844
18	0x3e5bceb8	0.21465576
19	0x3e5a48f1	0.21316887
20	0xbb75f0e3	-0.0037527613
21	0xbe6ebdbe	-0.23314568
22	0x3e7fdc42	0.24986365
23	0x3e6a63ed	0.22889681
24	0x3e816b35	0.25277105
25	0x3ea1d4e6	0.3160774
26	0xbe3a8cf9	-0.1821784
27	0xbdfb2b66	-0.12264137
28	0x3e93eaa9	0.2888997
29	0xbe86c3ca	-0.2632125
30	0xbc14f7a4	-0.009092245
31	0x3e59af4a	0.21258274
32	0xbb756a00	-0.0037447214
33	0xbec2ba31	-0.38032678
34	0xbece52f3	-0.4029766
35	0xbe942dc8	-0.28941178
36	0xbd85a5f5	-0.065257944
37	0x3e97deb7	0.29662105
38	0x3d6cf6c0	0.057852507
39	0xbdf51b71	-0.11968125
40	0xbded12b4	-0.11575833
41	0xbe8248d4	-0.25446188
42	0xbe46b03e	-0.19403169
43	0xbe9dfc1a	-0.308564
44	0xbe2b71c8	-0.16742623
45	0x3c8b413b	0.016998878
46	0xbc340b5a	-0.010989035
47	0x3e980375	0.29690138
48	0x3e795a1f	0.24350785
49	0xbe23716f	-0.1596124
50	0x3d91085e	0.07081674
51	0xbc88af5b	-0.016685179
52	0x3e75d3fe	0.2400665
53	0xbdb11ce0	-0.086480856
54	0xbea909da	-0.3301533
55	0x3e20f463	0.15718226
56	0xbd535198	-0.051591486
57	0x3e48164a	0.19539753
58	0x3dced7be	0.10099743
59	0x3dd70891	0.10499681
60	0xbea0a50d	-0.31375924
61	0x3e510f4c	0.20415992
62	0x3e2d6085	0.1693135
63	0x3d4b26a9	0.049597416
64	0xbb63d900	-0.0034766793
65	0x3d125d2a	0.03573338
66	0x3dfef748	0.12449509
67	0xbc960b90	-0.01831606
68	0xbe59abd4	-0.21256953
69	0xbec3c4e2	-0.38236147
70	0xbe13c542	-0.14430717
71	0xbe0dd264	-0.13849789
72	0xbd8d191b	-0.06889554
73	0x3e353376	0.17695412
74	0x3dfa0dfa	0.12209697
75	0x3ddc8a90	0.10768616
76	0xbeb4bff2	-0.35302693
77	0xbbd8268e	-0.006596393
78	0x3e93cd65	0.2886764
79	0x3e7d60db	0.24743979
80	0xbe2143ac	-0.15748471
81	0xbd9f45bb	-0.07776972
82	0x3e90feee	0.28319496
83	0x3e41af3e	0.18914506
84	0xba26693d	-0.0006348079
85	0x3e0c3c38	0.13694847
86	0xbe9916db	-0.2990025
87	0xbee8026e	-0.45314354
88	0x3e5e2b04	0.21696097
89	0xbe7c9d6e	-0.2466943
90	0x3e01cb39	0.1267518
91	0x3e72a51b	0.23695795
92	0x3e96d2d0	0.29457712
93	0x3e996424	0.29959214
94	0xbead5ad0	-0.33858347
95	0xbdeb21e0	-0.114810705
96	0x3d5ced30	0.053937137
97	0x3e88f80f	0.26751754
98	0x3e0034c3	0.12520127
99	0xbe6e8d62	-0.23296121
100	0x3e916469	0.2839692
101	0x3e786a6e	0.2425935
102	0xbea4e443	-0.322054
103	0x3a978753	0.0011560716
104	0xbd560cea	-0.05225841
105	0x3e849b62	0.25899798
106	0xbeac852b	-0.3369535
107	0x3e91b721	0.2846003
108	0x3ea83ec0	0.32860374
109	0xbcb43c37	-0.022001369
110	0x3eabd2cb	0.3355926
111	0xbeeedde7	-0.46653673
112	0xbeccea94	-0.4002272
113	0x3d21a0c0	0.039459944
114	0x3e9e299d	0.30891123
115	0xbec3604a	-0.381594
116	0x3e0e6010	0.13903832
117	0x3eae689c	0.34064186
118	0xbedb4da6	-0.4283268
119	0x3dd37907	0.103258185
120	0xbe723f65	-0.23656996
121	0x3eb8a440	0.36062813
122	0xbe24b7de	-0.16085765
123	0xbe790f92	-0.24322346
124	0xbe646dc7	-0.22307502
125	0xbe7725da	-0.24135533
126	0x3e391436	0.18074116
127	0x3ede9679	0.43474177

model_3/dense_5/BiasAdd/ReadVariableOp f4 [4]
0	0x3ec4dc35	0.38449255
1	0x3ec4c610	0.3843236
2	0x3ec4fec7	0.3847563
3	0x3ec4c489	0.38431194

model_3/bidirectional_3/forward_lstm_3/Read_2/ReadVariableOp f4 [84]
0	0xbe1f6adb	-0.15568106
1	0xbe11acda	-0.14226094
2	0xbe5c5eb2	-0.21520498
3	0xbe3bd710	-0.18343759
4	0xbe23da7b	-0.16001312
5	0xbe839bfa	-0.25704938
6	0xbe209b52	-0.1568425
7	0xbddca1ed	-0.107730724
8	0xbdcdbab5	-0.10045377
9	0xbdf5a025	-0.11993436
10	0xbdcdc7f2	-0.10047902
11	0xbe4c57b0	-0.19955325
12	0xbe55bf74	-0.20873815
13	0xbe687287	-0.22699939
14	0xbe2776ee	-0.16353962
15	0xbde6f6c5	-0.11277536
16	0xbe000e57	-0.1250547
17	0xbe13ff61	-0.14452888
18	0xbdba344f	-0.09092008
19	0xbe084a78	-0.13309658
20	0xbe36ae68	-0.17839968
21	0x3f61c6a2	0.88193715
22	0x3f6ae1b2	0.91750634
23	0x3f626b64	0.88445115
24	0x3f61e4a8	0.88239527
25	0x3f661d84	0.8988879
26	0x3f658782	0.89659894
27	0x3f638c8f	0.8888635
28	0x3f729538	0.9475894
29	0x3f6dbf98	0.92870474
30	0x3f696d0c	0.9118202
31	0x3f6615e6	0.89877164
32	0x3f643192	0.8913814
33	0x3f63c34f	0.8896989
34	0x3f5f5f93	0.8725521
35	0x3f6617ac	0.8987987
36	0x3f698a39	0.91226536
37	0x3f68984c	0.90857387
38	0x3f5f0973	0.87123793
39	0x3f750419	0.9570938
40	0x3f622acb	0.88346547
41	0x3f6718d5	0.90272266
42	0xbce9fce7	-0.028562976
43	0xbc0a3dc8	-0.008437581
44	0xbc5e1b20	-0.013556272
45	0xbba38261	-0.0049899076
46	0x3cb8471f	0.02249485
47	0xbc416ad7	-0.011805258
48	0xbbf0b611	-0.0073459228
49	0x3ba5372e	0.0050419783
50	0xbc946133	-0.018112754
51	0x3c44c59c	0.012010004
52	0x3c08aab7	0.008341483
53	0x3b86e133	0.0041162013
54	0x3af13bc5	0.0018404654
55	0xbb1fe79c	-0.0024399525
56	0x3c31fe39	0.010863834
57	0xbb9f12d3	-0.004854539
58	0x3b1f7344	0.0024330178
59	0xbc5b1e18	-0.013373874
60	0xbaaebf39	-0.0013332135
61	0x3c03c0ef	0.008041604
62	0x3ad24ef3	0.0016045257
63	0xbe074780	-0.13210869
64	0xbe0dd740	-0.13851643
65	0xbe578758	-0.21047723
66	0xbe3bc8cd	-0.18338318
67	0xbe028a25	-0.1274801
68	0xbe4d9342	-0.20075706
69	0xbe238caa	-0.15971628
70	0xbd4ceac8	-0.050028592
71	0xbdca8b60	-0.09889865
72	0xbe08c870	-0.13357711
73	0xbdb92178	-0.09039587
74	0xbe462a4e	-0.19352075
75	0xbe249bd0	-0.16075063
76	0xbe50fd46	-0.20409116
77	0xbe178467	-0.14796601
78	0xbdc9fb0b	-0.09862336
79	0xbd90ed9c	-0.070765704
80	0xbe179bac	-0.14805478
81	0xbdba2e85	-0.09090904
82	0xbde0b2f0	-0.109716296
83	0xbe38047d	-0.17970462

model_3/bidirectional_3/backward_lstm_3/Read_2/ReadVariableOp f4 [84]
0	0xbe1d2d14	-0.15349227
1	0xbdfe30fe	-0.12411688
2	0xbddd01d0	-0.10791361
3	0xbe4d72b1	-0.20063283
4	0xbde676e6	-0.11253147
5	0xbe4cdda1	-0.2000642
6	0xbdb8cae5	-0.09023074
7	0xbe705793	-0.23470907
8	0xbe09b5f3	-0.13448314
9	0xbe454f51	-0.19268538
10	0xbe504e1e	-0.203423
11	0xbe17c053	-0.1481946
12	0xbe198f5b	-0.14996092
13	0xbdc9d201	-0.09854508
14	0xbdffa6cb	-0.12482985
15	0xbe589dee	-0.21153995
16	0xbe024274	-0.12720662
17	0xbe870c8d	-0.26376763
18	0xbddb34d5	-0.10703436
19	0xbdd955af	-0.10612046
20	0xbe4399db	-0.1910166
21	0x3f7c4f12	0.9855815
22	0x3f818272	1.0117934
23	0x3f765b9f	0.9623355
24	0x3f74c233	0.95608824
25	0x3f798c50	0.97479725
26	0x3f637fb4	0.88866735
27	0x3f76331d	0.9617174
28	0x3f6ecd48	0.93281984
29	0x3f72e934	0.9488709
30	0x3f6c1dfd	0.9223326
31	0x3f6c4ac0	0.9230156
32	0x3f6e60c7	0.9311642
33	0x3f6edf52	0.9330951
34	0x3f78257c	0.96932197
35	0x3f75ab99	0.9596496
36	0x3f6488dc	0.8927133
37	0x3f7e89ad	0.99428827
38	0x3f5fccc7	0.8742184
39	0x3f71c620	0.9444294
40	0x3f763452	0.96173584
41	0x3f645e8c	0.8920677
42	0xbba7515e	-0.0051061353
43	0xbcc7f7d7	-0.024410171
44	0x3cc3605d	0.02384966
45	0xbc8624a0	-0.016374886
46	0xbcc5fba2	-0.02416784
47	0x3959fd41	0.00020789077
48	0x3baacfa3	0.0052127405
49	0xbcc29196	-0.023751061
50	0xbaa158e0	-0.0012309812
51	0xbc1f09a7	-0.009706891
52	0xbb026da8	-0.0019901786
53	0xbc88a1ee	-0.016678777
54	0x3c823730	0.015895456
55	0x3b4d26d7	0.0031303668
56	0xbb4db9cd	-0.0031391263
57	0xbaca8460	-0.0015450828
58	0x3cdd7fbc	0.027038448
59	0x3cd9355e	0.026514705
60	0x3bd01421	0.006350056
61	0x3ad4125b	0.0016179787
62	0x3bf79ad7	0.0075563
63	0xbdfef2dd	-0.12448666
64	0xbde6b1a1	-0.11264349
65	0xbde927f5	-0.11384574
66	0xbe2c735a	-0.16840878
67	0xbdf9b48e	-0.12192641
68	0xbe3740eb	-0.17895858
69	0xbdb865c5	-0.09003786
70	0xbe65b062	-0.22430566
71	0xbde5a0ac	-0.11212286
72	0xbe5291c3	-0.20563416
73	0xbe40ccab	-0.18828075
74	0xbe0b15ac	-0.13582486
75	0xbe15ca3e	-0.1462793
76	0xbdb73064	-0.08944777
77	0xbdc1a288	-0.094548285
78	0xbe57b191	-0.2106383
79	0xbe0644ca	-0.13112178
80	0xbe705d2c	-0.23473042
81	0xbdbe6837	-0.09297221
82	0xbdcbbfae	-0.099486694
83	0xbe178aa5	-0.14798982

model_3/dense_5/MatMul f4 [4, 840]
0	0x3d0a6022	0.033783086
1	0x3d5eedaf	0.05442589
2	0x3cc355f8	0.023844704
3	0x3ce08e6b	0.02741166
4	0xbca98263	-0.020692056
5	0x3ced432d	0.028962696
6	0x3cf1db4b	0.029523512
7	0x3c0290c9	0.00796909
8	0x3c9a4e5c	0.018836193
9	0xbcf302ca	-0.029664416
10	0xbcf491c5	-0.029854665
11	0xbd56856b	-0.05237333
12	0xbc837de1	-0.016051235
13	0x3cef5d3a	0.029219259
14	0xbd18541f	-0.0371896
15	0x3c3f3ee5	0.01167271
16	0xbd4c6540	-0.049901247
17	0x3cced341	0.025247218
18	0x3cd910e8	0.02649732
19	0xbc96cd6f	-0.018408505
20	0xbc5718ea	-0.013128499
21	0x3bc81d73	0.0061070262
22	0x3ba77dde	0.00511144
23	0xbb2083b7	-0.002449257
24	0x3c3eac99	0.01163783
25	0x3b9868a7	0.0046511474
26	0x3c3544c8	0.011063762
27	0xbc0d360c	-0.008618843
28	0x3b17f6cc	0.0023187874
29	0x3c963610	0.018336326
30	0x3c3200af	0.010864421
31	0x3bcdb0ce	0.0062771803
32	0x3bec8c55	0.0072188773
33	0xbb98ebff	-0.004666805
34	0x3c2b83eb	0.010468463
35	0x3c099c95	0.0083991485
36	0xbc7d011f	-0.015442162
37	0xbb050e36	-0.002030266
38	0xbc30c9ca	-0.010790298
39	0xbc2d25f8	-0.0105681345
40	0xbc15f8b1	-0.009153531
41	0xbc90fde9	-0.017699199
42	0x3ca78612	0.020449672
43	0x3cdfee47	0.0273353
44	0x3cf23b17	0.029569192
45	0x3d1c0461	0.038090114
46	0xbb3dfe31	-0.0028990621
47	0x3d15a119	0.036530588
48	0x3c564949	0.013078996
49	0xbc203b12	-0.009779708
50	0x3c4c32d0	0.0124632865
51	0xbcb9542c	-0.022623144
52	0xbc9c503d	-0.01908123
53	0xbd1b3f10	-0.037901938
54	0xbd15f977	-0.03661486
55	0x3ce31369	0.027719216
56	0xbca07f92	-0.01959208
57	0x3c85b021	0.016319336
58	0xbcdca410	-0.0269337
59	0x3c86f58d	0.01647451
60	0x3cc5a56a	0.024126727
61	0xbc9f17a1	-0.019420447
62	0xbcdd8303	-0.02704001
63	0x3bd758ab	0.0065718493
64	0x3be0939f	0.0068535353
65	0xbbc09afc	-0.0058778506
66	0x3c55476a	0.013017515
67	0x3bbdc6b6	0.0057915105
68	0x3c874cde	0.016516145
69	0xbb56a92d	-0.0032754645
70	0x3c375d17	0.011191628
71	0x3c7fecd0	0.015620425
72	0x3c4e37ee	0.012586577
73	0x3bcd2576	0.006260569
74	0x3c829830	0.01594171
75	0xbbc941b3	-0.006141865
76	0x3c62cbda	0.013842547
77	0x3c8509a9	0.016239958
78	0xbc10eab0	-0.008845016
79	0xbc1537ec	-0.009107571
80	0xbc593185	-0.013256435
81	0xbc256090	-0.010093823
82	0xbc96c740	-0.018405557
83	0xbcabba08	-0.02096273
84	0x3bbb32db	0.0057128496
85	0x3cbe13c5	0.023202786
86	0x3c40f039	0.011776024
87	0x3cc83af3	0.024442172
88	0xbc5e8512	-0.013581531
89	0x3c782142	0.015144648
90	0x3c837a7e	0.01604962
91	0x3cb6280b	0.02223589
92	0x3c7201df	0.014770954
93	0xbc68be90	-0.01420559
94	0xbcecefc9	-0.028922932
95	0xbccac95c	-0.024754219
96	0xbcd07500	-0.025446415
97	0x3cc12ce0	0.023580968
98	0xbca1354d	-0.019678736
99	0x3ca1b650	0.019740254
100	0xbcc54dec	-0.024085008
101	0x3d0347fa	0.032051064
102	0x3cb356f5	0.02189205
103	0xbca83ee5	-0.020537803
104	0xbbbef833	-0.0058279275
105	0x3c298d8e	0.010348691
106	0x3afb4047	0.0019168936
107	0xbc3724c8	-0.011178203
108	0x3c90f23c	0.017693631
109	0x3ab02b2c	0.0013440601
110	0x3c916be0	0.017751634
111	0xbc12eab1	-0.008967088
112	0x3c4f7414	0.0126619525
113	0x3c8e1d60	0.017347991
114	0x3c93ebd1	0.018056782
115	0x3c38385a	0.011243904
116	0x3c187c01	0.009306909
117	0xbc5e0f12	-0.013553398
118	0x3c8141aa	0.015778381
119	0x3c9188c7	0.017765416
120	0xba6cda78	-0.000903524
121	0xbbd5da8d	-0.0065262974
122	0xbca28c63	-0.019842332
123	0xbcb334d8	-0.021875784
124	0xbc6a6ecc	-0.014308643
125	0xbd05e2e9	-0.0326871
126	0x3c8946f0	0.016757458
127	0x3ced900b	0.02899935
128	0x3cce0fe5	0.025154063
129	0x3d07f970	0.033196867
130	0xbc37f63f	-0.011228143
131	0x3c8fb03c	0.01754009
132	0x3c56f791	0.013120548
133	0xbce94b76	-0.028478365
134	0x3c79d107	0.01524759
135	0xbc960ad6	-0.018315714
136	0xbc77b6d6	-0.015119275
137	0xbd1019cd	-0.035180856
138	0xbc8368ea	-0.016041238
139	0x3ca5e841	0.020252349
140	0xbced22b0	-0.028947204
141	0x3c49a484	0.01230729
142	0xbad0753e	-0.0015904082
143	0x3cc0190e	0.023449447
144	0x3c95c9ad	0.018284643
145	0xbcb97f1a	-0.022643615
146	0xbc487491	-0.012234823
147	0x3c595bbb	0.013266499
148	0x3bd5bb52	0.0065225745
149	0xbc2b9485	-0.010472422
150	0x3c513b8e	0.012770547
151	0x3c65adf8	0.014018528
152	0x3c6e0e5c	0.014529791
153	0xbc869510	-0.0164285
154	0x3bf55ddd	0.007487996
155	0x3c8733a8	0.016504124
156	0x3cad1931	0.021130176
157	0x3ccb1aa6	0.02479298
158	0x3c5d6122	0.013511928
159	0xbc194d88	-0.009356864
160	0x3c925211	0.017861398
161	0x3ca1e551	0.019762667
162	0xbc8fab91	-0.017537864
163	0xbbbc809a	-0.005752635
164	0xbc4721cd	-0.012154055
165	0xbc91be4b	-0.017790934
166	0xbc0a87fa	-0.008455271
167	0xbc90c7a0	-0.017673314
168	0x3ca8104e	0.020515587
169	0x3cfd2e9e	0.030906018
170	0x3cbd2aaa	0.023091633
171	0x3ccb9cb8	0.024855003
172	0xbc2ac183	-0.010422113
173	0x3ca4f202	0.02013493
174	0x3c4018f1	0.0117246965
175	0xbc2a8def	-0.010409816
176	0x3cb1c2c3	0.021699315
177	0xbc513d88	-0.012771018
178	0xbc87c6c8	-0.016574278
179	0xbd2f0b9c	-0.04273568
180	0xbc8675c1	-0.016413571
181	0x3cd0ccb8	0.025488243
182	0xbc1c0458	-0.00952252
183	0x3c96a308	0.018388286
184	0xbb47968f	-0.003045473
185	0x3c772802	0.015085222
186	0x3c8c35a9	0.01711543
187	0xbcbc9f33	-0.02302513
188	0xbcdcb2ea	-0.026940782
189	0x3c808f7c	0.015693419
190	0x3bd0d5f5	0.006373162
191	0xbc23106e	-0.009952648
192	0x3c215349	0.009846517
193	0x3b621f51	0.003450353
194	0x3cdb10c3	0.026741391
195	0xbc875e52	-0.016524468
196	0x3be756e5	0.007059919
197	0x3c932788	0.017963186
198	0x3cf1c0f6	0.029510956
199	0x3cc7446b	0.024324616
200	0x3c3bfdad	0.011474055
201	0xbc7e3932	-0.015516566
202	0x3c8dd748	0.017314568
203	0x3c79cfcf	0.015247299
204	0xbc6dd22b	-0.01451544
205	0xbbc0b88f	-0.005881376
206	0xbc635893	-0.013876098
207	0xbc9bdcd1	-0.019026192
208	0xbc59352a	-0.013257304
209	0xbcdb122b	-0.026742062
210	0x3c736aa6	0.01485697
211	0x3ccae147	0.024765624
212	0x3c9e8eb3	0.019355154
213	0x3cc5f8ad	0.02416643
214	0xbc56b70c	-0.013105165
215	0x3d05f690	0.032705843
216	0x3ce83d29	0.028349476
217	0x3d55041b	0.05200587
218	0x3c9d5658	0.019206211
219	0xbc95f5fc	-0.018305771
220	0xbcbafd82	-0.02282596
221	0xbc8be943	-0.017079001
222	0xbcb147ef	-0.021640746
223	0x3c756495	0.014977594
224	0xbccc8fb5	-0.024970869
225	0x3c9fa90b	0.019489786
226	0xbb736ec4	-0.003714488
227	0x3c9e0d31	0.0192934
228	0x3c1a24a5	0.009408151
229	0xbc9dbe5f	-0.019255815
230	0xb928ce16	-0.00016098502
231	0x3c49c8e5	0.012315963
232	0x3b95b497	0.004568647
233	0xbb9df4e9	-0.0048204553
234	0x3c6a948d	0.014317644
235	0x3c278c8b	0.010226379
236	0x3cfc891a	0.030827094
237	0xbc55dbf8	-0.013052933
238	0x3c1712a9	0.0092207575
239	0x3cde5d9e	0.02714425
240	0x3c8d2899	0.017231273
241	0x3ce863e4	0.028367944
242	0x3c382cc6	0.011241144
243	0xbc2bb38d	-0.01047982
244	0x3cbe6f72	0.0232465
245	0x3bc6ed60	0.006070778
246	0xbc8b3f6b	-0.016998013
247	0xbc081198	-0.008304976
248	0xbc2ef251	-0.01067789
249	0xbc33a7ee	-0.0109653305
250	0xbc7294a9	-0.014805951
251	0xbcd60cfd	-0.02612924
252	0x3cb25ab9	0.021771776
253	0x3cece45a	0.02891748
254	0x3cc6aa76	0.024251204
255	0x3cc7edfd	0.024405474

model_3/bidirectional_3/backward_lstm_3/Read_2/ReadVariableOp1 f4 [84]
0	0xbe1d2d14	-0.15349227
1	0xbdfe30fe	-0.12411688
2	0xbddd01d0	-0.10791361
3	0xbe4d72b1	-0.20063283
4	0xbde676e6	-0.11253147
5	0xbe4cdda1	-0.2000642
6	0xbdb8cae5	-0.09023074
7	0xbe705793	-0.23470907
8	0xbe09b5f3	-0.13448314
9	0xbe454f51	-0.19268538
10	0xbe504e1e	-0.203423
11	0xbe17c053	-0.1481946
12	0xbe198f5b	-0.14996092
13	0xbdc9d201	-0.09854508
14	0xbdffa6cb	-0.12482985
15	0xbe589dee	-0.21153995
16	0xbe024274	-0.12720662
17	0xbe870c8d	-0.26376763
18	0xbddb34d5	-0.10703436
19	0xbdd955af	-0.10612046
20	0xbe4399db	-0.1910166
21	0x3f7c4f12	0.9855815
22	0x3f818272	1.0117934
23	0x3f765b9f	0.9623355
24	0x3f74c233	0.95608824
25	0x3f798c50	0.97479725
26	0x3f637fb4	0.88866735
27	0x3f76331d	0.9617174
28	0x3f6ecd48	0.93281984
29	0x3f72e934	0.9488709
30	0x3f6c1dfd	0.9223326
31	0x3f6c4ac0	0.9230156
32	0x3f6e60c7	0.9311642
33	0x3f6edf52	0.9330951
34	0x3f78257c	0.96932197
35	0x3f75ab99	0.9596496
36	0x3f6488dc	0.8927133
37	0x3f7e89ad	0.99428827
38	0x3f5fccc7	0.8742184
39	0x3f71c620	0.9444294
40	0x3f763452	0.96173584
41	0x3f645e8c	0.8920677
42	0xbba7515e	-0.0051061353
43	0xbcc7f7d7	-0.024410171
44	0x3cc3605d	0.02384966
45	0xbc8624a0	-0.016374886
46	0xbcc5fba2	-0.02416784
47	0x3959fd41	0.00020789077
48	0x3baacfa3	0.0052127405
49	0xbcc29196	-0.023751061
50	0xbaa158e0	-0.0012309812
51	0xbc1f09a7	-0.009706891
52	0xbb026da8	-0.0019901786
53	0xbc88a1ee	-0.016678777
54	0x3c823730	0.015895456
55	0x3b4d26d7	0.0031303668
56	0xbb4db9cd	-0.0031391263
57	0xbaca8460	-0.0015450828
58	0x3cdd7fbc	0.027038448
59	0x3cd9355e	0.026514705
60	0x3bd01421	0.006350056
61	0x3ad4125b	0.0016179787
62	0x3bf79ad7	0.0075563
63	0xbdfef2dd	-0.12448666
64	0xbde6b1a1	-0.11264349
65	0xbde927f5	-0.11384574
66	0xbe2c735a	-0.16840878
67	0xbdf9b48e	-0.12192641
68	0xbe3740eb	-0.17895858
69	0xbdb865c5	-0.09003786
70	0xbe65b062	-0.22430566
71	0xbde5a0ac	-0.11212286
72	0xbe5291c3	-0.20563416
73	0xbe40ccab	-0.18828075
74	0xbe0b15ac	-0.13582486
75	0xbe15ca3e	-0.1462793
76	0xbdb73064	-0.08944777
77	0xbdc1a288	-0.094548285
78	0xbe57b191	-0.2106383
79	0xbe0644ca	-0.13112178
80	0xbe705d2c	-0.23473042
81	0xbdbe6837	-0.09297221
82	0xbdcbbfae	-0.099486694
83	0xbe178aa5	-0.14798982

while/MatMul_11 f4 [84, 21]
0	0xbebbe93a	-0.36701375
1	0xbebf306e	-0.37341636
2	0x3e49a9e4	0.19693714
3	0xbe096e02	-0.13420871
4	0xbe49d672	-0.1971071
5	0xbc242d5f	-0.010020583
6	0x3e88e6bf	0.26738545
7	0xbe974242	-0.29542738
8	0xbd130c77	-0.03590056
9	0xbe545de3	-0.2073894
10	0xbe6f4500	-0.23366165
11	0xbe83a59b	-0.25712284
12	0x3e66fcfc	0.22557443
13	0xbde9b84c	-0.11412105
14	0xbd70cb61	-0.058787707
15	0x3e60fe6e	0.21972057
16	0x3ee8bf19	0.45458296
17	0x3e89d73d	0.26922026
18	0xbcef01d6	-0.02917568
19	0x3e342c58	0.17595041
20	0xbd42eedc	-0.047591075
21	0xbe30a707	-0.17251216
22	0xbe1a6bec	-0.15080231
23	0x3f078ef7	0.5295252
24	0xbe23ca73	-0.15995197
25	0xbec174f7	-0.3778455
26	0xbe58f9f3	-0.21189098
27	0x3ed0af4c	0.4075874
28	0xbe7b5290	-0.24543214
29	0x3dffcc7f	0.124901764
30	0xbe9f5d8d	-0.3112606
31	0xbd96da5a	-0.07365866
32	0xbe261a5a	-0.1622099
33	0x3ec28103	0.37989053
34	0x3d48ac90	0.048992693
35	0xbe551625	-0.20809229
36	0x3e8085fd	0.25102225
37	0x3f0f1e4c	0.55905604
38	0x3e2b4663	0.16726069
39	0x3d2befd1	0.041976754
40	0xbdd267a7	-0.10273676
41	0x3de5846e	0.112068996
42	0xbd9599ad	-0.07304702
43	0xbeaf6280	-0.34254837
44	0x3e3fe0de	0.18738124
45	0x3d83efa7	0.064421944
46	0xbeb9462a	-0.36186343
47	0xbd02d21f	-0.03193867
48	0x3e19876d	0.14993067
49	0xbebb00e3	-0.36524114
50	0xbdf06736	-0.11738436
51	0xbe1c9650	-0.15291715
52	0xbe58be19	-0.21166267
53	0xbe68d370	-0.22736907
54	0x3e555993	0.20834951
55	0xbd6a46e3	-0.05719651
56	0xbb118575	-0.002220479
57	0xbae6d766	-0.0017611801
58	0x3e9ec21f	0.31007478
59	0x3e4e2e9f	0.20134972
60	0xbccbefe6	-0.024894666
61	0xbd9b48aa	-0.07582219
62	0x3e3c98f5	0.18417723
63	0x3c8e800d	0.017395044
64	0xbe668ab9	-0.22513856
65	0x3efcc111	0.49366048
66	0xbea65eef	-0.32494304
67	0xbe4d8fb9	-0.20074357
68	0xbe73784f	-0.23776363
69	0x3e440505	0.1914254
70	0xbe15fd3e	-0.14647385
71	0x3ba5bcb3	0.005057895
72	0xbce048de	-0.027378496
73	0x3d368a1a	0.044565298
74	0xbe81b2f5	-0.25331846
75	0x3dd9370c	0.106062025
76	0xbdcc5f5a	-0.09979124
77	0x3dc71917	0.097215824
78	0x3da2de97	0.07952612
79	0x3eb03f8f	0.3442349
80	0x3e4643e0	0.1936183
81	0xbcaf13fa	-0.02137183
82	0x3e650660	0.22365713
83	0xbd0bf802	-0.034172066
84	0xbda437a2	-0.080184236
85	0xbd7cfab0	-0.06176251
86	0x3e391921	0.18075992
87	0xbde3aed9	-0.11117334
88	0xbeed5a01	-0.4635773
89	0x3e4298be	0.19003579
90	0x3e1d56d4	0.15365154
91	0xbe28802c	-0.16455144
92	0xbcf177fe	-0.029476162
93	0xbc004ccf	-0.007830813
94	0xbc9ae675	-0.018908719
95	0xbe3458e3	-0.17612033
96	0x3c2ae761	0.010431142
97	0xbdb51edf	-0.08843779
98	0xbe2d907f	-0.16949652
99	0x3d92c6f6	0.07166855
100	0x3e92e4da	0.28690225
101	0x3e4e53fe	0.20149228
102	0x3da25684	0.07926658
103	0xbc908c94	-0.017645158
104	0x3ce69722	0.028148238
105	0xbec11b90	-0.3771634
106	0xbe6fb68b	-0.23409478
107	0x3ef361cb	0.47535548
108	0xbe3bf3a0	-0.18354654
109	0xbea72a7b	-0.32649598
110	0xbda31432	-0.07962836
111	0x3d12d518	0.035847753
112	0xbe4d05d8	-0.2002176
113	0xbdb53002	-0.088470474
114	0xbdc91edc	-0.09820339
115	0xbe2b35d3	-0.16719751
116	0xbeb636e6	-0.3558876
117	0x3ea5f520	0.32413578
118	0x3d156970	0.036477506
119	0xbcb50cc7	-0.02210082
120	0x3e499a36	0.19687733
121	0x3e7df79a	0.24801484
122	0x3d956348	0.07294327
123	0xbd05babd	-0.03264879
124	0x3dcd5eab	0.10027822
125	0x3d628e24	0.055311337
126	0x3d5f3148	0.054490358
127	0xbe4d1b36	-0.20029911
128	0x3e2e88f5	0.17044432
129	0xbdaa46c7	-0.08314281
130	0xbe9d95d4	-0.30778372
131	0x3e04d473	0.12971668
132	0x3d7bb2f6	0.061449967
133	0xbdb248ab	-0.087052666
134	0xbdcae1c7	-0.09906345
135	0xbd866e91	-0.065640576
136	0x3cf7a4c4	0.030229934
137	0xbe260e73	-0.1621645
138	0x3e99b53e	0.3002109
139	0x3e842161	0.25806716
140	0xbd3b63d4	-0.0457495
141	0x3e5be599	0.21474303
142	0x3d7ffec2	0.062498815
143	0x3dcf23de	0.10114263
144	0x3cccfaea	0.025021989
145	0x3d74b381	0.0597415
146	0xbda69e17	-0.08135622
147	0xbd311f56	-0.043242775
148	0xbe7b1ab2	-0.24521902
149	0x3ec8d113	0.3922201
150	0xbb068563	-0.0020526282
151	0xbe636296	-0.22205576
152	0x3d45f4da	0.04832921
153	0x3defd0ae	0.11709724
154	0xbdbcea6d	-0.09224401
155	0xbb70239f	-0.0036642326
156	0xbd5f3334	-0.05449219
157	0x3e618c28	0.22026122
158	0xbe9bdf99	-0.3044403
159	0x3eb9690d	0.3621296
160	0xbe874403	-0.26419076
161	0xbcab1344	-0.02088321
162	0x3e7eab1a	0.24869958
163	0x3eb7cc65	0.35898128
164	0x3e9226cd	0.28545228
165	0x3e1cf196	0.15326533
166	0x3d1f5949	0.03890351
167	0xbd907e46	-0.07055335
168	0xbda766a4	-0.08173874
169	0xbe9c3332	-0.3050781
170	0x3e8599fa	0.26094037
171	0xbe528055	-0.20556767
172	0xbda82ec9	-0.082120486
173	0x3e53ef6e	0.20696804
174	0xbe06ef08	-0.1317712
175	0xbdebb4cb	-0.11509093
176	0x3c349126	0.011020934
177	0xbb9b9378	-0.0047478043
178	0xbe2fb3ac	-0.17158383
179	0xbe363a74	-0.17795736
180	0x3e667a68	0.22507632
181	0xbdb033ce	-0.08603631
182	0xbd160692	-0.03662736
183	0x3e578965	0.21048506
184	0x3e57c5a2	0.21071485
185	0x3e7b79e2	0.24558213
186	0xbdaf3d77	-0.08556645
187	0x3a3926ab	0.0007062952
188	0xbdb878d5	-0.09007422
189	0x3d283c82	0.04107333
190	0xbe64374c	-0.22286719
191	0x3ec68374	0.38772166
192	0xbe1b8c38	-0.15190208
193	0xbe0cbc71	-0.1374376
194	0x3e04a209	0.12952437
195	0x3e94f3dd	0.29092303
196	0x3d835ad3	0.06413808
197	0xbe0d016f	-0.13770078
198	0xbe74b925	-0.23898752
199	0xbe0fe06d	-0.14050455
200	0x3d823dc6	0.063594386
201	0x3e99bddf	0.30027673
202	0x3dc2e40e	0.09516154
203	0xbd9c1bdc	-0.07622501
204	0x3a497e4b	0.00076863606
205	0x3e7ea224	0.24866539
206	0x3e116dfa	0.14202109
207	0x3dbf9416	0.09354417
208	0xbd5d3933	-0.054009628
209	0x3db456ef	0.08805644
210	0xbe9031b8	-0.28162932
211	0xbd4e76ea	-0.050406374
212	0x3e1cd1c1	0.1531439
213	0xbe817036	-0.25280923
214	0xbeecc8d9	-0.46246985
215	0xbe87172d	-0.2638487
216	0x3dff05b5	0.124522604
217	0xbdd1cd55	-0.10244242
218	0x3d62855c	0.055302963
219	0x3cd0cf93	0.025489604
220	0xbd9a8575	-0.07544986
221	0xbe647dee	-0.22313663
222	0x3eef701a	0.46765214
223	0xbd9da357	-0.0769717
224	0xbe661d8c	-0.22472209
225	0x3e031363	0.12800364
226	0x3eb36c97	0.35043785
227	0x3e4ad0cf	0.19806217
228	0x3e00c8e0	0.12576628
229	0x3e4f3e9d	0.20238729
230	0xbd1f3092	-0.03886468
231	0xbe1aee7d	-0.15130039
232	0xbddd4d4d	-0.108057596
233	0x3edcc153	0.43116245
234	0xbeae39e1	-0.34028533
235	0xbe91d62c	-0.28483713
236	0xbd84cb20	-0.064840555
237	0x3d86116f	0.06546294
238	0xbca3111d	-0.019905621
239	0xbc8d4c37	-0.017248256
240	0xbcd367a6	-0.02580626
241	0xbd93739a	-0.071997836
242	0xbdc077f9	-0.09397883
243	0x3e88010e	0.26563305
244	0xbe0674ba	-0.13130465
245	0xbdd4619d	-0.10370181
246	0x3db96365	0.09052161
247	0x3e6f3278	0.23359096
248	0x3ed6f923	0.4198695
249	0x3dfe68ac	0.12422308
250	0x3e3d9153	0.18512468
251	0xbe0687e5	-0.13137777
252	0xbe244407	-0.16041575
253	0xbe10fcb6	-0.14158902
254	0x3ebe209c	0.37134254
255	0xbeb1c3d2	-0.34719712

while/MatMul f4 [84, 32]
0	0xbe2c12a9	-0.16803993
1	0x3e1e60d8	0.1546663
2	0x3d5c2896	0.053749643
3	0xbddaea00	-0.10689163
4	0xbdce6317	-0.10077494
5	0xbe8231da	-0.2542866
6	0xbed9f11c	-0.42566764
7	0x3ddca2d2	0.10773243
8	0x3e4a1344	0.19733912
9	0xbd7e2cf9	-0.062054608
10	0xbdc07e04	-0.093990356
11	0xbddc9f72	-0.10772599
12	0xbd70dc34	-0.058803752
13	0xbccd1ef0	-0.025039166
14	0xbf12fe2c	-0.57419086
15	0xbe8a7b57	-0.27047226
16	0xbeab7d82	-0.33494192
17	0xbd8c544c	-0.06852016
18	0xbe90add8	-0.28257632
19	0xbe336466	-0.17518768
20	0x3d2a120c	0.041521117
21	0x3d7f99c9	0.06240252
22	0x3d84e7c9	0.06489522
23	0xbd3ab3af	-0.045581516
24	0xbe8b5768	-0.27215123
25	0xbd8ac143	-0.06775143
26	0xbea4c177	-0.32178852
27	0x3e0903a7	0.133803
28	0x3e1b3e85	0.15160568
29	0x3dc43496	0.095803425
30	0xbd429594	-0.04750593
31	0xbe9ccbd5	-0.30624261
32	0xbf04a77b	-0.51818055
33	0xbec06a85	-0.37581268
34	0x3eb1cf28	0.3472836
35	0x3dc473c3	0.09592392
36	0xbc7daeea	-0.015483597
37	0x3df60504	0.120126754
38	0xbec108bd	-0.3770198
39	0x3c83d505	0.016092787
40	0xbdb17f34	-0.0866684
41	0x3d0cfa79	0.034418557
42	0xbe09a82c	-0.13443059
43	0xbecdd23b	-0.40199456
44	0xbe88f237	-0.26747295
45	0xbd34fba4	-0.044185296
46	0xbe82824b	-0.2549003
47	0xbebb9403	-0.3663636
48	0xbececdec	-0.4039148
49	0x3dec5e30	0.11541402
50	0xbedfff7f	-0.43749616
51	0xbe82e9db	-0.25569043
52	0x3e837506	0.2567522
53	0xbec8ad16	-0.39194554
54	0xbf088b49	-0.5333753
55	0xbd83670d	-0.0641614
56	0xbdceeb9f	-0.10103535
57	0xbe0d6f88	-0.13812077
58	0xbe178fd6	-0.14800963
59	0xbba931b3	-0.0051633953
60	0xbd251a42	-0.040308245
61	0x3d6825c4	0.05667664
62	0x3e20794e	0.15671274
63	0xbed53c74	-0.41647685
64	0xbdfffa9b	-0.12498971
65	0xbd184065	-0.037170786
66	0x3db25ab9	0.0870871
67	0xb9c14684	-0.00036864367
68	0xbe9f156a	-0.31071025
69	0xbe05a05a	-0.1304945
70	0xbda1a530	-0.07892835
71	0x3dd7989c	0.10527155
72	0xbe558196	-0.20850214
73	0x3e654639	0.22390069
74	0xbc0243c0	-0.007950723
75	0xbe81ba2b	-0.25337347
76	0xbea9fc7a	-0.33200437
77	0x3d445a68	0.04793778
78	0xbe9515b3	-0.29118118
79	0xbd519a9a	-0.05117283
80	0xbe31bd98	-0.1735748
81	0x3e3586f4	0.17727262
82	0x3d06c0c0	0.032898664
83	0xbeb1859c	-0.34672248
84	0x3e9f92bb	0.31166634
85	0xbe500b13	-0.20316724
86	0xbec1e575	-0.37870374
87	0x3dc84fad	0.09780822
88	0xbad06979	-0.0015900574
89	0xbe6f9b7d	-0.23399158
90	0xbd9bc691	-0.07606233
91	0x3dd016d7	0.10160606
92	0xbe62035e	-0.22071597
93	0x3e420f1c	0.18951076
94	0xbd622682	-0.055212505
95	0xbbfec497	-0.0077749
96	0xbeb286e8	-0.3486855
97	0xbe91d77a	-0.28484708
98	0x3e2f1ccf	0.17100833
99	0x3e105471	0.14094712
100	0xbc725e8d	-0.0147930505
101	0x3cea50b4	0.028602935
102	0xbe99c1d8	-0.30030704
103	0xbe5fe76a	-0.21865621
104	0xbe50a380	-0.2037487
105	0x3e9475e0	0.2899618
106	0x3caa4680	0.02078557
107	0xbee0d88e	-0.43915218
108	0xbead5c44	-0.33859456
109	0x3ddea8e4	0.10872057
110	0xbe7366d8	-0.237697
111	0xbdec3b2e	-0.11534725
112	0xbe6ad068	-0.22931063
113	0x3dc968b0	0.09834421
114	0x3d505bed	0.050868917
115	0xbe8cc918	-0.27497172
116	0x3e6fb95b	0.23410551
117	0x3df0cd1a	0.1175787
118	0xbe7e7bc2	-0.24851897
119	0x3ac1edb9	0.0014795578
120	0xbe44f457	-0.19233833
121	0xbe1a1a57	-0.1504911
122	0xbd5c8816	-0.05384072
123	0xbce60e7d	-0.02808308
124	0xbbb175d0	-0.0054156557
125	0x3d9637c0	0.07334852
126	0x3dc7d9b4	0.097583205
127	0xbea0d8e1	-0.31415465
128	0xbebe828f	-0.37208983
129	0xbe279abe	-0.16367623
130	0x3dd1ae35	0.102383055
131	0xbde20a86	-0.110371634
132	0xbe505979	-0.20346631
133	0x3e3a427f	0.18189429
134	0xbe885984	-0.26630795
135	0xbe44a870	-0.19204879
136	0x3d91c988	0.07118517
137	0x3e754932	0.23953703
138	0xbe670653	-0.22561006
139	0xbe7ed2f4	-0.2488516
140	0x3d335797	0.043784704
141	0x3d658920	0.056038976
142	0x3d862c0f	0.06551372
143	0xbe5f3390	-0.21797013
144	0xbda33e39	-0.079708524
145	0xbc54d3b0	-0.012989923
146	0xbe5fcc97	-0.21855389
147	0xbeb560d7	-0.35425445
148	0xbd7bd267	-0.061479952
149	0x3dc696b7	0.09696715
150	0xbe64865f	-0.22316884
151	0x3d80f0ba	0.06295915
152	0xbd94254c	-0.07233676
153	0xbe8c0243	-0.27345476
154	0x3daf8211	0.0856973
155	0xbd505ac2	-0.050867803
156	0x3c7c8e0b	0.015414725
157	0x3d989b73	0.074515246
158	0xbe3db597	-0.18526302
159	0xbea4fbbe	-0.32223314
160	0xbed32f68	-0.41247106
161	0xbe87c5c7	-0.2651808
162	0xbe0b2f0f	-0.1359217
163	0xbe88b8c6	-0.2670347
164	0x3c967d3a	0.01837026
165	0xbda0c2a2	-0.07849623
166	0xbda46675	-0.08027355
167	0x3d1416a5	0.036154408
168	0xbe5f4d48	-0.21806824
169	0xbe590968	-0.21194994
170	0x3e2c8944	0.16849238
171	0xbf039e2c	-0.51413226
172	0xbec755a1	-0.38932517
173	0xbd59ab74	-0.053142026
174	0xbe9230e0	-0.28552914
175	0xbe48b1d4	-0.19599086
176	0xbed97779	-0.42473963
177	0x3e3e54c0	0.18587017
178	0xbe799abb	-0.24375431
179	0xbe81739a	-0.2528351
180	0x3dfe5876	0.12419216
181	0xbd91174b	-0.07084521
182	0xbd14f7cc	-0.03636913
183	0x3d8bfa66	0.06834869
184	0xbc24274a	-0.010019133
185	0xbea04371	-0.31301454
186	0xbe8bfa2c	-0.27339303
187	0xbdbf247b	-0.0933313
188	0xbda53dbf	-0.08068418
189	0xbe83bd9c	-0.25730598
190	0xbe436d56	-0.19084677
191	0xbed97283	-0.42470178
192	0xbe924e9c	-0.285756
193	0xbd99db90	-0.07512581
194	0xbd421369	-0.047381792
195	0x3dc538ee	0.09629999
196	0xbcf68c36	-0.030096155
197	0xbe6beb84	-0.23039061
198	0xbeb75fa0	-0.35815144
199	0xbe838c0f	-0.25692794
200	0x3e06a5ca	0.13149181
201	0x3e89d318	0.26918864
202	0x3e2b8082	0.1674824
203	0xbe51eb9f	-0.20500039
204	0xbe903278	-0.28163505
205	0xbe053894	-0.13009864
206	0x3ca6f2c7	0.020379437
207	0x3c1c7ca6	0.009551203
208	0xbe9f50b4	-0.3111626
209	0x3d84edac	0.06490645
210	0x3de31afb	0.110891305
211	0xbe1dca9a	-0.15409318
212	0xbe066c05	-0.13127144
213	0xbd29bd97	-0.041440573
214	0xbce4c189	-0.027924316
215	0xbdcd9678	-0.10038465
216	0x3e3b80ad	0.18310805
217	0x3deec756	0.11659114
218	0xbeb9a43d	-0.36258116
219	0xbe50feea	-0.20409742
220	0xbdf52e5a	-0.119717315
221	0x3cc01ebe	0.023452159
222	0x3e113fbe	0.14184472
223	0xbe01a88a	-0.12661949
224	0xbf041caf	-0.5160627
225	0xbf0b8e5d	-0.54514104
226	0xbc9bbd7c	-0.019011252
227	0xbe666a64	-0.22501522
228	0xbe84569d	-0.2584733
229	0xbe9d7d66	-0.30759734
230	0xbe8dcb61	-0.27694228
231	0xbcafd75e	-0.021465
232	0x3e1840d0	0.14868474
233	0x3e43a76f	0.1910684
234	0x3d68f520	0.056874394
235	0xbe3c10fa	-0.18365851
236	0xbe478dd6	-0.194877
237	0x3c0de160	0.008659691
238	0xbd87ed7a	-0.06637092
239	0xbefeb45c	-0.49746978
240	0xbe03cadc	-0.12870353
241	0xbe3dcd46	-0.18535337
242	0xbc1955db	-0.009358848
243	0xbf1d1fd8	-0.61376715
244	0x3ea233ed	0.3168024
245	0xbd997a6d	-0.07494054
246	0xbea62e49	-0.32457188
247	0xbd09900c	-0.03358464
248	0xbdd09293	-0.10184207
249	0xbec76ce3	-0.3895026
250	0xbe73c8e0	-0.23807096
251	0xbe5bf0c1	-0.21478559
252	0xbdbf53b0	-0.09342134
253	0xbd6a67a2	-0.05722774
254	0xbdf1f7fb	-0.11814877
255	0xbf004c76	-0.5011667

model_3/bidirectional_3/forward_lstm_3/Read_2/ReadVariableOp1 f4 [84]
0	0xbe1f6adb	-0.15568106
1	0xbe11acda	-0.14226094
2	0xbe5c5eb2	-0.21520498
3	0xbe3bd710	-0.18343759
4	0xbe23da7b	-0.16001312
5	0xbe839bfa	-0.25704938
6	0xbe209b52	-0.1568425
7	0xbddca1ed	-0.107730724
8	0xbdcdbab5	-0.10045377
9	0xbdf5a025	-0.11993436
10	0xbdcdc7f2	-0.10047902
11	0xbe4c57b0	-0.19955325
12	0xbe55bf74	-0.20873815
13	0xbe687287	-0.22699939
14	0xbe2776ee	-0.16353962
15	0xbde6f6c5	-0.11277536
16	0xbe000e57	-0.1250547
17	0xbe13ff61	-0.14452888
18	0xbdba344f	-0.09092008
19	0xbe084a78	-0.13309658
20	0xbe36ae68	-0.17839968
21	0x3f61c6a2	0.88193715
22	0x3f6ae1b2	0.91750634
23	0x3f626b64	0.88445115
24	0x3f61e4a8	0.88239527
25	0x3f661d84	0.8988879
26	0x3f658782	0.89659894
27	0x3f638c8f	0.8888635
28	0x3f729538	0.9475894
29	0x3f6dbf98	0.92870474
30	0x3f696d0c	0.9118202
31	0x3f6615e6	0.89877164
32	0x3f643192	0.8913814
33	0x3f63c34f	0.8896989
34	0x3f5f5f93	0.8725521
35	0x3f6617ac	0.8987987
36	0x3f698a39	0.91226536
37	0x3f68984c	0.90857387
38	0x3f5f0973	0.87123793
39	0x3f750419	0.9570938
40	0x3f622acb	0.88346547
41	0x3f6718d5	0.90272266
42	0xbce9fce7	-0.028562976
43	0xbc0a3dc8	-0.008437581
44	0xbc5e1b20	-0.013556272
45	0xbba38261	-0.0049899076
46	0x3cb8471f	0.02249485
47	0xbc416ad7	-0.011805258
48	0xbbf0b611	-0.0073459228
49	0x3ba5372e	0.0050419783
50	0xbc946133	-0.018112754
51	0x3c44c59c	0.012010004
52	0x3c08aab7	0.008341483
53	0x3b86e133	0.0041162013
54	0x3af13bc5	0.0018404654
55	0xbb1fe79c	-0.0024399525
56	0x3c31fe39	0.010863834
57	0xbb9f12d3	-0.004854539
58	0x3b1f7344	0.0024330178
59	0xbc5b1e18	-0.013373874
60	0xbaaebf39	-0.0013332135
61	0x3c03c0ef	0.008041604
62	0x3ad24ef3	0.0016045257
63	0xbe074780	-0.13210869
64	0xbe0dd740	-0.13851643
65	0xbe578758	-0.21047723
66	0xbe3bc8cd	-0.18338318
67	0xbe028a25	-0.1274801
68	0xbe4d9342	-0.20075706
69	0xbe238caa	-0.15971628
70	0xbd4ceac8	-0.050028592
71	0xbdca8b60	-0.09889865
72	0xbe08c870	-0.13357711
73	0xbdb92178	-0.09039587
74	0xbe462a4e	-0.19352075
75	0xbe249bd0	-0.16075063
76	0xbe50fd46	-0.20409116
77	0xbe178467	-0.14796601
78	0xbdc9fb0b	-0.09862336
79	0xbd90ed9c	-0.070765704
80	0xbe179bac	-0.14805478
81	0xbdba2e85	-0.09090904
82	0xbde0b2f0	-0.109716296
83	0xbe38047d	-0.17970462

while/MatMul_14 f4 [84, 21]
0	0xbe26b3dd	-0.1627955
1	0xbd858d47	-0.06521087
2	0xbe890a3e	-0.26765627
3	0xbdd0b43b	-0.10190626
4	0x3ebab056	0.3646266
5	0x3dd25258	0.10269612
6	0xbd98bbf5	-0.07457725
7	0x3dfe4d49	0.12417085
8	0xbe20cbbb	-0.15702717
9	0x3e4c6a29	0.19962372
10	0x3e89e8d2	0.2693544
11	0x3dbbd238	0.091709554
12	0x3dcd7591	0.1003219
13	0x3d4dd663	0.050253283
14	0x3d327bef	0.043575224
15	0x3d6c9476	0.05775877
16	0xbdcc58c8	-0.09977871
17	0xbe1a7158	-0.150823
18	0xbd23eed4	-0.040022686
19	0x3e051825	0.12997492
20	0x3debf4b3	0.11521282
21	0xbe4c0982	-0.19925502
22	0xbd0bce66	-0.034132384
23	0xbe18cae8	-0.14921153
24	0x3e0f933f	0.14021014
25	0x3d2731b3	0.04081888
26	0x3e91aa57	0.2845027
27	0xbdc51ef4	-0.096250445
28	0x3c8350f2	0.016029809
29	0xbe13cb2a	-0.1443297
30	0x3e0c5204	0.13703161
31	0x3d51d7b3	0.051231097
32	0x3cad66cd	0.021167183
33	0x3e206333	0.15662841
34	0xbd9d8da0	-0.076930285
35	0x3dd7b768	0.10533029
36	0x3bea4a8b	0.0071499995
37	0x3e23c560	0.15993261
38	0xbed7d795	-0.42156664
39	0xbe1d9bab	-0.15391414
40	0x3dc9cc55	0.09853426
41	0xbc48ada7	-0.012248433
42	0xbe9b3d7c	-0.30320346
43	0xbe0d6917	-0.1380962
44	0xbdd10126	-0.10205297
45	0xbe2e1e8b	-0.17003839
46	0x3e446540	0.19179249
47	0x3dae859e	0.08521579
48	0xbdc267ae	-0.094924316
49	0x3b4fd033	0.003170979
50	0xbe2dd7c7	-0.16976844
51	0x3c092d9d	0.008372691
52	0xbdba6b68	-0.09102517
53	0x3e7511d7	0.23932587
54	0x3d7a44a8	0.061100632
55	0xbd977f35	-0.0739731
56	0xbdee87c4	-0.11646989
57	0xbe1c10f9	-0.1524085
58	0x3e989ff3	0.29809532
59	0xbeb73b54	-0.3578745
60	0x3d8341ef	0.0640906
61	0xbcedc9fc	-0.029026978
62	0xbd7eabf0	-0.06217569
63	0xbc209401	-0.009800912
64	0xbdd03e44	-0.10168126
65	0xbe38ea00	-0.18058014
66	0x3ddd1294	0.10794559
67	0x3d81d13c	0.063387364
68	0x3ca51e49	0.020156043
69	0xbe4d19b7	-0.2002934
70	0xbe3c3458	-0.18379343
71	0xbe632598	-0.2218231
72	0x3dbd2251	0.09235061
73	0x3e8c348d	0.27383843
74	0x3c3b9086	0.011448031
75	0x3e85f271	0.2616153
76	0x3978cfb1	0.00023728494
77	0x3e1c924d	0.15290184
78	0x3e0526fa	0.1300315
79	0x3e9d47de	0.30718893
80	0x3d2a9bc1	0.041652445
81	0xbe530e55	-0.20610936
82	0x3dc1cb11	0.0946256
83	0xbd5efbf5	-0.054439504
84	0xbe01b301	-0.12665941
85	0xbe0f7b49	-0.14011873
86	0xbdb8be19	-0.09020633
87	0x3de3e33c	0.11127326
88	0x3ded1587	0.11576372
89	0xbde3979f	-0.11112904
90	0x3cea2fce	0.028587248
91	0xbcd70f1c	-0.026252322
92	0x3de2e49e	0.110787615
93	0xbdf1f487	-0.11814218
94	0x3d1f52df	0.03889739
95	0x3de3cbbd	0.11122844
96	0xbe932939	-0.28742388
97	0xbe7f742a	-0.24946657
98	0x3de11a95	0.10991398
99	0x3e24a7d6	0.1607965
100	0x3cb1144a	0.02161612
101	0xbe5e4708	-0.21706784
102	0xbe890f5c	-0.2676953
103	0xbc8eb5ef	-0.017420737
104	0x3d5b2331	0.053500358
105	0x3d888d22	0.06667544
106	0xbce64dc4	-0.028113253
107	0xbc245f3c	-0.010032471
108	0x3c4b5668	0.012410738
109	0x3e5a1a4d	0.21299095
110	0x3d8fbf27	0.07018881
111	0xbdccf67e	-0.10007952
112	0x3e506c63	0.20353846
113	0xbd9ea377	-0.07746022
114	0x3dc5d2fa	0.09659381
115	0x3d5c91d4	0.05385001
116	0x3d7044ac	0.05865924
117	0x3c1a65e4	0.009423707
118	0xbdc7782a	-0.09739716
119	0xbe2e3c91	-0.17015292
120	0xbdfcf759	-0.12351865
121	0x3e0d6aea	0.13810316
122	0xbe28c379	-0.16480817
123	0xbe5012de	-0.20319697
124	0xbe499772	-0.19686678
125	0xbe2ca49e	-0.16859671
126	0xbb3c6aa2	-0.0028750082
127	0x3e03aec6	0.1285964
128	0xbdf66480	-0.120308876
129	0x3d0ea7b0	0.034827888
130	0x3e4661ad	0.19373198
131	0xbdc31565	-0.09525565
132	0x3e1da102	0.15393451
133	0x3db1d09c	0.08682367
134	0xbe25d15f	-0.1619315
135	0x3d38d52c	0.04512517
136	0x3c865ba5	0.016401121
137	0x3cfafd98	0.030638501
138	0xbcd0dedb	-0.02549689
139	0xbce91758	-0.028453514
140	0xbd88481e	-0.0665438
141	0xbde5db19	-0.1122343
142	0x3e00e9eb	0.12589233
143	0xbe77d4dd	-0.24202295
144	0x3c5db085	0.013530855
145	0x3d352ac9	0.044230256
146	0x3d9cc00e	0.07653819
147	0xbd9192ea	-0.071081
148	0x3d4e397b	0.050347786
149	0xbd26b3d1	-0.04069883
150	0x3d6ce944	0.057839647
151	0xbc74c309	-0.014939078
152	0x3dca445b	0.09876319
153	0xbc966f19	-0.018363522
154	0xbd268f71	-0.04066414
155	0x3e107063	0.14105372
156	0xbe33dcfa	-0.17564765
157	0x3d80fe17	0.06298464
158	0xbd394720	-0.045233846
159	0x3df78ef3	0.12087812
160	0xbdc13b34	-0.0943512
161	0xbd82100c	-0.06350717
162	0xbe07054b	-0.13185613
163	0xbe22fc95	-0.15916665
164	0xbd7f1bc2	-0.06228233
165	0x3d70bfc8	0.058776647
166	0xbdd8c030	-0.10583532
167	0x3c22a99b	0.009928132
168	0x3da66d9f	0.08126377
169	0xbe6accf7	-0.2292975
170	0xbe1a43d5	-0.15064938
171	0xbc8cbd3c	-0.017180078
172	0x3e308699	0.17238845
173	0xbd5f1108	-0.0544596
174	0xbd8ffe5f	-0.07030939
175	0xbe461d2d	-0.19347067
176	0xbd2c0274	-0.041994527
177	0x3cad0e13	0.021124875
178	0xbe111d8a	-0.14171425
179	0x3d97f985	0.07420639
180	0xbdc0bbe1	-0.09410835
181	0xbde279c3	-0.110583805
182	0xbce0b6f0	-0.027430981
183	0xbddbb3eb	-0.10727676
184	0x3e299672	0.16561297
185	0xbea5f9d6	-0.32417172
186	0xbe1684ae	-0.14699051
187	0xbd60b450	-0.05485946
188	0xbdc2fc4f	-0.0952078
189	0xbe505c4a	-0.20347705
190	0x3b20f352	0.0024559093
191	0x3dae5cb1	0.08513773
192	0x3b9dbcaf	0.0048137526
193	0x3e860b5b	0.2618054
194	0xbd5cc136	-0.053895198
195	0xbde2e8b3	-0.1107954
196	0xbcc00ce1	-0.023443641
197	0xbe141d6b	-0.14464347
198	0x3dd56f31	0.10421599
199	0x3dd2429c	0.10266611
200	0xbd46c5bc	-0.048528418
201	0x3ca8a413	0.02058605
202	0xbe1f7601	-0.15572359
203	0xbd59106b	-0.052994173
204	0x3cdfa29b	0.027299216
205	0xbc8b0426	-0.016969752
206	0xbdcf7390	-0.10129464
207	0xbdbe0b93	-0.09279551
208	0x3ed66b82	0.41878897
209	0xbdda5da0	-0.10662389
210	0xbd6bfc09	-0.057613406
211	0x3d45f059	0.048324917
212	0x3da9bc48	0.08287865
213	0xbdf33196	-0.11874692
214	0x3e0d0113	0.13769941
215	0x3de6bd99	0.11266632
216	0xbdc1ce47	-0.094631724
217	0x3da2f910	0.07957661
218	0xbd877c65	-0.06615523
219	0x3e2be1e7	0.16785394
220	0xbdce9c45	-0.100884
221	0x3d9afad8	0.07567376
222	0xbc7c8cdb	-0.015414442
223	0xbe1f4089	-0.15551962
224	0x3c2f6d53	0.010707217
225	0xbd7775e0	-0.06041515
226	0x3da80e1b	0.082058154
227	0x3db23da0	0.0870316
228	0xbd73d54c	-0.059529588
229	0x3e59d7da	0.21273747
230	0xbd0b1936	-0.03395959
231	0xbcd9e1f8	-0.026597008
232	0x3dfb92ef	0.12283885
233	0xbda12188	-0.07867724
234	0x3d918aa9	0.071065255
235	0x3d8b9a27	0.068165116
236	0xbd180717	-0.037116136
237	0xbe755502	-0.23958209
238	0x3dc1f9c2	0.09471466
239	0xbe1f58f4	-0.15561277
240	0x3df485d7	0.119395904
241	0xbe3941e6	-0.18091545
242	0x3d442575	0.047887284
243	0xbc8c9e66	-0.017165374
244	0xbdd7501c	-0.105133265
245	0x3e65e9b3	0.2245243
246	0x3b152213	0.0022755906
247	0x3e24d230	0.16095805
248	0x3c91cfdc	0.01779931
249	0x3c6510cb	0.013981055
250	0xbcc3d008	-0.023902908
251	0xbe097849	-0.13424791
252	0xbc9baec4	-0.019004233
253	0x3a15a0e2	0.00057078723
254	0x3d85df9b	0.0653679
255	0x3cd0c80a	0.025486011

while/MatMul2 f4 [84, 32]
0	0xbebcdc67	-0.36886904
1	0xbeb715a3	-0.35758695
2	0xbdbca919	-0.0921194
3	0xbdb59daa	-0.08867963
4	0xbe89fbe3	-0.26949987
5	0xbe1d30b8	-0.15350616
6	0xbe6377ed	-0.22213717
7	0xbeb06ac3	-0.34456453
8	0x3de590e8	0.11209279
9	0x3d188efe	0.037245743
10	0xbd04b850	-0.032402337
11	0xbee26c04	-0.44223034
12	0xbea18f2b	-0.3155454
13	0x3d4f4aa0	0.050608277
14	0x3e4b0eb0	0.19829822
15	0xbd790568	-0.06079617
16	0xbe8994cf	-0.26871344
17	0x3d6cea30	0.057840526
18	0xbf007e44	-0.50192666
19	0xbef6bf09	-0.48192623
20	0x3e856c14	0.2605902
21	0xbd9097b5	-0.07060186
22	0xbbb0b1ce	-0.0053922897
23	0xbdbce004	-0.09222415
24	0xbda375c1	-0.07981444
25	0xbe954e52	-0.29161316
26	0xbebee9a2	-0.37287623
27	0x3d6a8c64	0.057262793
28	0xbdba7db8	-0.0910601
29	0xbe485eb3	-0.19567375
30	0x3cf674c1	0.03008497
31	0xbe677d50	-0.22606397
32	0x3e2d37f7	0.1691588
33	0xbd3d9f68	-0.0462946
34	0x3e26b68a	0.1628057
35	0xbe52549f	-0.20540093
36	0xbd659b4e	-0.056056313
37	0x3d6214e5	0.055195708
38	0x3bb63861	0.00556092
39	0xbd3c410b	-0.045960467
40	0xbe07728e	-0.13227293
41	0x3c8d0446	0.017213952
42	0xbdf47d51	-0.11937965
43	0xbe731767	-0.23739396
44	0x3d9f01f5	0.07764045
45	0xbe3e6696	-0.18593821
46	0x3d17896e	0.036996298
47	0xbe2a2e52	-0.16619232
48	0xbe3b5069	-0.18292393
49	0xbe38cc26	-0.18046626
50	0xbe4bef9f	-0.19915627
51	0xbeb5bb90	-0.3549466
52	0x3e752cf5	0.23942931
53	0xbe07f6a8	-0.13277686
54	0xbe38b00e	-0.1803591
55	0xbc9d36e3	-0.019191211
56	0xbd47d276	-0.048784696
57	0xbe8ec1ec	-0.27882326
58	0x3cbf6575	0.023363808
59	0xbda8d78c	-0.08244237
60	0xbe3eed7a	-0.18645278
61	0xbe1ce66c	-0.15322274
62	0xbdfb85a6	-0.12281351
63	0xbed9e5fa	-0.4255827
64	0xbe8062e4	-0.25075448
65	0xbe9b6b98	-0.30355525
66	0xbd844fca	-0.06460531
67	0xbd8c2c44	-0.068443805
68	0xbe319ac9	-0.17344202
69	0xbd65e3ca	-0.05612544
70	0x3d8edc80	0.06975651
71	0xbe388d71	-0.18022706
72	0x3e5958ec	0.21225327
73	0x3d8ddd3a	0.06926961
74	0x3cef1f40	0.029189706
75	0xbe57d001	-0.21075441
76	0x3d5aa1b9	0.053376887
77	0xbd88678a	-0.066603735
78	0xbd30871a	-0.043097593
79	0xbe522d47	-0.20525084
80	0xbedd947b	-0.43277344
81	0xbde00746	-0.10938887
82	0x3d667304	0.05626203
83	0xbef2b21c	-0.47401512
84	0xbe44cf46	-0.19219694
85	0xbe8217c0	-0.25408745
86	0x3dd40f93	0.10354533
87	0x3dae683d	0.085159756
88	0xbe842a65	-0.25813594
89	0xbd4914ce	-0.049092107
90	0xbe8c8a32	-0.27449185
91	0xbdb5c22d	-0.08874927
92	0x3dade7c3	0.08491471
93	0xbe190b8b	-0.1494581
94	0x3e2b1a56	0.16709265
95	0xbf1e8d5b	-0.6193444
96	0x3da72d7d	0.08162973
97	0xbe2eba6e	-0.17063305
98	0x3e33b72d	0.17550345
99	0x3d335e63	0.043791186
100	0xbe8ed0ca	-0.27893668
101	0xbe9b5ae6	-0.30342788
102	0xbecc7ac8	-0.39937425
103	0xbe167fe2	-0.14697221
104	0xbe3c05d8	-0.18361604
105	0xbdc4f314	-0.09616676
106	0x3db9da70	0.09074867
107	0xbea1ae4b	-0.31578287
108	0xbe8beb65	-0.2732803
109	0xbd8f44d4	-0.0699555
110	0x3e06ed5e	0.13176486
111	0xbe9ee3cb	-0.31033167
112	0xbe6f291b	-0.23355524
113	0x3e367542	0.17818168
114	0x3e3d98d7	0.18515335
115	0xbdf3f969	-0.119128056
116	0xbd9475df	-0.072490446
117	0xbdb7ffe9	-0.08984358
118	0xbe1c42b9	-0.15259828
119	0x3dc9ee9a	0.09859963
120	0xbd7614ad	-0.06007831
121	0xbd47821c	-0.048708066
122	0xbe4a1a54	-0.19736606
123	0xbe89fe08	-0.26951623
124	0xbde52224	-0.111881524
125	0x3c659302	0.0140121
126	0xbe2e319c	-0.17011112
127	0x3dc085fb	0.09400555
128	0xbcfdae98	-0.030967042
129	0x3e35c1cc	0.17749709
130	0x3dbffa2f	0.093738906
131	0x3e1e90a3	0.15484862
132	0x3df9f4fa	0.12204929
133	0xbdd827ec	-0.105544895
134	0xbe32e6af	-0.17470811
135	0xbda09e9a	-0.07842751
136	0x3e61b674	0.22042257
137	0x3de3f605	0.11130909
138	0x3dc80a2c	0.09767565
139	0xbe58c519	-0.21168937
140	0xbe1b70ff	-0.15179823
141	0x3e4a53ba	0.19758502
142	0xbe18b611	-0.14913203
143	0xbe22210e	-0.15832922
144	0xbe99c219	-0.30030897
145	0xbc171600	-0.009221554
146	0xbe1b5cad	-0.15172072
147	0xbdb4b2ec	-0.08823189
148	0x3e37c207	0.1794511
149	0x3e359a43	0.17734627
150	0x3e0398b3	0.12851219
151	0x3ce9245f	0.028459726
152	0x3e398863	0.18118434
153	0x3dfd2df8	0.123622835
154	0xbe5b87d1	-0.21438529
155	0xbd12c485	-0.035831947
156	0xbe63b189	-0.22235693
157	0xbc53ec1f	-0.012934714
158	0x3e22606a	0.15857092
159	0xbdb540cc	-0.0885025
160	0x3d84e2ca	0.06488569
161	0xbd4754fd	-0.048665036
162	0x3e1d5c92	0.15367344
163	0x3dfb483c	0.12269637
164	0x3d9e1ad0	0.07719958
165	0xbcf354cd	-0.029703522
166	0x3d070183	0.032960426
167	0xbdb2ea55	-0.087361015
168	0x3d9d7d18	0.07689875
169	0xb8447f2e	-4.6848487e-05
170	0x3da74568	0.08167535
171	0xbceda710	-0.029010326
172	0xbe856155	-0.2605082
173	0x3e658694	0.22414619
174	0xbcacbc76	-0.021085959
175	0xbe6e87fb	-0.2329406
176	0xbed2c21e	-0.41163725
177	0xbd962bca	-0.07332571
178	0xbe4e21af	-0.20130037
179	0xbe5c0c82	-0.21489146
180	0x3e549752	0.20760849
181	0xba35367f	-0.00069127226
182	0xbe9ac758	-0.30230212
183	0xbe115393	-0.14192037
184	0xbe81a039	-0.25317553
185	0xbe982fcc	-0.29723966
186	0x3d05df14	0.032683447
187	0x3c46a27d	0.012123701
188	0x3e1b7b1a	0.15183678
189	0x3dee0057	0.116211586
190	0x3ce5995b	0.028027227
191	0xbf100d1f	-0.5627002
192	0xbebd7e20	-0.37010288
193	0xbd15b2c7	-0.03654745
194	0xbdd1465b	-0.10218497
195	0x3e024dd1	0.12724997
196	0xbc981fb1	-0.0185698
197	0x3db1352c	0.0865272
198	0xbd9ed519	-0.07755489
199	0xbcdf794b	-0.027279517
200	0x3e324d6c	0.17412347
201	0x3dde6c53	0.10860505
202	0xbc48cfb0	-0.012256548
203	0x3dae95d4	0.08524671
204	0xbeb4d908	-0.35321832
205	0xbe4b604f	-0.19860958
206	0xbe92e0d3	-0.28687152
207	0xbe7e953f	-0.2486162
208	0xbe25582f	-0.1614692
209	0x3e33e33c	0.17567152
210	0xbe284891	-0.16433932
211	0xbed4aa27	-0.41536066
212	0xbdab2c14	-0.083580166
213	0xbe0b362d	-0.13594885
214	0x3ded06b0	0.11573541
215	0xbe0a75c3	-0.13521485
216	0xbe6a7a52	-0.22898224
217	0xbe68e198	-0.22742307
218	0xbad6ad8e	-0.0016378628
219	0xbe470584	-0.19435698
220	0xbe55b8db	-0.20871298
221	0xbdee4c76	-0.116356775
222	0xbe4e652c	-0.20155782
223	0xbea80b36	-0.32821053
224	0x3c5fff2f	0.01367168
225	0x3b83500f	0.0040073465
226	0xbdc6c40e	-0.09705363
227	0xbdf545ef	-0.119762294
228	0x3d5e4026	0.054260395
229	0xbbeff100	-0.0073224306
230	0x3cd88ac9	0.026433365
231	0x3dee268b	0.11628445
232	0xbdfdbeee	-0.123899326
233	0xbdc440cc	-0.095826715
234	0x3e340e50	0.17583585
235	0xbea83d90	-0.32859468
236	0xbe842225	-0.258073
237	0x3e0ffb34	0.1406067
238	0x3e064c28	0.13114989
239	0x3e04f26e	0.12983105
240	0xbe24dc8d	-0.16099758
241	0x3dc2f908	0.09520155
242	0xbe8ded0a	-0.2771991
243	0xbe66fce7	-0.22557412
244	0x3db46102	0.08807565
245	0x3e1e3a80	0.15452003
246	0x3dead1b4	0.11465779
247	0xbe203372	-0.15644625
248	0x3de21fa6	0.11041193
249	0xbcbb0616	-0.02283005
250	0xbe4749f5	-0.19461806
251	0x3dc6f228	0.097141564
252	0x3d84f2e1	0.06491638
253	0x3de43cb4	0.11144391
254	0x3e4fdf1a	0.2029995
255	0xbe785bb7	-0.24253736
