check_points/student_tflite_models_direct_quantization/student_model_quant.tflite (tflite, 67664 bytes, 12 tensors)

model_4/conv1d_4/BiasAdd/ReadVariableOp f4 [32]
0	0xbe0a19a5	-0.13486345
1	0xbb6d631c	-0.0036222404
2	0xbaadabe6	-0.0013250082
3	0xbd8819e4	-0.06645563
4	0x3e0058ac	0.12533826
5	0x00000000	0.0
6	0xbdc8e627	-0.09809523
7	0xbd739430	-0.059467494
8	0x3e0b24c6	0.13588247
9	0xbd3aa2cb	-0.045565408
10	0xbd3322db	-0.043734413
11	0xbb971c0f	-0.004611499
12	0xbd32f74b	-0.04369287
13	0x00000000	0.0
14	0xbb81ece9	-0.0039650095
15	0xbd739717	-0.059470262
16	0xbdffe245	-0.12494329
17	0xbde56659	-0.11201162
18	0xbe1f57d2	-0.15560845
19	0x00000000	0.0
20	0xba92ef0f	-0.0011210161
21	0xbdb316fd	-0.08744619
22	0x00000000	0.0
23	0xbb424dff	-0.002964854
24	0x00000000	0.0
25	0x00000000	0.0
26	0xbd0a74da	-0.033802845
27	0xbd9e4b36	-0.07729189
28	0xbdca55b4	-0.09879628
29	0xbb36b4e7	-0.0027878822
30	0xbb83344b	-0.0040040365
31	0xbb4ff52f	-0.0031731834

model_4/conv1d_4/Conv1D f4 [32, 1, 1, 4]
0	0x3e947e16	0.29002446
1	0xbed3df3e	-0.41381258
2	0x3db8e331	0.09027708
3	0x3e715385	0.23567016
4	0xbe1170ea	-0.1420323
5	0xbeb11e50	-0.3459344
6	0x3dfc74fc	0.123270005
7	0x3e358aa7	0.17728673
8	0x3eacb227	0.3372967
9	0x3e055b05	0.13023002
10	0xbeb4fdf1	-0.35349992
11	0xbeac4e5d	-0.33653536
12	0x3eb467d4	0.35235465
13	0x3d3fab29	0.04679409
14	0xbdfbef38	-0.12301487
15	0xbd0177b1	-0.031608287
16	0xbe08764d	-0.13326378
17	0xbecfe08f	-0.40601012
18	0x3db5a6f4	0.088697344
19	0xbc8b6ab9	-0.017018663
20	0xbe945d96	-0.2897765
21	0xbd958bd8	-0.07302064
22	0xbdf9b48c	-0.1219264
23	0x3d6392c8	0.055559903
24	0xbec4e4fc	-0.3845595
25	0x3e82e3ff	0.25564572
26	0x3e0ce5e5	0.13759573
27	0x3e6f5ef9	0.23376073
28	0xbe7fbbea	-0.24974027
29	0x3c9aa93a	0.018879522
30	0x3e241832	0.16024855
31	0x3e9982e2	0.29982668
32	0xbeb857e0	-0.36004543
33	0xbd565339	-0.05232546
34	0xbef0793d	-0.46967497
35	0x3e6669b4	0.2250126
36	0x3d983a32	0.07432975
37	0x3e0015aa	0.12508264
38	0xbda3de49	-0.08001382
39	0x3d3fad2b	0.046796005
40	0xbe2e6272	-0.17029741
41	0x3d2e189b	0.042503934
42	0x3e59824d	0.21241112
43	0x3d60dd83	0.05489875
44	0x3e98b788	0.29827523
45	0xbe88960c	-0.26676977
46	0x3e82e5a9	0.25565842
47	0xbec20e69	-0.3790162
48	0x3e0f411e	0.13989684
49	0xbde6c51a	-0.11268063
50	0x3ebb0a64	0.36531365
51	0xbe4befb6	-0.19915661
52	0xbc82db70	-0.015973777
53	0xbe0e22f8	-0.13880527
54	0xbe91ad62	-0.28452593
55	0xbb1ac200	-0.0023614168
56	0xbb7de10a	-0.003873887
57	0xbe22dc63	-0.15904383
58	0x3e2ec306	0.17066583
59	0xbebc9113	-0.36829433
60	0x3e861fab	0.26196036
61	0xbdbd938f	-0.0925666
62	0xbe873266	-0.26405638
63	0x3e8f92e6	0.28041762
64	0x3e983306	0.29726428
65	0x3e8159df	0.2526388
66	0xbe5dc3f7	-0.21656786
67	0xbdf3e97e	-0.119097695
68	0x3e01cbbe	0.12675378
69	0xbdf9eb8e	-0.122031316
70	0x3ea01b00	0.312706
71	0xbdeee419	-0.116646
72	0xbedf136e	-0.4356951
73	0x3e694e0b	0.22783677
74	0x3e048116	0.12939867
75	0x3e8f43d2	0.2798143
76	0xbe2cbae8	-0.16868174
77	0xbe06b37c	-0.13154405
78	0xbd836c0c	-0.06417093
79	0xbea9a247	-0.3313162
80	0xbebdd7d4	-0.37078726
81	0x3eb3df04	0.35131085
82	0xbea3997e	-0.31953043
83	0xbe84c281	-0.25929645
84	0x3e5c929e	0.21540305
85	0xbebebbe6	-0.3725273
86	0x3cae6548	0.021288529
87	0x3eac0ce1	0.33603576
88	0xbec346d2	-0.3813997
89	0xbebc6055	-0.36792246
90	0xbeb0c888	-0.34527993
91	0xbe023854	-0.127168
92	0xbe900b9e	-0.28133863
93	0x3d6df4e1	0.058094863
94	0x3e40cda1	0.18828441
95	0xbd8d039f	-0.06885456
96	0xbe9d95e0	-0.30778408
97	0x3df188b0	0.11793649
98	0xbea70b97	-0.3262603
99	0xbe55161d	-0.20809217
100	0x3d9bc558	0.07606
101	0xbec4f667	-0.3846924
102	0x3dfe18e8	0.12407094
103	0xbeb88d05	-0.3604509
104	0xbe33b7c2	-0.17550567
105	0x3cb971bd	0.022637242
106	0x3d6f0126	0.058350705
107	0x3e6407dd	0.22268625
108	0x3de5dfcb	0.11224326
109	0x3cfbc982	0.030735735
110	0x3ebd53a1	0.36977866
111	0xbe9dc915	-0.30817476
112	0x3df4c8f6	0.11952393
113	0x3e93089e	0.28717512
114	0x3d8878aa	0.0666364
115	0xbe8940e1	-0.2680731
116	0x3e315260	0.1731658
117	0xbdd8e55b	-0.10590621
118	0xbeb1ab4f	-0.3470101
119	0x3dcd8ea5	0.10036973
120	0xbea39937	-0.3195283
121	0xbed0408c	-0.40674245
122	0xbe8cd2b3	-0.275045
123	0x3eaf18ed	0.34198704
124	0xbe8f172b	-0.27947363
125	0xbea6d872	-0.3258701
126	0x3e99d5d2	0.30045944
127	0x3e1a7bfc	0.15086359

model_4/dense_8/BiasAdd/ReadVariableOp f4 [4]
0	0x3eb8b04b	0.36072
1	0x3eb83614	0.35978758
2	0x3eb8ced2	0.3609529
3	0x3eb8deef	0.36107585

model_4/bidirectional_4/forward_lstm_4/Read_2/ReadVariableOp f4 [84]
0	0xbde4807e	-0.111573204
1	0xbe174ae5	-0.14774664
2	0xbe0275b1	-0.12740208
3	0xbe329c1b	-0.17442362
4	0xbdb487e8	-0.088149846
5	0xbe26c9ba	-0.1628789
6	0xbd374ab6	-0.044748984
7	0xbd8182cc	-0.06323776
8	0xbe0c6cc5	-0.13713367
9	0xbdbb9922	-0.09160067
10	0xbdf2fc67	-0.11864548
11	0xbe073789	-0.13204779
12	0xbdfd6e42	-0.12374546
13	0xbdb65313	-0.08902564
14	0xbdef5cb4	-0.116876036
15	0xbe51e63b	-0.20497982
16	0xbdcdfbd5	-0.10057799
17	0xbdf14403	-0.1178055
18	0xbddf98db	-0.10917827
19	0xbe1767ae	-0.14785644
20	0xbe074c5a	-0.1321272
21	0x3f6e6d6d	0.9313572
22	0x3f66d7af	0.9017286
23	0x3f66aa38	0.90103483
24	0x3f586c9c	0.84540725
25	0x3f6e63c1	0.9312096
26	0x3f6d1086	0.9260334
27	0x3f77b065	0.9675353
28	0x3f734072	0.9502021
29	0x3f647ef4	0.89256215
30	0x3f71f723	0.94517726
31	0x3f64e63a	0.894138
32	0x3f6899a3	0.9085943
33	0x3f68eb65	0.90984184
34	0x3f726720	0.94688606
35	0x3f637f06	0.888657
36	0x3f6481c3	0.892605
37	0x3f6ed31b	0.9329087
38	0x3f64b816	0.8934339
39	0x3f6e17e5	0.9300521
40	0x3f6ee825	0.93322974
41	0x3f7354a1	0.9505101
42	0x3b51461a	0.0031932653
43	0xba20c91a	-0.0006133482
44	0x3ac78c9a	0.0015224398
45	0x3ba9180b	0.005160337
46	0xbc0f763f	-0.008756219
47	0xbbc455df	-0.005991682
48	0xbc00baff	-0.007857083
49	0xbaa9a5f3	-0.0012943133
50	0x3bcd3105	0.006261947
51	0xbb0474c1	-0.0020211192
52	0xbb4c2254	-0.003114839
53	0x3c5dabc9	0.013529726
54	0xbb9bcf43	-0.004754932
55	0x3c3d36ba	0.011548692
56	0xbb3d34cc	-0.002887058
57	0x3a0658c7	0.0005124923
58	0x3b8e5a58	0.004344266
59	0xbb55147e	-0.0032513435
60	0x3b60e768	0.0034317616
61	0x3c420971	0.011843071
62	0x3add852e	0.0016900653
63	0xbd9ff21d	-0.07809851
64	0xbe1791d7	-0.14801727
65	0xbddd9bdc	-0.108207434
66	0xbe307618	-0.17232549
67	0xbda4d5b9	-0.08048577
68	0xbe257378	-0.16157329
69	0xbd2f9534	-0.0428669
70	0xbd6ebc18	-0.05828485
71	0xbe0b08f6	-0.13577637
72	0xbdba33bf	-0.09091901
73	0xbdff5c79	-0.1246881
74	0xbe09f54a	-0.13472477
75	0xbdf086bf	-0.11744451
76	0xbdadc696	-0.08485143
77	0xbddc9629	-0.10770828
78	0xbe291bb3	-0.16514473
79	0xbdb92cf5	-0.09041778
80	0xbdf86faa	-0.12130673
81	0xbddde768	-0.10835153
82	0xbe162562	-0.14662698
83	0xbe0295a1	-0.12752391

model_4/bidirectional_4/backward_lstm_4/Read_2/ReadVariableOp f4 [84]
0	0xbdc0615d	-0.093935706
1	0xbcf4f004	-0.029899605
2	0xbe42582a	-0.18978944
3	0xbdf911c5	-0.121615924
4	0xbdda3ffa	-0.10656734
5	0xbe2b757f	-0.1674404
6	0xbdcfb903	-0.1014271
7	0xbdf5ab5a	-0.11995573
8	0xbdc7b49b	-0.09751245
9	0xbe07a73f	-0.13247393
10	0xbd85ed86	-0.065394446
11	0xbe103bde	-0.14085338
12	0xbe10c1a2	-0.14136365
13	0xbda718f7	-0.081590585
14	0xbcdfa202	-0.027298931
15	0xbda22c30	-0.07918584
16	0xbe40b6fe	-0.18819806
17	0xbe3440ab	-0.17602794
18	0xbdd05ba0	-0.10173726
19	0xbe080933	-0.13284759
20	0xbd3ba9c5	-0.0458162
21	0x3f77c282	0.9678117
22	0x3f7f0ed2	0.9963199
23	0x3f6c1b40	0.9222908
24	0x3f6ffb20	0.9374256
25	0x3f75f0e6	0.96070707
26	0x3f6f2e11	0.93429667
27	0x3f6e1ff9	0.93017536
28	0x3f7e67dd	0.9937723
29	0x3f71aca7	0.9440407
30	0x3f75272d	0.957629
31	0x3f74b194	0.9558346
32	0x3f692d5f	0.91084856
33	0x3f636de6	0.88839567
34	0x3f7aa1fc	0.9790342
35	0x3f8007c7	1.0002373
36	0x3f7a490a	0.977677
37	0x3f6e3001	0.93042
38	0x3f655f76	0.89598787
39	0x3f716b8b	0.9430472
40	0x3f6c3dd2	0.9228183
41	0x3f7c5a95	0.9857572
42	0xbc081af1	-0.008307205
43	0x3c2ae950	0.010431603
44	0x3a8c2ce4	0.0010694531
45	0x3c10cb38	0.008837514
46	0xbc9f379c	-0.019435696
47	0xbc996904	-0.018726833
48	0xba909db8	-0.0011033332
49	0xbcaa7200	-0.020806313
50	0xbbb8762a	-0.0056293206
51	0x3b571190	0.0032816865
52	0xbc828999	-0.015934752
53	0xbab43799	-0.001374948
54	0x3c48b3fa	0.012249941
55	0x3b8adccb	0.0042377464
56	0x3c0f870f	0.008760228
57	0x3ca4f48f	0.020136146
58	0x3c55ffb9	0.013061457
59	0xb9ba1391	-0.00035491263
60	0x3c5f24f3	0.013619649
61	0xbc2acdbd	-0.010425028
62	0x3c0627e1	0.008188219
63	0xbdb72326	-0.08942251
64	0xbcee6c15	-0.029104272
65	0xbe3041e5	-0.17212637
66	0xbdd86738	-0.105665624
67	0xbdd52d27	-0.10409003
68	0xbe2a68f4	-0.16641599
69	0xbdce0f42	-0.10061504
70	0xbe053913	-0.13010053
71	0xbdcd235f	-0.10016512
72	0xbdd23df4	-0.10265723
73	0xbd9fe555	-0.078074135
74	0xbe1d12f8	-0.15339267
75	0xbe270177	-0.16309153
76	0xbdb135df	-0.08652853
77	0xbcacac5c	-0.021078281
78	0xbdacf10e	-0.08444415
79	0xbe494c37	-0.1965798
80	0xbe27c4ae	-0.16383621
81	0xbdd307ee	-0.10304247
82	0xbdfd8788	-0.12379366
83	0xbd4cb23b	-0.04997466

model_4/dense_8/MatMul f4 [4, 840]
0	0x3d4279b7	0.047479358
1	0xbd6ca519	-0.057774637
2	0x3d61d5e8	0.055135638
3	0xbc36a7b7	-0.011148385
4	0xbd4ab3b4	-0.049487785
5	0xbd88b5e1	-0.06675316
6	0xbd3eaaa3	-0.04654945
7	0xbd07605f	-0.03305089
8	0xbcdfd7e0	-0.027324617
9	0x3c3d5e68	0.011558153
10	0x3d29b8c9	0.04143599
11	0xbcda2f97	-0.02663402
12	0xbd1278e6	-0.03575983
13	0x3c1ffd31	0.009764955
14	0x3ce27cbf	0.027647374
15	0xbcb95b0b	-0.02262642
16	0xbd0dbfdd	-0.034606803
17	0x3d163dee	0.036680155
18	0xbcafecb3	-0.021475172
19	0xbcaa5fd3	-0.020797646
20	0xbd53b7d0	-0.05168897
21	0xbcc98367	-0.02459879
22	0xbc601bb1	-0.013678477
23	0x3d18152e	0.037129574
24	0xbca7ae82	-0.020468954
25	0x3c493cc9	0.012282559
26	0x3c569629	0.013097324
27	0xbcadace5	-0.021200607
28	0x3b67f313	0.0035392686
29	0xbcd6a3c7	-0.026201142
30	0xbd08ffce	-0.03344708
31	0x3c673550	0.014111832
32	0xbcacb356	-0.021081608
33	0xbc9e7748	-0.019343987
34	0x3d24bfaa	0.040221848
35	0x3cd1e913	0.025623834
36	0x3cbc0ff5	0.022956828
37	0xbca876ca	-0.020564456
38	0xbcb1e251	-0.021714361
39	0xbc9bdff7	-0.019027693
40	0xbbdee7b8	-0.0068025254
41	0xbc2b3de9	-0.010451772
42	0x3cc8429e	0.024445828
43	0xbcee0506	-0.02905513
44	0x3b821dfa	0.0039708586
45	0xbcd42320	-0.025895655
46	0xbd639706	-0.05556395
47	0xbce38e27	-0.027777744
48	0xbd422aab	-0.047403973
49	0xbd0e691f	-0.03476822
50	0xbd1c7435	-0.03819676
51	0x3c95cd9a	0.018286515
52	0x3ce71242	0.028206948
53	0xbcd87d3b	-0.026426902
54	0xbd68b139	-0.056809638
55	0x3c601e33	0.013679075
56	0x3d265c8b	0.0406156
57	0xbd06f2de	-0.03294646
58	0xbc134975	-0.0089896815
59	0x3cd798b8	0.02631794
60	0xbcc38491	-0.023866924
61	0xbc24eea7	-0.010066665
62	0xbd1308c4	-0.03589703
63	0xbc90cb4b	-0.017675063
64	0xbc84d939	-0.016216861
65	0x3d0ce882	0.034401424
66	0xbc831c20	-0.016004622
67	0x3c0f3ca6	0.008742487
68	0x3cd2bce2	0.025724832
69	0xbce50fca	-0.02796163
70	0x3c1dc045	0.00962836
71	0xbcc4c504	-0.024019726
72	0xbcf2ddf8	-0.029646859
73	0x3c23c73c	0.009996232
74	0xbcb5ff46	-0.02221645
75	0xbc57ddb2	-0.013175415
76	0x3ca4cc6a	0.020117003
77	0x3cefda93	0.029279029
78	0x3c9c8e2b	0.01911076
79	0xbce91672	-0.028453086
80	0x3c74c046	0.01493842
81	0xbc8df710	-0.017329723
82	0x3d02558f	0.031819876
83	0xbbf6fa21	-0.007537142
84	0x3d3ce3a3	0.04611553
85	0xbd0d79b8	-0.03453991
86	0x3ced7f4f	0.02899137
87	0xbcca4069	-0.024688916
88	0xbd454d95	-0.04816969
89	0xbd4aacaf	-0.04948109
90	0xbcae4978	-0.021275267
91	0xbd064bec	-0.03278725
92	0xbce1dd81	-0.027571442
93	0x3c9bfa8e	0.019040372
94	0x3cd951ad	0.026528204
95	0xbce1fa88	-0.027585283
96	0xbd08cc28	-0.033397824
97	0xbb82afba	-0.0039882334
98	0x3d10e570	0.03537506
99	0xbcb2c19b	-0.021820834
100	0xba7b6b99	-0.00095909234
101	0x3cb8439d	0.022493178
102	0xbc49ac3e	-0.012309132
103	0xbca5b865	-0.020229528
104	0xbd166972	-0.036721654
105	0xbcf2e76e	-0.02965137
106	0xbc64ec46	-0.013972348
107	0x3d1fcb30	0.039012134
108	0xbcb936e5	-0.022609184
109	0x3c2ea615	0.010659714
110	0x3ca91e01	0.02064419
111	0xbc8ed003	-0.017433172
112	0x3c100848	0.008791037
113	0xbcf4679b	-0.02983456
114	0xbcc54d97	-0.02408485
115	0x3c626c05	0.013819699
116	0xbcd8c144	-0.026459344
117	0xbcb7719a	-0.022393037
118	0x3cc1af6e	0.023643222
119	0x3ccbb2ab	0.024865469
120	0x3cec5d41	0.02885306
121	0xbc9f8282	-0.01947141
122	0x3cf8389d	0.030300433
123	0xbc8244ae	-0.01590189
124	0x3c2e6bb8	0.010645799
125	0xbc3177d0	-0.010831788
126	0xbc8752d5	-0.01651899
127	0xbd08e325	-0.033419747
128	0x3d20bed8	0.039244503
129	0xbcbf7b4b	-0.02337422
130	0xbd354d1e	-0.044262998
131	0xbd2ece73	-0.042677354
132	0xbd1d3d04	-0.038388267
133	0xbcb301bc	-0.021851413
134	0xbcff85bb	-0.031191697
135	0x3d135a69	0.035974894
136	0x3cd42ab6	0.025899272
137	0xbd06c91e	-0.032906644
138	0xbd5d6a1b	-0.05405627
139	0xbb80c314	-0.003929505
140	0x3cda16c9	0.026622193
141	0xbd07e33d	-0.033175696
142	0xbc731ce9	-0.014838436
143	0x3ccb19a7	0.024792505
144	0xbc8e3c2b	-0.017362675
145	0xbc9b3c7d	-0.018949741
146	0xbca1edf3	-0.019766783
147	0xbc588ac8	-0.013216682
148	0xbc627238	-0.013821177
149	0x3d3718a3	0.04470123
150	0xbc91cbd2	-0.017797384
151	0x3b74a690	0.0037330724
152	0x3c8e6d22	0.017386023
153	0xbd002486	-0.03128483
154	0x3c5dd455	0.013539393
155	0xbcd37f58	-0.025817558
156	0xbc07331b	-0.008251931
157	0x3c99d982	0.018780474
158	0xbcb78c5e	-0.0224058
159	0xbcc8f4fb	-0.024530878
160	0x3ce36942	0.027760152
161	0x3cc7cb13	0.024388826
162	0x3c8446ef	0.016147105
163	0xbd0de186	-0.034638904
164	0x3cf1135d	0.029428178
165	0xbc91f922	-0.017818991
166	0x3bd9b18c	0.0066434797
167	0xbbed6e37	-0.0072458046
168	0x3d0c6118	0.034272283
169	0xbc8208e6	-0.015873384
170	0x3ba5b9ea	0.005057563
171	0xbc7f9ef9	-0.015601867
172	0xbcc2b900	-0.023769855
173	0xbd17a7a0	-0.037025094
174	0xbc694397	-0.014237306
175	0xbd07bb6f	-0.033137735
176	0xbcac16e7	-0.021007014
177	0x3c797979	0.015226715
178	0x3d1db7b2	0.038505264
179	0xbcdf8ead	-0.027289713
180	0xbce15f8c	-0.02751138
181	0x3bfe8006	0.0077667264
182	0x3ce10e60	0.027472675
183	0xbd03f987	-0.03222039
184	0xbcbc49a8	-0.02298434
185	0x3c409fb2	0.011756824
186	0xbcb94419	-0.02261548
187	0xbcc38a5f	-0.023869691
188	0xbcd534a1	-0.026026072
189	0xbcd0693e	-0.025440808
190	0xbcabbecd	-0.020965004
191	0x3d236cd2	0.0398987
192	0xbcb21e74	-0.021743037
193	0x3bcd7550	0.0062700883
194	0x3cb5fefa	0.022216309
195	0xbcbee19c	-0.023300938
196	0x3b567302	0.0032722359
197	0xbcbb48b8	-0.022861823
198	0xbcf438ca	-0.029812235
199	0x3c71d0ac	0.014759224
200	0xbcab2959	-0.02089374
201	0xbc9abc6b	-0.018888673
202	0x3ce6ea4d	0.028187895
203	0x3cbbc48e	0.022920873
204	0x3cdd3825	0.02700431
205	0xbcd1570a	-0.025554199
206	0x3c15dd58	0.009147011
207	0xbc8ba1d3	-0.017044937
208	0x3d009851	0.03139526
209	0xbbeff2a6	-0.007322627
210	0x3cd97353	0.026544249
211	0xbcc24c78	-0.023718104
212	0x3d3fb81a	0.046806432
213	0xbd262897	-0.040566053
214	0xbd35edc7	-0.044416215
215	0xbd0ea5d3	-0.03482611
216	0xbd46ec96	-0.04856547
217	0xbcc8329f	-0.0244382
218	0xbcfd6f0a	-0.030936737
219	0x3c276aad	0.010218305
220	0x3ce6e8ac	0.028187118
221	0xbcf48dc8	-0.029852763
222	0xbcdc1715	-0.026866475
223	0xbd0afa8d	-0.03393035
224	0x3cdbdf14	0.02683977
225	0xbcce6a9c	-0.02519732
226	0x3b7e809f	0.0038833988
227	0x3cbf716b	0.023369512
228	0xbd0713f3	-0.03297801
229	0xbc643bc3	-0.013930264
230	0xbcaec633	-0.021334743
231	0xbcdda708	-0.027057186
232	0xbc865c78	-0.016401514
233	0x3d03762c	0.03209512
234	0xbc5e8123	-0.013580593
235	0x3c04b340	0.008099377
236	0x3c9b9a07	0.018994344
237	0xbcdb5be0	-0.026777208
238	0x3c79f64c	0.015256476
239	0xbd18b894	-0.037285402
240	0xbcd6a1b8	-0.02620016
241	0x3be79bd8	0.0070681386
242	0xbcf6b7ee	-0.030117001
243	0xbc8b1e5b	-0.016982248
244	0x3cc465d2	0.023974333
245	0x3d17f7fd	0.037101734
246	0x3d09b013	0.033615183
247	0xbcd9d3b5	-0.026590208
248	0x3cc00d2d	0.023443783
249	0xbc8b910a	-0.017036933
250	0x3cedf282	0.0290463
251	0xbc7aee9b	-0.015315677
252	0x3caa42f0	0.020783871
253	0xbd1a3d00	-0.03765583
254	0x3c9a9734	0.018870927
255	0xbcd176b2	-0.025569294

model_4/bidirectional_4/backward_lstm_4/Read_2/ReadVariableOp1 f4 [84]
0	0xbdc0615d	-0.093935706
1	0xbcf4f004	-0.029899605
2	0xbe42582a	-0.18978944
3	0xbdf911c5	-0.121615924
4	0xbdda3ffa	-0.10656734
5	0xbe2b757f	-0.1674404
6	0xbdcfb903	-0.1014271
7	0xbdf5ab5a	-0.11995573
8	0xbdc7b49b	-0.09751245
9	0xbe07a73f	-0.13247393
10	0xbd85ed86	-0.065394446
11	0xbe103bde	-0.14085338
12	0xbe10c1a2	-0.14136365
13	0xbda718f7	-0.081590585
14	0xbcdfa202	-0.027298931
15	0xbda22c30	-0.07918584
16	0xbe40b6fe	-0.18819806
17	0xbe3440ab	-0.17602794
18	0xbdd05ba0	-0.10173726
19	0xbe080933	-0.13284759
20	0xbd3ba9c5	-0.0458162
21	0x3f77c282	0.9678117
22	0x3f7f0ed2	0.9963199
23	0x3f6c1b40	0.9222908
24	0x3f6ffb20	0.9374256
25	0x3f75f0e6	0.96070707
26	0x3f6f2e11	0.93429667
27	0x3f6e1ff9	0.93017536
28	0x3f7e67dd	0.9937723
29	0x3f71aca7	0.9440407
30	0x3f75272d	0.957629
31	0x3f74b194	0.9558346
32	0x3f692d5f	0.91084856
33	0x3f636de6	0.88839567
34	0x3f7aa1fc	0.9790342
35	0x3f8007c7	1.0002373
36	0x3f7a490a	0.977677
37	0x3f6e3001	0.93042
38	0x3f655f76	0.89598787
39	0x3f716b8b	0.9430472
40	0x3f6c3dd2	0.9228183
41	0x3f7c5a95	0.9857572
42	0xbc081af1	-0.008307205
43	0x3c2ae950	0.010431603
44	0x3a8c2ce4	0.0010694531
45	0x3c10cb38	0.008837514
46	0xbc9f379c	-0.019435696
47	0xbc996904	-0.018726833
48	0xba909db8	-0.0011033332
49	0xbcaa7200	-0.020806313
50	0xbbb8762a	-0.0056293206
51	0x3b571190	0.0032816865
52	0xbc828999	-0.015934752
53	0xbab43799	-0.001374948
54	0x3c48b3fa	0.012249941
55	0x3b8adccb	0.0042377464
56	0x3c0f870f	0.008760228
57	0x3ca4f48f	0.020136146
58	0x3c55ffb9	0.013061457
59	0xb9ba1391	-0.00035491263
60	0x3c5f24f3	0.013619649
61	0xbc2acdbd	-0.010425028
62	0x3c0627e1	0.008188219
63	0xbdb72326	-0.08942251
64	0xbcee6c15	-0.029104272
65	0xbe3041e5	-0.17212637
66	0xbdd86738	-0.105665624
67	0xbdd52d27	-0.10409003
68	0xbe2a68f4	-0.16641599
69	0xbdce0f42	-0.10061504
70	0xbe053913	-0.13010053
71	0xbdcd235f	-0.10016512
72	0xbdd23df4	-0.10265723
73	0xbd9fe555	-0.078074135
74	0xbe1d12f8	-0.15339267
75	0xbe270177	-0.16309153
76	0xbdb135df	-0.08652853
77	0xbcacac5c	-0.021078281
78	0xbdacf10e	-0.08444415
79	0xbe494c37	-0.1965798
80	0xbe27c4ae	-0.16383621
81	0xbdd307ee	-0.10304247
82	0xbdfd8788	-0.12379366
83	0xbd4cb23b	-0.04997466

while/MatMul_11 f4 [84, 21]
0	0x3e1b6774	0.15176183
1	0xbe4d082c	-0.20022649
2	0x3d3412c0	0.043963194
3	0xbd3d9546	-0.046284936
4	0xbe78c205	-0.24292763
5	0xbdb498c4	-0.088182
6	0x3d772f3f	0.06034779
7	0xba9676fb	-0.0011479551
8	0x3e18b92d	0.14914389
9	0x3e7382e0	0.23780394
10	0xbe0cf59b	-0.13765566
11	0xbd06201d	-0.03274547
12	0x3e9da1e8	0.30787587
13	0xbe8f89e8	-0.28034902
14	0x3d9a76d6	0.075421974
15	0xbd2ab77d	-0.041678894
16	0x3cde3085	0.027122745
17	0xbe13f047	-0.14447127
18	0x3daaf782	0.083479896
19	0xbe39e433	-0.18153457
20	0xbd354e27	-0.044263985
21	0x3e82fa11	0.2558141
22	0x3e31eb4d	0.17374916
23	0x3d906fca	0.07052572
24	0x3e140340	0.14454365
25	0xbe7e4728	-0.24831831
26	0xbe23aaca	-0.1598312
27	0xbd9322ef	-0.071843974
28	0xbdb4aa16	-0.08821504
29	0x3e0b0494	0.13575965
30	0xba97542a	-0.0011545469
31	0xbea058ff	-0.313179
32	0xbd8f7557	-0.07004803
33	0x3de7c44d	0.11316738
34	0xbda49408	-0.08036047
35	0xbda15827	-0.07878142
36	0x3d1eeb4a	0.038798608
37	0x3e66501e	0.224915
38	0xbdaa1e90	-0.083066106
39	0x3d9dcbfb	0.07704922
40	0xbe967d08	-0.29392266
41	0x3ec91797	0.3927581
42	0x3d46e400	0.04855728
43	0x3df0a0e1	0.11749435
44	0xbd93cff8	-0.07217401
45	0x3e849fe2	0.2590323
46	0xbdc58117	-0.096437626
47	0xbe528ee1	-0.20562316
48	0x3ea0277e	0.3128013
49	0xbe61243f	-0.21986483
50	0x3da5a35a	0.080877975
51	0x3e1a54d7	0.15071426
52	0xbc14e655	-0.009088119
53	0x3d06524d	0.032793332
54	0x3cef2783	0.029193645
55	0xbe533b71	-0.20628144
56	0x3e8b50ef	0.27210185
57	0x3c3ca1a4	0.0115131475
58	0x3d2ea4d3	0.042637657
59	0xbe184c6c	-0.14872903
60	0x3df70611	0.12061704
61	0xbdbd3aaa	-0.09239705
62	0x3df544b2	0.11975993
63	0x3dbbdec4	0.091733485
64	0x3def5aa7	0.116872124
65	0xbe0620fe	-0.13098523
66	0x3dcce5c6	0.10004763
67	0xbe99043f	-0.29886052
68	0xbe13dba7	-0.1443926
69	0x3d8a16bc	0.067426175
70	0xbebf4202	-0.37355047
71	0xbb148172	-0.0022660163
72	0x3d52722e	0.05137842
73	0xbed20e83	-0.41026697
74	0x3e39ea15	0.18155701
75	0x3e112fb1	0.14178349
76	0xbde75641	-0.112957485
77	0x3d90a11d	0.0706198
78	0xbbaf0162	-0.005340741
79	0x3ca9862f	0.020693867
80	0xbdcd716e	-0.100314006
81	0x3dffd69a	0.12492104
82	0xbe5d5675	-0.21615012
83	0x3e62d29c	0.22150654
84	0x3cf0d7a0	0.029399693
85	0x3e8e22e1	0.27760985
86	0xbbd79c56	-0.006579916
87	0xbd2f809a	-0.042847253
88	0xbda60996	-0.08107297
89	0xbe9a5c87	-0.30148718
90	0x3b8db77c	0.0043248516
91	0xbe7338d3	-0.23752145
92	0x3d411f4c	0.047148988
93	0x3dceb202	0.10092546
94	0xbeb18905	-0.3467485
95	0x3e1306a6	0.14358005
96	0x3d8d59b1	0.06901873
97	0xbb0c9a35	-0.002145422
98	0x3d8496e1	0.0647409
99	0x3d948122	0.07251193
100	0x3ea3a367	0.31960604
101	0x3d4ffe9b	0.05077992
102	0x3ea43486	0.32071322
103	0xbe7c9ee4	-0.24669987
104	0x3e1017b4	0.14071542
105	0x3e1042f8	0.14088047
106	0x3dbafe5b	0.09130546
107	0xbd2568a6	-0.040383004
108	0x3e13fd48	0.14452088
109	0xbe44436b	-0.19166343
110	0xbec5a9fd	-0.38606253
111	0x3d351ffe	0.044219963
112	0xbea5dae8	-0.32393575
113	0xbe091088	-0.13385212
114	0x3e0b54a6	0.1360651
115	0xbe4a1f8c	-0.19738597
116	0x3e85bf93	0.26122722
117	0xbc100ae8	-0.008791663
118	0xbd7d2e83	-0.061811935
119	0xbe5c8d53	-0.21538286
120	0xbdf00145	-0.11718992
121	0x3e756730	0.23965144
122	0xbe242e02	-0.16033176
123	0x3e285ecf	0.16442417
124	0xbe7e094f	-0.24808238
125	0x3ece6e2d	0.40318432
126	0xbcd64dd8	-0.026160166
127	0x3dbb2151	0.09137214
128	0x3d30bf52	0.043151207
129	0x3d9586a1	0.07301069
130	0xbe272762	-0.16323617
131	0xbe0c5e6a	-0.13707891
132	0x3dfd1f23	0.123594545
133	0x3e2de55b	0.16982023
134	0x3e05a5ce	0.1305153
135	0x3e1bb0d3	0.15204172
136	0x3d225c82	0.039639004
137	0x3e0fbd02	0.14036945
138	0x3dba0643	0.090832256
139	0x3d43ad61	0.04777277
140	0x3aced488	0.0015779892
141	0x3dede5e9	0.116161175
142	0x3de4463c	0.11146209
143	0xbd7b63a4	-0.06137432
144	0x3df254d7	0.11832588
145	0xbdb27c80	-0.08715153
146	0x3e6a4d23	0.22880988
147	0x3dcd4c6c	0.10024342
148	0x3e3b8485	0.18312271
149	0xbd3794f7	-0.0448198
150	0x3e6bf91e	0.2304425
151	0xbe886a6f	-0.26643702
152	0xbe753391	-0.23945452
153	0x3dc2990f	0.0950185
154	0xbea57e88	-0.32323098
155	0x3d43e652	0.047827072
156	0x3ddb31de	0.10702871
157	0xbe93031d	-0.28713313
158	0x3ec8bba0	0.39205647
159	0x3ebc432b	0.36769995
160	0xbdcb9fa1	-0.09942556
161	0xbe243e84	-0.16039473
162	0x3e0d5886	0.138033
163	0x3e5d6273	0.21619587
164	0xbe30ac50	-0.17253232
165	0x3e6760e2	0.22595552
166	0xbeba081c	-0.36334312
167	0x3e94de83	0.29076013
168	0x3e495930	0.19662929
169	0xbd9aa8a1	-0.07551695
170	0xbe2edb5d	-0.17075868
171	0x3cab3509	0.020899313
172	0xbe421d47	-0.18956481
173	0x3c13ce4a	0.009021351
174	0x3e32526a	0.17414251
175	0xbe03964c	-0.12850302
176	0xbc97ed4e	-0.018545773
177	0x3e82992d	0.2550749
178	0xbd3c8820	-0.046028256
179	0x3dcc1e77	0.09966748
180	0x3e603994	0.21896964
181	0xbda478a1	-0.08030821
182	0xbd8ffab3	-0.07030239
183	0xbd586995	-0.052835066
184	0x3e95fd28	0.29294705
185	0xbe07a159	-0.13245143
186	0x3db871ee	0.09006105
187	0x3d78a3ca	0.060703076
188	0x3e910914	0.2832724
189	0x3df03dfe	0.11730574
190	0x3e213b07	0.15745173
191	0xbd655a72	-0.05599446
192	0x3e5bc204	0.2146073
193	0xbe56c150	-0.2097218
194	0xbe95f6a6	-0.2928974
195	0xbb21626a	-0.002462531
196	0xbdd6cda7	-0.10488444
197	0x3e597f1e	0.21239898
198	0x3d1d6bd6	0.03843292
199	0xbec3bd37	-0.38230297
200	0x3e625e58	0.22106302
201	0x3ccd483b	0.025058856
202	0xbd8ddf6a	-0.069273785
203	0x3cea7580	0.028620481
204	0xbe2e1117	-0.16998707
205	0x3e214be4	0.15751606
206	0xbcb8e785	-0.022571335
207	0x3d62a73d	0.055335272
208	0x3e0b7e77	0.13622461
209	0x3e7bb2f5	0.24579985
210	0x3e1ba1d0	0.15198445
211	0x3e84598c	0.2584957
212	0x3e0b917a	0.13629714
213	0x3e682a83	0.22672467
214	0xbf00ffb5	-0.5039018
215	0xbea11084	-0.31457913
216	0x3e047258	0.12934244
217	0xbdf296b4	-0.118451506
218	0x3e1c110a	0.15240875
219	0x3e93e228	0.2888348
220	0xbedaf03d	-0.42761412
221	0x3ddf2195	0.10895077
222	0x3dcfde54	0.101498276
223	0xbd9781d5	-0.0739781
224	0xbdd9c8bb	-0.106339894
225	0x3e3fa84a	0.18716541
226	0x3ea7236a	0.32644206
227	0x3a97fde7	0.0011596055
228	0x3e954dab	0.29160818
229	0xbe74cffb	-0.23907463
230	0x3da95a4d	0.08269177
231	0x3e5014d8	0.20320451
232	0x3e042011	0.12902857
233	0x3dadbddc	0.084834784
234	0x3e5d9817	0.21640049
235	0x3c2951aa	0.010334412
236	0xbe8e527e	-0.27797312
237	0x3e923ab5	0.28560415
238	0xbddfcfc2	-0.109282985
239	0x3d9cf319	0.07663555
240	0xbd3a5f1f	-0.04550087
241	0xbec9c3a8	-0.39407086
242	0x3e4fa8d9	0.20279254
243	0x3e47a203	0.19495396
244	0xbd2804f6	-0.041020356
245	0x3d1a6060	0.037689567
246	0xbd9eb9d4	-0.07750288
247	0xbdaa9e83	-0.08331015
248	0xbdde92b9	-0.10867829
249	0x3c72443b	0.014786775
250	0x3d3536cc	0.04424171
251	0xbd55d4e1	-0.05220497
252	0x3cf33e8e	0.029692914
253	0x3e7c8728	0.24660933
254	0x3d8259f7	0.06364816
255	0xbdc41b11	-0.09575475

while/MatMul f4 [84, 32]
0	0xbd162c55	-0.036663372
1	0x3d2b27d0	0.041786015
2	0xbe24be5b	-0.1608824
3	0xbe835eb5	-0.25658193
4	0x3b8123f4	0.0039410535
5	0xbded3f74	-0.11584368
6	0xbf0b8cef	-0.5451192
7	0xbedb7c64	-0.4286834
8	0xbf82b088	-1.0210123
9	0xbdb7f615	-0.08982483
10	0xbe5f4d82	-0.2180691
11	0x3e44267b	0.19155304
12	0xbf009052	-0.50220215
13	0x3d8ef7e8	0.06980878
14	0x3d523f47	0.051329877
15	0xbea48457	-0.32132217
16	0xbd0027d3	-0.03128798
17	0xbe134b33	-0.14384155
18	0x3e4a2d5e	0.19743869
19	0xbe16e602	-0.14736179
20	0x3e466480	0.19374275
21	0xbe804145	-0.25049797
22	0xbe4fe2af	-0.20301317
23	0xbc788d36	-0.015170386
24	0xbe53e5b3	-0.20693092
25	0x3dd95e20	0.10613656
26	0x3d5b00b3	0.053467464
27	0x3db3fa77	0.08788007
28	0xbeeadc81	-0.45871356
29	0x3e2979d4	0.1655038
30	0x3d683950	0.056695282
31	0xbdac7eaa	-0.08422597
32	0xbdbcc927	-0.09218054
33	0x3e42a17a	0.19006911
34	0xbe1b7e29	-0.15184845
35	0xbe3bcebd	-0.18340583
36	0xbe44c7d7	-0.19216858
37	0x3e661d2a	0.22472063
38	0xbe0772e2	-0.13227418
39	0x3cb98b83	0.022649532
40	0xbf519b72	-0.81877816
41	0xbeb7ab32	-0.358728
42	0xbeef2775	-0.4670979
43	0xbe524418	-0.20533788
44	0xbee97bfd	-0.45602408
45	0x3e247f9c	0.16064304
46	0xbd118f70	-0.035537183
47	0xbec4697d	-0.3836173
48	0xbe295f9f	-0.16540383
49	0xbd9319e2	-0.07182671
50	0x3d454f7a	0.048171498
51	0xbc03dcb0	-0.0080482215
52	0xbe01f54c	-0.1269123
53	0xbe2819a9	-0.16416039
54	0xbdf18991	-0.11793817
55	0xbd3a10aa	-0.04542605
56	0xbe2c4b52	-0.16825607
57	0x3d724cb0	0.059155166
58	0xbe8c07a7	-0.27349588
59	0xbe37c178	-0.17944896
60	0xbe4dfe7a	-0.20116606
61	0xbc981d60	-0.018568695
62	0x3d95c580	0.07313061
63	0x3dce6664	0.10078123
64	0x3d96449a	0.073373035
65	0x3d29aa40	0.04142213
66	0x3dd131c4	0.1021457
67	0xbda31adc	-0.079641074
68	0xbe53abe1	-0.20671035
69	0x3c7b6100	0.015342951
70	0xbe65bdaf	-0.2243564
71	0xbe95eb52	-0.29281098
72	0x3ea0d7e0	0.314147
73	0xbe2310cd	-0.15924378
74	0xbe8138a3	-0.25238523
75	0xbe30fc31	-0.17283703
76	0xbd9c0be6	-0.07619457
77	0xbc19f0c0	-0.009395778
78	0xbe17537c	-0.1477794
79	0x3aa23792	0.001237618
80	0x3c8cbfff	0.017181395
81	0xbd854dfa	-0.065090135
82	0x3de3ec83	0.111290954
83	0xbd88b6a8	-0.06675464
84	0xbdb67e18	-0.08910769
85	0x3dd0ebe4	0.102012426
86	0xbded3f1d	-0.115843035
87	0x3cf9c244	0.03048814
88	0xbdd07afa	-0.10179706
89	0x3df7e300	0.12103844
90	0xbe7327cb	-0.23745649
91	0x3cd615e5	0.026133487
92	0xbeb87cca	-0.36032706
93	0x3da8b4bc	0.08237597
94	0xbc4dedb0	-0.012568876
95	0x3d57c858	0.052681297
96	0xbc9e43e2	-0.019319478
97	0x3e2a88e2	0.16653779
98	0x3df445bc	0.11927363
99	0x3d134cb1	0.03596181
100	0xbf2b7485	-0.6697467
101	0x3da441e8	0.08020383
102	0xbee10d2b	-0.4395536
103	0xbe8adcc6	-0.27121562
104	0xbec0e261	-0.37672713
105	0xbea5fd81	-0.3241997
106	0x3c269fb3	0.010169911
107	0x3e0dce88	0.13848317
108	0xbf0779c3	-0.5292017
109	0x3d7efd68	0.062253386
110	0x3e10e53e	0.14149949
111	0xbdc87cbb	-0.097894154
112	0x3daaaa75	0.08333293
113	0xbe84382d	-0.2582411
114	0x3e49bbb0	0.19700503
115	0x3dd9ff7c	0.10644433
116	0x3d6cc170	0.057801664
117	0xbe3972f7	-0.18110262
118	0x3db3e838	0.087845266
119	0x3dbe8f4a	0.09304674
120	0xbd308fd4	-0.043105915
121	0xbe39fc10	-0.1816256
122	0xbe8428c4	-0.25812352
123	0xbf46e45f	-0.77692217
124	0x3dae49ba	0.08510156
125	0x3dca4554	0.098765045
126	0x3e1a87b2	0.15090826
127	0x3d2b6208	0.041841537
128	0xbe8e8f6a	-0.2784379
129	0x3d2cad78	0.04215762
130	0xbcfab5b8	-0.030604228
131	0xbea5e00d	-0.323975
132	0xbede80e6	-0.43457717
133	0x3e4eac7c	0.20182985
134	0xbc3295f1	-0.010900007
135	0xbea0791a	-0.31342393
136	0xbe848b46	-0.25887507
137	0xbee25c73	-0.44211158
138	0xbe9ad624	-0.302415
139	0x3e0aeb47	0.13566314
140	0xbdf71caa	-0.12066014
141	0xbe4808ce	-0.19534609
142	0x3e1482f6	0.14503083
143	0xbdb201aa	-0.08691724
144	0xbca28c58	-0.019842312
145	0xbe648d4e	-0.22319528
146	0x3d4a898d	0.049447585
147	0x3e033c88	0.1281606
148	0xbd9d87f4	-0.076919466
149	0xbedd3b74	-0.43209422
150	0x3e54cf82	0.20782283
151	0x3d703ca2	0.058651574
152	0xbe5af150	-0.21381116
153	0x3e3c3ec6	0.18383321
154	0xbf14c52d	-0.58113366
155	0x3dbcccec	0.09218773
156	0xbf00ce4f	-0.503148
157	0xbcc70398	-0.024293706
158	0x3e0a30ac	0.1349513
159	0xbe3a14f0	-0.1817205
160	0xbe07ec61	-0.13273765
161	0x3e0c18fa	0.13681403
162	0x3e0fec96	0.14055094
163	0xbf08a354	-0.5337422
164	0xbe522816	-0.20523104
165	0x3d549238	0.051897258
166	0xbed7ebdf	-0.42172143
167	0xbeae1786	-0.34002322
168	0xbe9fe587	-0.31229803
169	0xbe5967fd	-0.21231075
170	0xbf00f37f	-0.50371546
171	0x3e2e8227	0.17041837
172	0xbea960ed	-0.3308176
173	0x3e5aba6e	0.2136018
174	0xbe382f90	-0.17986894
175	0xbec93061	-0.39294723
176	0xbea687a5	-0.32525364
177	0xbe6af087	-0.22943316
178	0x3e8c6cdf	0.27426812
179	0x3e5dc3d4	0.21656734
180	0xbe52d646	-0.20589551
181	0x3d0f68fa	0.035012223
182	0xbdc30df2	-0.09524144
183	0x3db75ec4	0.08953622
184	0x3cdaed10	0.026724368
185	0x3d126078	0.03573653
186	0xbca0f0e2	-0.019646112
187	0xbd2974d9	-0.0413712
188	0xbed8bf2e	-0.4233336
189	0x3d9edb90	0.07756722
190	0xbdf435a6	-0.11924295
191	0xbd0e9878	-0.034813374
192	0xbd96e1c0	-0.07367277
193	0xbe38f521	-0.1806226
194	0x3dc69654	0.096966416
195	0x3d3cb494	0.04607065
196	0xbe08f363	-0.13374095
197	0x3e49e682	0.19716838
198	0xbe878523	-0.26468763
199	0x3d476781	0.048682693
200	0xbf66832f	-0.9004392
201	0xbe8e17d3	-0.2775255
202	0xbecb89cd	-0.3975357
203	0x3dadccad	0.084863044
204	0x3e1e3a3b	0.154519
205	0xbda12a8a	-0.07869442
206	0x3d6c6f64	0.057723418
207	0xbd7b40c4	-0.061341062
208	0xbe836c0e	-0.25668377
209	0x3df142b5	0.117803015
210	0x3d737907	0.059441593
211	0x3d16c3e8	0.036807925
212	0x3db06504	0.08613017
213	0x3d697245	0.05699374
214	0xbe36a2ea	-0.17835584
215	0xbe271e67	-0.16320191
216	0xbde80452	-0.11328949
217	0xbe1efbd4	-0.15525752
218	0xbee0ca3c	-0.43904293
219	0xbed58c80	-0.41708755
220	0xbd8c085c	-0.06837532
221	0xbe16786b	-0.14694373
222	0xbe60d1c2	-0.21955016
223	0xbd4ea9e0	-0.050454974
224	0xbe008e0f	-0.12554191
225	0x3dd77394	0.10520092
226	0x3e5611fa	0.20905295
227	0xbe442a04	-0.19156653
228	0xbd94c931	-0.07264937
229	0x3d1e04d0	0.03857881
230	0x3d529fb4	0.051421836
231	0xbe4a34ff	-0.19746779
232	0xbfb09e2f	-1.3798274
233	0xbab1c1aa	-0.0013561745
234	0xbe69b2ff	-0.22822188
235	0x3e5fd7c6	0.21859655
236	0xbea34d3b	-0.3189486
237	0xbe5cb2a4	-0.21552521
238	0x3e513acb	0.20432584
239	0xbe80cf53	-0.25158176
240	0xbd90b177	-0.07065099
241	0xbee78763	-0.4522048
242	0x3dc041eb	0.09387573
243	0x3e057562	0.13033059
244	0x3e0bac0e	0.13639852
245	0x3c5ebd14	0.013594884
246	0x3cd2fae0	0.025754392
247	0x3de2d4ad	0.11075721
248	0xbe3da628	-0.18520415
249	0x3cf0fc10	0.029417068
250	0xbeb1f277	-0.34755298
251	0xbf39786d	-0.7244938
252	0xbe6a8bfa	-0.2290496
253	0xbdb2bdd6	-0.087276146
254	0xbe02212e	-0.1270797
255	0x3dac0ea0	0.08401227

model_4/bidirectional_4/forward_lstm_4/Read_2/ReadVariableOp1 f4 [84]
0	0xbde4807e	-0.111573204
1	0xbe174ae5	-0.14774664
2	0xbe0275b1	-0.12740208
3	0xbe329c1b	-0.17442362
4	0xbdb487e8	-0.088149846
5	0xbe26c9ba	-0.1628789
6	0xbd374ab6	-0.044748984
7	0xbd8182cc	-0.06323776
8	0xbe0c6cc5	-0.13713367
9	0xbdbb9922	-0.09160067
10	0xbdf2fc67	-0.11864548
11	0xbe073789	-0.13204779
12	0xbdfd6e42	-0.12374546
13	0xbdb65313	-0.08902564
14	0xbdef5cb4	-0.116876036
15	0xbe51e63b	-0.20497982
16	0xbdcdfbd5	-0.10057799
17	0xbdf14403	-0.1178055
18	0xbddf98db	-0.10917827
19	0xbe1767ae	-0.14785644
20	0xbe074c5a	-0.1321272
21	0x3f6e6d6d	0.9313572
22	0x3f66d7af	0.9017286
23	0x3f66aa38	0.90103483
24	0x3f586c9c	0.84540725
25	0x3f6e63c1	0.9312096
26	0x3f6d1086	0.9260334
27	0x3f77b065	0.9675353
28	0x3f734072	0.9502021
29	0x3f647ef4	0.89256215
30	0x3f71f723	0.94517726
31	0x3f64e63a	0.894138
32	0x3f6899a3	0.9085943
33	0x3f68eb65	0.90984184
34	0x3f726720	0.94688606
35	0x3f637f06	0.888657
36	0x3f6481c3	0.892605
37	0x3f6ed31b	0.9329087
38	0x3f64b816	0.8934339
39	0x3f6e17e5	0.9300521
40	0x3f6ee825	0.93322974
41	0x3f7354a1	0.9505101
42	0x3b51461a	0.0031932653
43	0xba20c91a	-0.0006133482
44	0x3ac78c9a	0.0015224398
45	0x3ba9180b	0.005160337
46	0xbc0f763f	-0.008756219
47	0xbbc455df	-0.005991682
48	0xbc00baff	-0.007857083
49	0xbaa9a5f3	-0.0012943133
50	0x3bcd3105	0.006261947
51	0xbb0474c1	-0.0020211192
52	0xbb4c2254	-0.003114839
53	0x3c5dabc9	0.013529726
54	0xbb9bcf43	-0.004754932
55	0x3c3d36ba	0.011548692
56	0xbb3d34cc	-0.002887058
57	0x3a0658c7	0.0005124923
58	0x3b8e5a58	0.004344266
59	0xbb55147e	-0.0032513435
60	0x3b60e768	0.0034317616
61	0x3c420971	0.011843071
62	0x3add852e	0.0016900653
63	0xbd9ff21d	-0.07809851
64	0xbe1791d7	-0.14801727
65	0xbddd9bdc	-0.108207434
66	0xbe307618	-0.17232549
67	0xbda4d5b9	-0.08048577
68	0xbe257378	-0.16157329
69	0xbd2f9534	-0.0428669
70	0xbd6ebc18	-0.05828485
71	0xbe0b08f6	-0.13577637
72	0xbdba33bf	-0.09091901
73	0xbdff5c79	-0.1246881
74	0xbe09f54a	-0.13472477
75	0xbdf086bf	-0.11744451
76	0xbdadc696	-0.08485143
77	0xbddc9629	-0.10770828
78	0xbe291bb3	-0.16514473
79	0xbdb92cf5	-0.09041778
80	0xbdf86faa	-0.12130673
81	0xbddde768	-0.10835153
82	0xbe162562	-0.14662698
83	0xbe0295a1	-0.12752391

while/MatMul_14 f4 [84, 21]
0	0xb9b231a0	-0.0003398778
1	0xbe76453b	-0.24049847
2	0x3bf9e650	0.0076263323
3	0x3dfabea3	0.12243392
4	0x3dda4dcd	0.106593706
5	0x3e31407f	0.1730976
6	0x3cd0dd44	0.025496133
7	0x3d12b586	0.035817645
8	0x3df6b252	0.12045731
9	0xbe2bb03f	-0.16766451
10	0xbe0fc76a	-0.14040914
11	0x3d352b7a	0.044230916
12	0x3c9fcf06	0.019507896
13	0xbe7917ef	-0.24325536
14	0xbca11c9d	-0.019666964
15	0xbd70cf66	-0.05879154
16	0x3e150369	0.14552082
17	0x3a516fb7	0.0007989364
18	0xba42b167	-0.00074269477
19	0x3e165a90	0.14682984
20	0x3cbb3291	0.02285126
21	0xbdbd62b9	-0.092473455
22	0x3e6a5fb5	0.22888072
23	0xbd69261a	-0.056921102
24	0x3b290630	0.0025791042
25	0xbe2e95f4	-0.1704939
26	0xbc8a9513	-0.016916787
27	0x3e75af00	0.23992538
28	0xbd9fde9d	-0.07806132
29	0x3d96d5e8	0.07365018
30	0xbd3bb862	-0.045830138
31	0xbe58a913	-0.21158247
32	0x3d4af968	0.04955426
33	0xbdb543a3	-0.08850791
34	0x3d275604	0.040853515
35	0xbe3cebc3	-0.18449311
36	0x3e7365e6	0.2376934
37	0xbd31c299	-0.043398473
38	0xbe54cfec	-0.20782441
39	0x3c608fe1	0.013706178
40	0x3e877600	0.26457214
41	0x3ddb137b	0.10697075
42	0xbdaf80e5	-0.085695066
43	0xbd8d9e5b	-0.069149695
44	0xbcfd9ea1	-0.03095943
45	0x3d3e7e9d	0.046507467
46	0xbd71b8b8	-0.059014052
47	0x3ecb3687	0.3969004
48	0x3e3a0daf	0.18169282
49	0x3d4633de	0.04838931
50	0x3d0078ba	0.031365134
51	0x3d0ecd5e	0.034863822
52	0xbd874695	-0.06605259
53	0x3d256d98	0.04038772
54	0x3db0ba55	0.0862929
55	0x3e0f2285	0.13978012
56	0xbe78a466	-0.24281463
57	0xbd0cd186	-0.034379505
58	0x3e470ff5	0.19439681
59	0xbd70d2e3	-0.058794867
60	0x3db50079	0.08837981
61	0x3d77001b	0.060302835
62	0xbb48fc50	-0.0030667968
63	0xbda268d0	-0.07930148
64	0x3ccc0ed9	0.024909424
65	0x3df11e61	0.117733724
66	0x3d23f55f	0.040028926
67	0x3e9634ef	0.2933726
68	0x3e9dc947	0.30817625
69	0x3e92905f	0.2862577
70	0x3d50ad45	0.050946493
71	0xbc0b0db9	-0.008487158
72	0xbe61f99b	-0.22067873
73	0xbe42bd3a	-0.19017497
74	0x3d9fce51	0.078030236
75	0x3e327d48	0.17430604
76	0xbcd7ddff	-0.026350973
77	0xbd8a8eca	-0.06765516
78	0xbc95999e	-0.018261727
79	0xbc9aef4d	-0.018912936
80	0x3be104fb	0.006867049
81	0x3d3e6da9	0.0464913
82	0x3e7ed474	0.24885732
83	0x3e37956e	0.17928097
84	0xbd8a2e85	-0.06747154
85	0xbc282053	-0.010261613
86	0xbd376a57	-0.044779148
87	0x3e1fc3d2	0.15602043
88	0x3dc8f540	0.09812403
89	0xbc4600f0	-0.012085184
90	0x3df01153	0.11722054
91	0xbcb9ec64	-0.022695728
92	0x3dbaf574	0.09128848
93	0xbe1b6a72	-0.15177324
94	0x3d7d3fc8	0.061828405
95	0x3e0ceca4	0.13762146
96	0xbd4f9158	-0.05067572
97	0xbd35f9ab	-0.044427555
98	0xbd06398f	-0.032769736
99	0x3d8ce77c	0.0688009
100	0x3e7e74da	0.24849263
101	0xbe34ecb8	-0.17668426
102	0x3d3cb5f2	0.046071954
103	0x3de9987f	0.114060394
104	0x3e6ce62b	0.23134677
105	0xbdb2418e	-0.0870391
106	0x3dbd9ee7	0.09258824
107	0xbe2e2c61	-0.17009117
108	0x3dd24a8f	0.10268127
109	0x3de9f1bc	0.1142306
110	0xbc004e6e	-0.007831199
111	0x3c236a61	0.009974093
112	0x3dcc033a	0.09961553
113	0x3ddd0abb	0.10793062
114	0xbde72200	-0.11285782
115	0xbddb3484	-0.10703376
116	0x3e2afed9	0.16698779
117	0x3ea4caa4	0.32185853
118	0xbcd2086f	-0.025638787
119	0x3d2acf9b	0.041701894
120	0xbae1acae	-0.00172176
121	0x3e966a47	0.29377958
122	0xbeb06773	-0.34453925
123	0xbe7e6621	-0.24843647
124	0x3e0edfb1	0.13952519
125	0x3df1ea71	0.11812294
126	0xbdd7318f	-0.105074994
127	0x3de82047	0.113342814
128	0xbda6da1b	-0.08147069
129	0xbd56851f	-0.052373048
130	0x3d9e38db	0.07725688
131	0x3e4242a2	0.18970731
132	0xbb3747e6	-0.0027966439
133	0x3c8fd0fc	0.017555706
134	0x3adb2f59	0.0016722485
135	0xbd94bd14	-0.07262626
136	0xbe4dd647	-0.20101272
137	0xbe0fef4c	-0.14056128
138	0x3da8752b	0.08225473
139	0x3cab2eae	0.020896282
140	0xbd7ce376	-0.06174036
141	0x3d98a737	0.07453769
142	0x3e206b65	0.15665968
143	0xbd8a20f9	-0.0674457
144	0x3e3d94c0	0.18513775
145	0xbdf82e22	-0.12118174
146	0x3e440f2b	0.19146411
147	0x3e8378b9	0.25678042
148	0x3e38da04	0.18051916
149	0x3dac1846	0.08403067
150	0xbe3313e3	-0.17488055
151	0x3da716ba	0.081586316
152	0x3dcb721b	0.09933873
153	0xbd224f29	-0.039626274
154	0x3d930817	0.071792774
155	0x3d961616	0.07328431
156	0x3e0dbf49	0.13842501
157	0xbe1483fc	-0.14503473
158	0xbc678550	-0.014130905
159	0x3e6b57a1	0.22982647
160	0xbc41f4f2	-0.011838185
161	0x3ce231f0	0.027611703
162	0x3e48b7df	0.19601391
163	0x3bc89859	0.006121677
164	0xbe15513b	-0.14581768
165	0x3cec10b7	0.028816564
166	0x3e2b9d64	0.16759259
167	0x3dc024c2	0.09382011
168	0xbe07daf9	-0.13267125
169	0x3e98f1f6	0.29872102
170	0x3e3f1282	0.18659404
171	0x3dbf619b	0.09344789
172	0x3e1c4435	0.15260394
173	0xbc8d7393	-0.017267024
174	0x3e27dfec	0.16394013
175	0x3e23a7c5	0.15981968
176	0x3dff654e	0.12470494
177	0x3d534a16	0.051584326
178	0xbeb1fc99	-0.3476303
179	0x3de4ca64	0.111714154
180	0xbd04e7d4	-0.03244765
181	0xbd9d46e5	-0.07679538
182	0xbe633558	-0.22188318
183	0xbda8e4b9	-0.082467504
184	0x3d2cecb6	0.042217933
185	0xbeb8d9df	-0.36103722
186	0x3e94acfe	0.29038233
187	0x3e79c849	0.24392809
188	0x3dab4574	0.083628565
189	0xbd8ecb44	-0.069723636
190	0xbe332b07	-0.17496882
191	0xbe20561a	-0.15657845
192	0x3e4838d3	0.19552927
193	0x3e13f1da	0.14447728
194	0x3e146b3e	0.14494035
195	0x3ae763ab	0.0017653605
196	0xbe122deb	-0.14275329
197	0x3df23d89	0.11828143
198	0x3d134d2d	0.035962272
199	0xbebb92cd	-0.36635438
200	0xbdc83234	-0.097752005
201	0x3cdc4b52	0.026891384
202	0x3d801b8f	0.062552564
203	0xbc9f20e6	-0.019424867
204	0xbda57521	-0.08078981
205	0xbc589575	-0.013219227
206	0xbd35d4ad	-0.044392277
207	0x3e0cd5d9	0.13753451
208	0x3e8408a7	0.2578785
209	0x3e1cae4c	0.15300864
210	0x3d38558a	0.04500345
211	0x3d93867f	0.072033875
212	0xbc79e3e2	-0.015252085
213	0x3e50b633	0.20382003
214	0x3e681a77	0.22666346
215	0x3e0b2b2f	0.13590692
216	0xbe000a8c	-0.12504023
217	0x3e695ef6	0.22790131
218	0x3e4c4678	0.19948757
219	0xbe400183	-0.18750577
220	0xbd021b9a	-0.031764604
221	0x3e62d659	0.2215208
222	0x3db938ae	0.09044014
223	0x3c041767	0.00806222
224	0xbde4c7d0	-0.11170924
225	0x3e9bda76	0.3044011
226	0xbd97e6db	-0.07417079
227	0xbe4c6430	-0.19960093
228	0x3db96d24	0.0905402
229	0x3eb3124c	0.34974897
230	0x3def585c	0.11686775
231	0x3df6fd03	0.12059977
232	0x3e4e282b	0.2013251
233	0x3da96c37	0.082725935
234	0x3e525295	0.20539315
235	0x3c72ca2d	0.01481871
236	0x3e5409ed	0.20706911
237	0x3ded577a	0.115889505
238	0x3db610d0	0.088899255
239	0x3e356eaa	0.17717996
240	0xbeae401c	-0.34033287
241	0xbea7bf68	-0.3276322
242	0x3e4fb958	0.20285547
243	0x3e053e6e	0.13012096
244	0x3e9f8d5e	0.31162542
245	0xbe6d87b5	-0.231963
246	0x3d588df6	0.05286976
247	0x3e6dea45	0.23233898
248	0xbe799d31	-0.2437637
249	0x3eb1a51d	0.34696284
250	0x3ec16b77	0.37777302
251	0x3d53c64a	0.051702775
252	0xbba7a13f	-0.0051156576
253	0xbdbf0c10	-0.093284726
254	0xbe944bdf	-0.28964135
255	0xbd41790e	-0.047234587

while/MatMul2 f4 [84, 32]
0	0xbd1b89fe	-0.037973396
1	0xbdeb6107	-0.11493116
2	0xbdec8c94	-0.11550251
3	0x3e2cfd06	0.16893396
4	0xbdee18b6	-0.11625807
5	0xbe26016b	-0.16211478
6	0x3de91188	0.11380297
7	0xbf34cd4b	-0.7062575
8	0x3d09395b	0.033501964
9	0xbeabb07a	-0.33533078
10	0xbdcd6f21	-0.10030962
11	0x3e083c35	0.13304217
12	0xbd918260	-0.07104945
13	0xbcc99d10	-0.024611026
14	0x3d90c96c	0.07069668
15	0xbe815e0f	-0.25267074
16	0x3dc507ab	0.09620603
17	0xbce51306	-0.027963173
18	0x3de9b0d4	0.114106804
19	0x3e2b0c02	0.167038
20	0xbc0859a0	-0.0083221495
21	0x3cd3be50	0.025847584
22	0xbe4efbea	-0.20213285
23	0x3e1be25c	0.15223068
24	0xbb9fe860	-0.004879996
25	0x3caa50d8	0.020790502
26	0xbe25c3b4	-0.16187936
27	0x3e082494	0.13295203
28	0x3dd26b95	0.10274426
29	0x3cb350f0	0.02188918
30	0x3d823414	0.06357589
31	0x3e65a5f4	0.22426587
32	0x3cd58aca	0.026067156
33	0xbd3aa194	-0.04556425
34	0x3db8b960	0.090197325
35	0xbe596ed2	-0.21233681
36	0xbedc15c5	-0.4298536
37	0x3db2af90	0.08724892
38	0xbe979892	-0.2960859
39	0xbe4085a5	-0.18800981
40	0xbe535787	-0.20638858
41	0xbd760d46	-0.060071252
42	0xbe8fb423	-0.2806712
43	0x3c1567c2	0.009118976
44	0xbe95b4db	-0.29239544
45	0xbd99cd26	-0.07509832
46	0x3b309759	0.002694568
47	0x3da19225	0.07889203
48	0xbe621bde	-0.22080943
49	0xbe99eade	-0.30062002
50	0x3d9ad32e	0.075598106
51	0x3e440e7a	0.19146147
52	0xbd3b0094	-0.04565485
53	0x3d8f33cd	0.06992302
54	0xbe40ada5	-0.1881624
55	0xbd994633	-0.074840926
56	0x3da059f4	0.07829657
57	0x3cba8330	0.022767633
58	0xbe3deed2	-0.18548134
59	0xbba364a4	-0.0049863625
60	0xbe00792f	-0.12546228
61	0xbdb9cc4e	-0.09072171
62	0xbe45360c	-0.19258898
63	0xbe02beb4	-0.1276806
64	0x3b332ef9	0.002734123
65	0x3e02c28a	0.12769523
66	0x3d5b6178	0.05355975
67	0xbe591235	-0.21198352
68	0x3e76acdc	0.24089378
69	0xbd5b2d10	-0.05350977
70	0x3bea64ea	0.007153143
71	0xbefabe84	-0.48973477
72	0xbe9634c7	-0.2933714
73	0xbdcf294d	-0.101152994
74	0x3dd65fd4	0.104674965
75	0x3cf94478	0.030428156
76	0x3cee3547	0.029078139
77	0xbe3ac99b	-0.18240969
78	0x3e689114	0.22711593
79	0x3d27a8fc	0.04093264
80	0x3da3a7bd	0.07990978
81	0x3e0cb409	0.13740553
82	0xbdcd5a10	-0.10026944
83	0x3d8545c4	0.06507447
84	0xbd93f418	-0.072242916
85	0xbe918025	-0.2841808
86	0x3d89b4c8	0.067239344
87	0xbe27e066	-0.16394195
88	0xbdc30a3a	-0.09523435
89	0xbe07aa56	-0.13248572
90	0xbea64020	-0.32470798
91	0xbc022135	-0.0079424875
92	0x3de01c0f	0.10942852
93	0xbc5d4b9b	-0.013506795
94	0xbdcf77e8	-0.10130292
95	0x3c004bac	0.007830542
96	0xbe9572bc	-0.29189098
97	0xbe4cd0bb	-0.200015
98	0xbe33aae6	-0.17545661
99	0x3ce981f9	0.028504359
100	0x3d31c6fd	0.04340266
101	0xbe50c8df	-0.20389126
102	0xbe6e99ce	-0.2330086
103	0xbf09a75e	-0.5377101
104	0x3c33d8fd	0.010977027
105	0xbec537f1	-0.38519242
106	0xbd547db3	-0.05187769
107	0xbe0d2633	-0.13784103
108	0xbdeb7368	-0.11496621
109	0x3e2ff8a6	0.17184696
110	0xbced5d1b	-0.02897506
111	0xbd7b894f	-0.061410245
112	0xbe71f687	-0.23629199
113	0xbda5894b	-0.08082827
114	0x3d89e5f3	0.067333125
115	0x3b283940	0.002566889
116	0x3e595d1a	0.21226922
117	0xbea5eb3d	-0.32406035
118	0xbe3790eb	-0.17926376
119	0x3d89c9fe	0.0672798
120	0x3c89f5a0	0.016840756
121	0xbd365ea8	-0.044523865
122	0xbe9f7dd4	-0.31150687
123	0xbdb01b11	-0.085989125
124	0xbe6472e3	-0.22309451
125	0xbdd1f983	-0.10252669
126	0xbe3399d0	-0.17539144
127	0xbe5f8bf4	-0.21830732
128	0x3e11d714	0.14242202
129	0x3d836d84	0.06417373
130	0xbdb10f40	-0.08645487
131	0x3c89d610	0.016825706
132	0xbf8dbfa4	-1.1074109
133	0xbdbe41dc	-0.092899054
134	0xbe99c2cd	-0.30031434
135	0xbf0050fe	-0.50123584
136	0x3dfcd52f	0.12345349
137	0xbe9e4699	-0.30913237
138	0xbe652bdd	-0.22380014
139	0xbd574f11	-0.052565638
140	0xbe135894	-0.14389259
141	0xbe22b866	-0.15890655
142	0x3dd9adb8	0.10628837
143	0xbdc7be52	-0.097530976
144	0xbe36f8a0	-0.1786828
145	0xbd9e62cf	-0.0773369
146	0x3e74047b	0.23829834
147	0xbd23ce3c	-0.039991602
148	0x3e06daee	0.13169453
149	0x3de6f507	0.11277204
150	0xbdde21e2	-0.108463064
151	0x3d1b6827	0.037941124
152	0xbc118530	-0.008881852
153	0x3dc2f09c	0.09518549
154	0xbeeffe7f	-0.46873853
155	0xbdbfbdb8	-0.09362358
156	0x3d4b5403	0.049640667
157	0xbe067012	-0.13128689
158	0xbe66401f	-0.22485398
159	0xbd2f6ed4	-0.042830303
160	0xbe70b838	-0.23507774
161	0x3e1ce872	0.15323046
162	0xbd98292c	-0.07429728
163	0xbf319013	-0.69360465
164	0xbed93af6	-0.42427796
165	0xbdb21630	-0.08695638
166	0xbe47b849	-0.19503893
167	0xbebce99c	-0.3689698
168	0xbea0e7fc	-0.3142699
169	0xbf0cc146	-0.5498241
170	0xbdf6b272	-0.120457545
171	0x3b8027e9	0.0039110077
172	0xbe8265a6	-0.25468177
173	0xbe5d65a1	-0.216208
174	0xbca730cf	-0.020409016
175	0xbd665b1e	-0.05623924
176	0x3d175c81	0.036953453
177	0x3e05cea8	0.13067114
178	0x3d99a266	0.07501678
179	0x3ce42b10	0.027852565
180	0x3e2a4978	0.16629589
181	0xbea83a11	-0.328568
182	0x3dc13738	0.0943436
183	0xbe07e90c	-0.13272494
184	0xbe056fa4	-0.13030869
185	0xbe1dc9a4	-0.15408951
186	0xbea6cc12	-0.32577568
187	0xbd5c2d42	-0.0537541
188	0xbee1448e	-0.43997616
189	0x3dd4f2f8	0.10397905
190	0x3e1040ba	0.14087191
191	0x3e20d79a	0.15707245
192	0xbde90301	-0.11377526
193	0x3e4a6246	0.19764051
194	0x3e03f9e4	0.12888294
195	0x3e4a61be	0.19763848
196	0xbdd39622	-0.1033137
197	0xbe005e87	-0.1253606
198	0xbde63fc3	-0.1124263
199	0xbd6402f2	-0.05566687
200	0xbeb5a640	-0.354784
201	0xbd1aaac3	-0.037760507
202	0xbbb02642	-0.0053756544
203	0x3c5e0e2d	0.013553184
204	0xbe93c9fd	-0.28865042
205	0xbe44a136	-0.19202122
206	0x3de7040e	0.1128007
207	0xbe6df271	-0.23237015
208	0x3e1ed7d8	0.15512025
209	0xbb24b03c	-0.0025129458
210	0x3ce349c0	0.027745128
211	0x3b68b6c0	0.0035509318
212	0xbe08754a	-0.13325992
213	0x3ddcfe3c	0.10790679
214	0xbe2c0eb6	-0.16802487
215	0x3e18017c	0.14844316
216	0xbde36c1d	-0.11104605
217	0x3d757310	0.059924185
218	0x3de67270	0.11252296
219	0x3e396f68	0.18108904
220	0xbdb5da4a	-0.08879526
221	0xbc636a10	-0.013880268
222	0x3dc73430	0.09726751
223	0x3c0f7e60	0.0087581575
224	0x3c1d0e24	0.009585891
225	0x3d6c1e68	0.057646185
226	0xbe603222	-0.21894124
227	0x3c0ff43c	0.008786257
228	0x3e1ffad3	0.15623026
229	0xbd561f80	-0.052276134
230	0xbda02ce0	-0.07821059
231	0xbe819677	-0.25310108
232	0xbe544dec	-0.2073285
233	0xbe562852	-0.20913818
234	0xbd934337	-0.071905546
235	0xbddbc25a	-0.10730429
236	0x3d55ccbe	0.05219721
237	0xbe07cb95	-0.13261254
238	0xbe0c2307	-0.13685237
239	0x3d28be1a	0.04119692
240	0x3d675eae	0.056486778
241	0xbdc7817d	-0.09741495
242	0x3d686c2a	0.05674378
243	0x3d4481f8	0.04797551
244	0x3d0414d8	0.03224644
245	0x3dafba53	0.085804604
246	0xbd4956ac	-0.049154922
247	0xbe62638a	-0.22108284
248	0xbc5e96b0	-0.013585731
249	0x3e469cea	0.19395795
250	0x3c717b06	0.014738804
251	0xbde7de99	-0.11321754
252	0xbe22fde4	-0.15917164
253	0x3e2ccf62	0.16875985
254	0xbdfa0f8e	-0.12209998
255	0x3d5fcbc0	0.05463767
