check_points/student_tflite_models_pruning_quantization/student_model_quant.tflite (tflite, 67536 bytes, 12 tensors)

model_4/conv1d_4/BiasAdd/ReadVariableOp f4 [32]
-0.13856395 -0.0036222404 -0.0013250082 -0.06692213 0.13997611 0.0 -0.10497093 -0.066044345
0.14519463 -0.045250595 -0.048305333 -0.004611499 -0.04509563 0.0 -0.0039650095 -0.06358876
-0.12849477 -0.116370186 -0.16239086 0.0 -0.0011210161 -0.095963135 0.0 -0.002964854
0.0 0.0 -0.03305286 -0.08249139 -0.10454016 -0.0027878822 -0.0040040365 -0.0031731834
00000000: b5e3 0dbe 1c63 6dbb e6ab adba 780e 89bd
00000010: e655 0f3e 0000 0000 00fb d6bd 4242 87bd
00000020: e7ad 143e b058 39bd d0db 45bd 0f1c 97bb
00000030: 32b6 38bd 0000 0000 e9ec 81bb d33a 82bd
00000040: 2294 03be 7e53 eebd ca49 26be 0000 0000
00000050: 0fef 92ba 5288 c4bd 0000 0000 ff4d 42bb
00000060: 0000 0000 0000 0000 7062 07bd 3ff1 a8bd
00000070: 2719 d6bd e7b4 36bb 4b34 83bb 2ff5 4fbb

model_4/conv1d_4/Conv1D f4 [32, 1, 1, 4]
0.29113895 -0.4121316 0.09165105 0.23715255 -0.1420323 -0.3459344 0.123270005 0.17728673
0.3372967 0.13023002 -0.35349992 -0.33653536 0.35546428 0.05092936 -0.11951611 -0.027741466
-0.14446576 -0.4184949 0.077587 -0.029869417 -0.2897765 -0.07302064 -0.1219264 0.055559903
-0.38436988 0.25670522 0.13826741 0.23444085 -0.25210285 0.017583556 0.15831958 0.29818916
-0.3762732 -0.07025697 -0.48570696 0.20655984 0.076085046 0.12786214 -0.07782859 0.04927475
-0.16838486 0.04537037 0.21479645 0.057431664 0.29827523 -0.26676977 0.25565842 -0.3790162
0.13854566 -0.11295601 0.36440456 -0.1997374 -0.015973777 -0.13880527 -0.28452593 -0.0023614168
-0.003873887 -0.15904383 0.17066583 -0.36829433 0.26341745 -0.090192825 -0.26213896 0.2824512
0.29736528 0.25335145 -0.21616301 -0.11861992 0.12730683 -0.120788336 0.31365472 -0.11567981
-0.43584514 0.22805302 0.12943333 0.27984175 -0.16868174 -0.13154405 -0.06417093 -0.3313162
-0.37078726 0.35131085 -0.31953043 -0.25929645 0.2151704 -0.37194777 0.021502126 0.33625296
-0.3813997 -0.36792246 -0.34527993 -0.127168 -0.28133863 0.058094863 0.18828441 -0.06885456
-0.30778408 0.11793649 -0.3262603 -0.20809217 0.07606 -0.3846924 0.12407094 -0.3604509
-0.17447042 0.024703354 0.05978 0.2244778 0.1130461 0.03242915 0.37106627 -0.30684572
0.11903262 0.28745052 0.06664992 -0.2681605 0.1731658 -0.10590621 -0.3470101 0.10036973
-0.3195283 -0.40674245 -0.275045 0.34198704 -0.27947363 -0.3258701 0.30045944 0.15086359
00000000: 2a10 953e ea02 d3be 8cb3 bb3d 1ed8 723e
00000010: ea70 11be 501e b1be fc74 fc3d a78a 353e
00000020: 27b2 ac3e 055b 053e f1fd b4be 5d4e acbe
00000030: 6aff b53e 4e9b 503d ddc4 f4bd 1242 e3bc
00000040: d5ee 13be f744 d6be efe5 9e3d b5b0 f4bc
00000050: 965d 94be d88b 95bd 8cb4 f9bd c892 633d
00000060: 21cc c4be de6e 833e f995 0d3e 4311 703e
00000070: a013 81be 640b 903c 871e 223e 40ac 983e
00000080: e2a6 c0be e3e2 8fbd 95ae f8be 6c84 533e
00000090: 7ad2 9b3d 4bee 023e 9964 9fbd 52d4 493d
000000a0: 156d 2cbe 48d6 393d 9af3 5b3e 773d 6b3d
000000b0: 88b7 983e 0c96 88be a9e5 823e 690e c2be
000000c0: eade 0d3e 7b55 e7bd 3c93 ba3e f687 4cbe
000000d0: 70db 82bc f822 0ebe 62ad 91be 00c2 1abb
000000e0: 0ae1 7dbb 63dc 22be 06c3 2e3e 1391 bcbe
000000f0: a7de 863e 04b7 b8bd 1437 86be 729d 903e
00000100: 4340 983e 48b7 813e d659 5dbe 00ef f2bd
00000110: b95c 023e e05f f7bd 5a97 a03e 89e9 ecbd
00000120: 1827 dfbe bb86 693e 2c8a 043e 6b47 8f3e
00000130: e8ba 2cbe 7cb3 06be 0c6c 83bd 47a2 a9be
00000140: d4d7 bdbe 04df b33e 7e99 a3be 81c2 84be
00000150: a155 5c3e f06f bebe 3a25 b03c 5929 ac3e
00000160: d246 c3be 5560 bcbe 88c8 b0be 5438 02be
00000170: 9e0b 90be e1f4 6d3d a1cd 403e 9f03 8dbd
00000180: e095 9dbe b088 f13d 970b a7be 1d16 55be
00000190: 58c5 9b3d 67f6 c4be e818 fe3d 058d b8be
000001a0: 60a8 32be b05e ca3c e0db 743d 82dd 653e
000001b0: b784 e73d 6ed4 043d 66fc bd3e e21a 9dbe
000001c0: 60c7 f33d b72c 933e c17f 883d 554c 89be
000001d0: 6052 313e 5be5 d8bd 4fab b1be a58e cd3d
000001e0: 3799 a3be 8c40 d0be b3d2 8cbe ed18 af3e
000001f0: 2b17 8fbe 72d8 a6be d2d5 993e fc7b 1a3e

model_4/dense_8/BiasAdd/ReadVariableOp f4 [4]
0.37967393 0.37865213 0.38009366 0.37956998
00000000: 9f64 c23e b1de c13e a39b c23e ff56 c23e

model_4/bidirectional_4/forward_lstm_4/Read_2/ReadVariableOp f4 [84]
-0.138308 -0.15094402 -0.13358134 -0.19951059 -0.08954707 -0.16797432 -0.057049133 -0.06699409
-0.14330235 -0.0962518 -0.12007645 -0.1367414 -0.12731934 -0.09217034 -0.123854615 -0.21572873
-0.1204235 -0.1258341 -0.1108778 -0.14775401 -0.13375314 0.9129384 0.899296 0.8972153
0.82436955 0.93266445 0.9255362 0.9637356 0.94695246 0.8879432 0.94557005 0.8920475
0.9040313 0.90823716 0.9426518 0.88361096 0.8828094 0.9184782 0.8903228 0.93056905
0.9337285 0.9510415 0.0052543357 0.0009663891 0.0005510707 0.006575481 -0.0069964076 -0.0071401037
-0.0073862257 -0.004591036 0.0074854116 -0.0026248093 -0.005776404 0.014245451 -0.003705729 0.01695725
-0.0015822116 0.00076807174 0.0064184424 -0.008657539 0.0030533269 0.012980621 0.004268247 -0.1054255
-0.15136635 -0.113777675 -0.19757183 -0.08153954 -0.16746718 -0.054623544 -0.061866783 -0.14140028
-0.09625995 -0.12631573 -0.13974383 -0.12120426 -0.08831107 -0.1143986 -0.17623349 -0.10639929
-0.1286341 -0.11065893 -0.14676057 -0.12889473
00000000: 9da0 0dbe 1291 1abe 8cc9 08be 814c 4cbe
00000010: 7464 b7bd 7601 2cbe 5aac 69bd 3334 89bd
00000020: dabd 12be aa1f c5bd a4ea f5bd f005 0cbe
00000030: 0060 02be cec3 bcbd 7da7 fdbd fee7 5cbe
00000040: 99a0 f6bd a8da 00be e613 e3bd d44c 17be
00000050: 95f6 08be 55b6 693f 4338 663f e7af 653f
00000060: e209 533f 19c3 6e3f f1ef 6c3f 60b7 763f
00000070: 7a6b 723f 3f50 633f e110 723f 3a5d 643f
00000080: 986e 673f 3b82 683f a151 713f 5434 623f
00000090: ccff 613f 6321 6b3f 32ec 633f c639 6e3f
000000a0: d508 6f3f 7577 733f 902c ac3b 4655 7d3a
000000b0: bb75 103a 2277 d73b 1f42 e5bb 88f7 e9bb
000000c0: 2708 f2bb 6770 96bb 2f48 f53b fe04 2cbb
000000d0: fd47 bdbb c165 693c d1db 72bb eee9 8a3c
000000e0: 3662 cfba 6c58 493a cc51 d23b 5ad8 0dbc
000000f0: 531a 483b acac 543c a7dc 8b3b 53e9 d7bd
00000100: c8ff 1abe 4504 e9bd 4550 4abe 34fe a6bd
00000110: 847c 2bbe f0bc 5fbd 0668 7dbd 3ccb 10be
00000120: f023 c5bd e958 01be 0219 0fbe f039 f8bd
00000130: 6fdc b4bd d049 eabd 8d76 34be dfe7 d9bd
00000140: a8b8 03be 26a1 e2bd 6748 16be fbfc 03be

model_4/bidirectional_4/backward_lstm_4/Read_2/ReadVariableOp f4 [84]
-0.09932445 -0.030045403 -0.19574377 -0.12506619 -0.105741195 -0.16890578 -0.105986215 -0.11744914
-0.10518591 -0.13590333 -0.06534146 -0.15042283 -0.14532854 -0.08913273 -0.034589794 -0.08509671
-0.1903566 -0.18317877 -0.102704145 -0.13399254 -0.04565402 0.96366245 0.99760133 0.91801983
0.93561155 0.964344 0.93567204 0.9270072 0.9969279 0.9378799 0.96459436 0.9559779
0.9051804 0.8869271 0.97495496 0.9963527 0.97427666 0.9299396 0.8934024 0.94390446
0.9294336 0.98700315 -0.0067564812 0.010178357 -0.0015222924 0.008938927 -0.020659119 -0.019831875
-0.0007066715 -0.02133896 -0.0039794003 0.00481036 -0.016317109 -0.00021416592 0.011460962 0.003905633
0.009735694 0.0211468 0.012727898 -0.0015168433 0.014746963 -0.010823009 0.007715631 -0.09471121
-0.028846001 -0.17782077 -0.108836256 -0.10320086 -0.16830641 -0.10551206 -0.12823935 -0.10751156
-0.10149172 -0.07888385 -0.16314699 -0.1681158 -0.094026476 -0.026736863 -0.09124892 -0.19860789
-0.17102465 -0.10375552 -0.12343791 -0.050062608
00000000: 9e6a cbbd c721 f6bc 0e71 48be 5a11 00be
00000010: d78e d8bd a3f5 2cbe 4d0f d9bd 2d89 f0bd
00000020: b66b d7bd 3e2a 0bbe bed1 85bd 7108 1abe
00000030: 01d1 14be 398b b6bd 07ae 0dbd 2f47 aebd
00000040: d7ec 42be 3793 3bbe 8d56 d2bd 5735 09be
00000050: b6ff 3abd 95b2 763f cd62 7f3f 5903 6b3f
00000060: 3d84 6f3f 40df 763f 3488 6f3f 5850 6d3f
00000070: ab36 7f3f e618 703f a8ef 763f f8ba 743f
00000080: e7b9 673f a80d 633f a696 793f f810 7f3f
00000090: 326a 793f 8610 6e3f 05b6 643f b9a3 713f
000000a0: 5cef 6d3f 3dac 7c3f 7965 ddbb 20c3 263c
000000b0: a887 c7ba 9474 123c 503d a9bc 7576 a2bc
000000c0: ec3f 39ba 0bcf aebc a165 82bb 39a0 9d3b
000000d0: 75ab 85bc ba91 60b9 c2c6 3b3c a6f5 7f3b
000000e0: 7682 1f3c 0e3c ad3c ac88 503c d1d0 c6ba
000000f0: 3f9d 713c fd52 31bc 67d3 fc3b f3f7 c1bd
00000100: 734e ecbc a616 36be 8be5 debd f95a d3bd
00000110: 8458 2cbe b516 d8bd 2d51 03be 052f dcbd
00000120: e4da cfbd db8d a1bd 0110 27be 8c26 2cbe
00000130: f490 c0bd 4407 dbbc b7e0 babd de5f 4bbe
00000140: 1621 2fbe c67d d4bd 04cd fcbd 730e 4dbd

model_4/dense_8/MatMul f4 [4, 840]
0.058197755 -0.049210902 0.03252365 -0.025312487 -0.07225009 -0.042070106 -0.03441023 -0.04255249
-0.029616315 -0.0042097904 0.046256445 -0.021607826 -0.039446432 -0.0010564908 0.041623514 -0.024818253
-0.034304082 0.024937328 -0.01973174 -0.018880326 -0.038069375 -0.016203355 -0.01283805 0.024642836
-0.016914867 0.017796699 0.0045020776 -0.023987865 0.010501428 -0.02161758 -0.021823347 0.0066554486
-0.032593254 -0.021489121 0.041433893 0.015717812 0.01860818 -0.020759132 0.012597791 -0.008023617
0.020585552 -0.0053204144 0.01960696 -0.04577668 0.015028483 -0.026122697 -0.06400705 -0.03796016
-0.041826103 -0.029842623 -0.026758606 0.01465821 0.02906227 -0.029117122 -0.046187367 -0.0072916704
0.032187436 -0.035432957 0.002467221 0.022474166 -0.019094113 -0.012639669 -0.032718908 -0.017537484
-0.011871061 0.032389957 -0.008984814 0.017367786 0.01852235 -0.024376998 0.0077804746 -0.022463867
-0.028157638 0.0070250044 -0.022932285 -0.02592494 0.025529217 0.026190663 0.01707643 -0.03058896
0.013328438 -0.009170322 0.022441057 -0.011881454 0.042092256 -0.052269325 0.03791649 -0.020349639
-0.034390256 -0.035556685 -0.020495765 -0.016178321 -0.027227052 0.01205072 0.024528572 -0.02683987
-0.032284595 -0.007953795 0.036646686 -0.022824852 0.000405631 0.018115252 -0.013630566 -0.020078817
-0.022379981 -0.0137231145 -0.017230213 0.026698299 -0.02031831 0.01841293 0.01162322 -0.00967897
0.0076802904 -0.01825562 -0.026243601 0.01954942 -0.020024354 -0.022536915 0.018206934 0.009842993
0.02421285 -0.016563889 0.017315513 -0.017207501 0.0006398571 -0.0055798097 -0.004539585 -0.027025314
0.028492963 -0.027906911 -0.035954256 -0.036576677 -0.024001118 -0.038876634 -0.015342128 0.030796668
0.023846645 -0.037492152 -0.053121787 -0.00985679 0.030101752 -0.029425364 -0.0063596303 0.022110121
-0.020944867 -0.026798718 -0.022900011 -0.02235994 -0.017714422 0.03462589 -0.011120429 0.016533423
0.013101016 -0.030837243 0.0100464085 -0.028202739 -0.023712948 0.011917288 -0.02598586 -0.018481664
0.017068224 0.02073494 0.022049915 -0.016705507 0.028720386 -0.014841031 0.017965892 -0.011440545
0.033446074 -0.024069868 0.003891549 -0.005167905 -0.019754866 -0.029485645 -0.008316134 -0.04598716
-0.03391216 0.018475037 0.037676807 -0.020616641 -0.030451367 0.0028207672 0.024025204 -0.048744813
-0.027501632 0.024649562 -0.022801923 -0.026292117 -0.03235136 -0.016428897 -0.009233378 0.028850758
-0.014197802 0.018048398 0.007504363 -0.011938857 0.01482761 -0.03078192 -0.023293871 0.0136425365
-0.028505221 -0.022040585 0.028565956 0.024575884 0.015142512 -0.024397459 0.008796127 -0.013191144
0.023783099 -0.0049388018 0.033173975 -0.024652962 0.03372512 -0.033984788 -0.0462895 -0.040596716
-0.036796656 -0.020953238 -0.026862588 0.014590897 0.028878348 -0.033260625 -0.009902186 -0.01425708
0.030120293 -0.036849257 0.0022038894 0.036627963 -0.032868635 -0.009798736 -0.02298094 -0.025478063
-0.013680885 0.045932177 -0.023710907 0.015032838 0.009385617 -0.01891353 0.012535984 -0.030924983
-0.03059364 0.0019918527 -0.029649764 -0.019053152 0.020154266 0.023888895 0.01787592 -0.036748864
0.023227975 -0.025045436 0.02342779 -0.01465454 0.021623084 -0.035719603 0.008689123 -0.013171222
00000000: c560 6e3d 5f91 49bd 8537 053d 225c cfbc
00000010: dbf7 93bd b451 2cbd bef1 0cbd 854b 2ebd
00000020: ea9d f2bc 48f2 89bb 6677 3d3d e502 b1bc
00000030: 9592 21bd f379 8aba 6b7d 2a3d a64f cbbc
00000040: 7082 0cbd 5e49 cc3c 75a4 a1bc eaaa 9abc
00000050: a2ee 1bbd e6bc 84bc af56 52bc c6df c93c
00000060: 0c91 8abc 62ca 913c 2a86 933b 3382 c4bc
00000070: 2e0e 2c3c 5a17 b1bc e0c6 b2bc f315 da3b
00000080: 8180 05bd f409 b0bc 96b6 293d a4c2 803c
00000090: 2f70 983c 0e0f aabc f766 4e3c 7d75 03bc
000000a0: 08a3 a83c df56 aebb c69e a03c 5480 3bbd
000000b0: 073a 763c 44ff d5bc 2116 83bd 1d7c 1bbd
000000c0: d951 2bbd 8478 f4bc dd34 dbbc fd28 703c
000000d0: ff13 ee3c 0887 eebc f72e 3dbd f7ee eebb
000000e0: f9d6 033d 2622 11bd 1ab1 213b be1b b83c
000000f0: 426b 9cbc 9d16 4fbc 4304 06bd c5aa 8fbc
00000100: d77e 42bc 55ab 043d 0b35 13bc e346 8e3c
00000110: 2fbc 973c 45b2 c7bc 5af3 fe3b 2506 b8bc
00000120: d9aa e6bc 0232 e63b 7ddc bbbc 8a60 d4bc
00000130: a622 d13c cd8d d63c dfe3 8b3c b395 fabc
00000140: 855f 5a3c 1e3f 16bc 4fd6 b73c 6eaa 42bc
00000150: ee68 2c3d 5c18 56bd 524e 1b3d 49b4 a6bc
00000160: ccdc 0cbd e3a3 11bd bce6 a7bc 6688 84bc
00000170: 440b dfbc 6270 453c 25f0 c83c 49df dbbc
00000180: da3c 04bd a250 02bc d61a 163d 2ffb babc
00000190: dfaa d439 7066 943c bd52 5fbc 557c a4bc
000001a0: 3956 b7bc ead6 60bc 6026 8dbc 64b6 da3c
000001b0: 9672 a6bc b7d6 963c 516f 3e3c 8b94 1ebc
000001c0: f2aa fb3b cf8c 95bc d2fc d6bc 1b26 a03c
000001d0: 1d0a a4bc 569f b8bc b526 953c 8144 213c
000001e0: 075a c63c feb0 87bc 43d9 8d3c bff6 8cbc
000001f0: 15bc 273a d6d6 b6bb cdc0 94bb 3164 ddbc
00000200: 136a e93c 099d e4bc c544 13bd 6dd1 15bd
00000210: fe9d c4bc 1b3d 1fbd 8d5d 7bbc 4b49 fc3c
00000220: 0a5a c33c 5f91 19bd 3b96 59bd 607e 21bc
00000230: f397 f63c 760d f1bc 7264 d0bb 4920 b53c
00000240: 9294 abbc fc88 dbbc ce98 bbbc 312c b7bc
00000250: d61d 91bc e1d3 0d3d 7632 36bc 1a71 873c
00000260: a5a5 563c 639e fcbc b199 243c 6e09 e7bc
00000270: a841 c2bc bb40 433c 4ce0 d4bc dc66 97bc
00000280: a9d2 8b3c 52dc a93c 06a2 b43c fdd9 88bc
00000290: 0447 eb3c cc27 73bc 352d 933c 2071 3bbc
000002a0: c0fe 083d 2c2e c5bc 5c09 7f3b 8757 a9bb
000002b0: f5d4 a1bc e18b f1bc 6540 08bc 085d 3cbd
000002c0: 7ae7 0abd f658 973c ff52 1a3d 3be4 a8bc
000002d0: 2575 f9bc 9fdc 383b 81d0 c43c a4a8 47bd
000002e0: 1a4b e1bc e1ed c93c 19cb babc 9162 d7bc
000002f0: dc82 04bd e595 86bc 9847 17bc 6d58 ec3c
00000300: e69d 68bc 3cda 933c 29e7 f53b 329b 43bc
00000310: 81ef 723c 5d2a fcbc cad2 bebc f284 5f3c
00000320: c883 e9bc 758e b4bc 2703 ea3c 5d53 c93c
00000330: 4c18 783c 2edd c7bc a11d 103c ab1f 58bc
00000340: c6d4 c23c acd5 a1bb 6fe1 073d 02f5 c9bc
00000350: 5a23 0a3d a233 0bbd 0f9a 3dbd be48 26bd
00000360: 17b8 16bd 20a6 abbc ee0e dcbc a80e 6f3c
00000370: 4992 ec3c 4b3c 08bd c73c 22bc 8796 69bc
00000380: d5be f63c 3fef 16bd 216f 103b 3407 163d
00000390: 43a1 06bd e18a 20bc 8642 bcbc 5fb7 d0bc
000003a0: ca25 60bc 6123 3c3d 603d c2bc 4b4c 763c
000003b0: 22c6 193c 8cf0 9abc ba63 4d3c 6456 fdbc
000003c0: 839f fabc be89 023b 10e4 f2bc 5b15 9cbc
000003d0: 8f1a a53c a5b2 c33c 8570 923c fa85 16bd
000003e0: 9848 be3c 162c cdbc a3eb bf3c 9919 70bc
000003f0: e522 b13c b84e 12bd d35c 0e3c 1ccc 57bc

model_4/bidirectional_4/backward_lstm_4/Read_2/ReadVariableOp1 f4 [84]
-0.09932445 -0.030045403 -0.19574377 -0.12506619 -0.105741195 -0.16890578 -0.105986215 -0.11744914
-0.10518591 -0.13590333 -0.06534146 -0.15042283 -0.14532854 -0.08913273 -0.034589794 -0.08509671
-0.1903566 -0.18317877 -0.102704145 -0.13399254 -0.04565402 0.96366245 0.99760133 0.91801983
0.93561155 0.964344 0.93567204 0.9270072 0.9969279 0.9378799 0.96459436 0.9559779
0.9051804 0.8869271 0.97495496 0.9963527 0.97427666 0.9299396 0.8934024 0.94390446
0.9294336 0.98700315 -0.0067564812 0.010178357 -0.0015222924 0.008938927 -0.020659119 -0.019831875
-0.0007066715 -0.02133896 -0.0039794003 0.00481036 -0.016317109 -0.00021416592 0.011460962 0.003905633
0.009735694 0.0211468 0.012727898 -0.0015168433 0.014746963 -0.010823009 0.007715631 -0.09471121
-0.028846001 -0.17782077 -0.108836256 -0.10320086 -0.16830641 -0.10551206 -0.12823935 -0.10751156
-0.10149172 -0.07888385 -0.16314699 -0.1681158 -0.094026476 -0.026736863 -0.09124892 -0.19860789
-0.17102465 -0.10375552 -0.12343791 -0.050062608
00000000: 9e6a cbbd c721 f6bc 0e71 48be 5a11 00be
00000010: d78e d8bd a3f5 2cbe 4d0f d9bd 2d89 f0bd
00000020: b66b d7bd 3e2a 0bbe bed1 85bd 7108 1abe
00000030: 01d1 14be 398b b6bd 07ae 0dbd 2f47 aebd
00000040: d7ec 42be 3793 3bbe 8d56 d2bd 5735 09be
00000050: b6ff 3abd 95b2 763f cd62 7f3f 5903 6b3f
00000060: 3d84 6f3f 40df 763f 3488 6f3f 5850 6d3f
00000070: ab36 7f3f e618 703f a8ef 763f f8ba 743f
00000080: e7b9 673f a80d 633f a696 793f f810 7f3f
00000090: 326a 793f 8610 6e3f 05b6 643f b9a3 713f
000000a0: 5cef 6d3f 3dac 7c3f 7965 ddbb 20c3 263c
000000b0: a887 c7ba 9474 123c 503d a9bc 7576 a2bc
000000c0: ec3f 39ba 0bcf aebc a165 82bb 39a0 9d3b
000000d0: 75ab 85bc ba91 60b9 c2c6 3b3c a6f5 7f3b
000000e0: 7682 1f3c 0e3c ad3c ac88 503c d1d0 c6ba
000000f0: 3f9d 713c fd52 31bc 67d3 fc3b f3f7 c1bd
00000100: 734e ecbc a616 36be 8be5 debd f95a d3bd
00000110: 8458 2cbe b516 d8bd 2d51 03be 052f dcbd
00000120: e4da cfbd db8d a1bd 0110 27be 8c26 2cbe
00000130: f490 c0bd 4407 dbbc b7e0 babd de5f 4bbe
00000140: 1621 2fbe c67d d4bd 04cd fcbd 730e 4dbd

while/MatMul_11 f4 [84, 21]
0.16028818 -0.18153346 0.03542583 -0.027362453 -0.2657343 -0.10942826 0.054671682 -0.013319695
0.1577759 0.27099013 -0.15430595 -0.023462368 0.32767674 -0.29125822 0.06260306 -0.033291783
0.04610248 -0.1622222 0.10553973 -0.22094893 -0.027342126 0.26692173 0.19583695 0.059920248
0.16947259 -0.2768108 -0.18905663 -0.07311859 -0.110093124 0.14630532 0.025914667 -0.33585924
-0.05955561 0.13618101 -0.089690655 -0.08782989 0.046528354 0.24945237 -0.09534226 0.10286267
-0.3317062 0.41545305 0.0625838 0.12685902 -0.079602145 0.26939756 -0.10850069 -0.21747963
0.3149123 -0.22906749 0.09043799 0.16372035 -0.021868799 0.04402669 0.03405643 -0.21366216
0.25517836 -0.00951394 0.050808433 -0.15792386 0.12841785 -0.10677103 0.13320065 0.10491156
0.13793899 -0.14318842 0.12541218 -0.3263798 -0.17232 0.06800921 -0.39586198 0.010996824
0.075472824 -0.4332521 0.19220519 0.16286165 -0.120805725 0.060165748 -0.0016657767 0.04304878
-0.11336128 0.1493204 -0.2500932 0.24295497 0.040343884 0.29828233 -0.019159252 -0.01863997
-0.11045636 -0.33142096 0.004583415 -0.2618754 0.057143766 0.122023955 -0.37125146 0.15360707
0.09125961 -0.0070552775 0.061736412 0.08160219 0.34221593 0.04037107 0.3461438 -0.2776587
0.1638283 0.14843959 0.11073963 -0.051715612 0.16780233 -0.21993344 -0.4156055 0.043264203
-0.34724808 -0.12641016 0.15510654 -0.2200329 0.26859963 0.014192799 -0.0645224 -0.21439816
-0.10306451 0.2616056 -0.16563588 0.18961076 -0.27671692 0.4240375 -0.024093315 0.10027498
0.04178048 0.082699485 -0.1776413 -0.15054996 0.115775794 0.1648766 0.13318157 0.17112686
0.030530693 0.1437905 0.098007634 0.043941263 -0.008259509 0.11718007 0.12319699 -0.06880433
0.13053975 -0.11213614 0.23969871 0.10252115 0.20015505 -0.05215026 0.2521295 -0.2932428
-0.26657552 0.08419705 -0.3422005 0.0502762 0.12780964 -0.30611712 0.39415514 0.38891608
-0.09833206 -0.15417491 0.16531081 0.2371764 -0.17557111 0.24947166 -0.3993964 0.3085861
0.21563572 -0.054128867 -0.18346426 0.042334735 -0.21398073 -0.01244106 0.17990746 -0.145072
0.0004505528 0.28436744 -0.067751065 0.11715583 0.23684038 -0.09892968 -0.09695706 -0.07116297
0.31177226 -0.15418088 0.11031881 0.026806453 0.30425486 0.15272863 0.18304506 -0.07286178
0.23852465 -0.23746914 -0.3178905 0.016707454 -0.1299457 0.23957011 0.068381615 -0.4107122
0.24902618 0.040714744 -0.09306947 -0.011177784 -0.21466483 0.18163136 -0.049859386 0.07585462
0.100263186 0.27207753 0.15901454 0.2785674 0.12500396 0.25104097 -0.53337806 -0.34312668
0.12360974 -0.13884215 0.16112052 0.3175899 -0.45036098 0.11782849 0.12548628 -0.0792192
-0.10986234 0.2061837 0.34927848 -0.011223202 0.31793404 -0.27915406 0.103332266 0.22168112
0.14436685 0.075132795 0.23228125 -0.009168879 -0.29515418 0.28995305 -0.12257941 0.09294157
-0.021029878 -0.41376492 0.22120643 0.20551857 -0.05599123 0.0146097755 -0.09974014 -0.069035836
-0.12573019 0.029383644 0.018623678 -0.033273093 0.04342405 0.25215727 0.061526254 -0.09074931
00000000: 9622 243e e8e3 39be ad1a 113d 3927 e0bc
00000010: 530e 88be ec1b e0bd 6aef 5f3d da3a 5abc
00000020: 0190 213e 38bf 8a3e 6102 1ebe 2734 c0bc
00000030: 3fc5 a73e cc1f 95be 0836 803d f75c 08bd
00000040: f4d5 3c3d 941d 26be 3725 d83d 7040 62be
00000050: 98fc dfbc f7a9 883e 7b89 483e ef6e 753d
00000060: 398a 2d3e 25ba 8dbe 1098 41be 33bf 95bd
00000070: 8178 e1bd 10d1 153e ff4a d43c bef5 abbe
00000080: 95f0 73bd 0973 0b3e bcaf b7bd 28e0 b3bd
00000090: 8494 3e3d 7170 7f3e ce42 c3bd aaa9 d23d
000000a0: 65d5 a9be 43b6 d43e ef2b 803d 55e7 013e
000000b0: 7306 a3bd 7aee 893e 9c35 debd fbb2 5ebe
000000c0: 2f3c a13e ab90 6abe 8e37 b93d 4fa6 273e
000000d0: 3226 b3bc 5555 343d c17e 0b3d 41ca 5abe
000000e0: bda6 823e 5be0 1bbc 811c 503d cbb6 21be
000000f0: f87f 033e c5aa dabd c065 083e dfdb d63d
00000100: e13f 0d3e fc9f 12be 0d6c 003e 411b a7be
00000110: a774 30be 6a48 8b3d 6cae cabe 062c 343c
00000120: 7f91 9a3d 38d3 ddbe 70d1 443e 34c5 263e
00000130: fe68 f7bd 5c70 763d 3156 daba eb53 303d
00000140: f529 e8bd 72e7 183e 370c 80be 30c9 783e
00000150: a13f 253d 76b8 983e ddf3 9cbc dab2 98bc
00000160: f236 e2bd 02b0 a9be 7930 963b 8814 86be
00000170: 950f 6a3d b2e7 f93d ac14 bebe 2c4b 1d3e
00000180: 52e6 ba3d f52f e7bb 52df 7c3d 0d1f a73d
00000190: ed36 af3e 235c 253d c339 b13e 4829 8ebe
000001a0: 9bc2 273e 8c00 183e 76cb e23d c0d3 53bd
000001b0: 60d4 2b3e 3b36 61be 3eca d4be ce35 313d
000001c0: 80ca b1be aa71 01be 40d4 1e3e 4e50 61be
000001d0: e485 893e ea88 683c 5224 84bd 318b 5bbe
000001e0: 7c13 d3bd 2bf1 853e 749c 29be 5329 423e
000001f0: d7ad 8dbe 711b d93e 585f c5bc f85c cd3d
00000200: 0222 2b3d 595e a93d 9ae7 35be c529 1abe
00000210: dc1b ed3d 69d5 283e c060 083e e13b 2f3e
00000220: 811b fa3c d13d 133e 3ab8 c83d c1fb 333d
00000230: e452 07bc 1bfc ef3d b44e fc3d 49e9 8cbd
00000240: 36ac 053e a2a7 e5bd 9473 753e 9cf6 d13d
00000250: 72f5 4c3e 839b 55bd 1e17 813e ec23 96be
00000260: 967c 88be 816f ac3d e734 afbe 6bee 4d3d
00000270: 88e0 023e 62bb 9cbe b4ce c93e 0220 c73e
00000280: 5262 c9bd 07e0 1dbe 3d47 293e 5fde 723e
00000290: eac8 33be 8075 7f3e af7d ccbe fffe 9d3e
000002a0: 9ccf 5c3e 3bb6 5dbd 0ede 3bbe 3067 2d3d
000002b0: c41d 5bbe 96d5 4bbc a939 383e c18d 14be
000002c0: 2c38 ec39 9c98 913e 12c1 8abd 65ef ef3d
000002d0: 4986 723e a59b cabd 6c91 c6bd e4bd 91bd
000002e0: 9da0 9f3e 98e1 1dbe d4ee e13d 3599 db3c
000002f0: 4bc7 9b3e e564 1c3e 2a70 3b3e 8f38 95bd
00000300: ce3f 743e 1c2b 73be 8bc2 a2be 12de 883c
00000310: 7c10 05be de51 753e a90b 8c3d df48 d2be
00000320: b800 7f3e 81c4 263d 359b bebd 0623 37bc
00000330: 19d1 5bbe 92fd 393e 5b39 4cbd ab59 9b3d
00000340: c956 cd3d bf4d 8b3e b5d4 223e 63a0 8e3e
00000350: 0a01 003e 7188 803e 778b 08bf 4dae afbe
00000360: 1a27 fd3d a32c 0ebe c7fc 243e 259b a23e
00000370: b795 e6be 1050 f13d 7a7f 003e ad3d a2bd
00000380: 82ff e0bd d221 533e a1d4 b23e 85e1 37bc
00000390: 40c8 a23e 48ed 8ebe de9f d33d 6000 633e
000003a0: e7d4 133e 39df 993d 23db 6d3e 1139 16bc
000003b0: 731e 97be ba74 943e ea0a fbbd 2658 be3d
000003c0: da46 acbc ffd8 d3be f083 623e 7673 523e
000003d0: 0f57 65bd d75d 6f3c 8f44 ccbd a962 8dbd
000003e0: 6abf 00be f8b5 f03c af90 983c 5e49 08bd
000003f0: 6bdd 313d c21a 813e f402 7c3d c6da b9bd

while/MatMul f4 [84, 32]
-0.05979054 0.041786015 -0.1608824 -0.26406434 0.025381237 -0.11584368 -0.58838403 -0.44537774
-1.0644883 -0.11202853 -0.21892841 0.19155304 -0.5313323 0.06980878 0.051329877 -0.35733908
-0.03644755 -0.15452756 0.1949238 -0.14736179 0.19374275 -0.26149377 -0.20301317 -0.015170386
-0.20693092 0.10613656 0.04484282 0.08402561 -0.48896602 0.1655038 0.056695282 -0.08422597
-0.09352515 0.19006911 -0.15184845 -0.20221066 -0.19486089 0.22472063 -0.15480345 0.030757869
-0.88590527 -0.3731476 -0.4874668 -0.20533788 -0.47219676 0.16064304 -0.035537183 -0.40199867
-0.17812869 -0.08356473 0.069206595 -0.0080482215 -0.1269123 -0.17118724 -0.11793817 -0.04542605
-0.16825607 0.059155166 -0.2742992 -0.20453349 -0.21134338 -0.018568695 0.07313061 0.10078123
0.08063809 0.04142213 0.1021457 -0.07319919 -0.2088721 0.015342951 -0.2555737 -0.27996802
0.338748 -0.15156792 -0.2594082 -0.17283703 -0.07577814 -0.009395778 -0.1477794 -0.0061314376
0.021984933 -0.07338141 0.14060965 -0.06675464 -0.08910769 0.1093722 -0.115843035 0.03048814
-0.10179706 0.12103844 -0.2383578 0.027732302 -0.37529004 0.08237597 -0.012568876 0.052681297
-0.01621809 0.16653779 0.11927363 0.02572148 -0.71627516 0.08020383 -0.45896682 -0.27907655
-0.37199855 -0.34042093 0.0071204603 0.13848317 -0.540379 0.062253386 0.14149949 -0.10948438
0.07938677 -0.27694318 0.21650681 0.10644433 0.057801664 -0.19524853 0.087845266 0.09304674
-0.043105915 -0.1816256 -0.26262096 -0.82453513 0.08231617 0.098765045 0.15090826 0.041841537
-0.2718632 0.04215762 -0.030604228 -0.3280398 -0.48143798 0.20182985 -0.0138428435 -0.31536272
-0.29806733 -0.44881347 -0.32093233 0.13566314 -0.12745887 -0.19534609 0.14503083 -0.09563743
-0.022521837 -0.23187394 0.075511366 0.1281606 -0.076919466 -0.44997463 0.20782283 0.058651574
-0.21381116 0.18383321 -0.6094138 0.08264629 -0.52549875 -0.024293706 0.1349513 -0.1817205
-0.11694218 0.13681403 0.14055094 -0.55378425 -0.22957377 0.051897258 -0.4403492 -0.3442599
-0.32890952 -0.22284949 -0.5324232 0.17041837 -0.33324605 0.2136018 -0.17986894 -0.40254903
-0.3289878 -0.23896684 0.3005074 0.21656734 -0.20589551 0.034428142 -0.09524144 0.08953622
0.026724368 0.03573653 -0.032458205 -0.056987774 -0.43639356 0.07756722 -0.11924295 -0.034813374
-0.08535244 -0.1806226 0.096966416 0.055258874 -0.12654538 0.19716838 -0.27385205 0.05904732
-0.9131173 -0.29290617 -0.4108229 0.084863044 0.1622831 -0.07869442 0.057723418 -0.05037877
-0.2705803 0.12760505 0.09257993 0.036807925 0.08613017 0.060140476 -0.17835584 -0.16320191
-0.11328949 -0.15525752 -0.44980347 -0.4439952 -0.08652786 -0.14694373 -0.21955016 -0.050454974
-0.12206694 0.10520092 0.20905295 -0.19514357 -0.06833295 0.03857881 0.048645064 -0.19710653
-1.438889 -0.0050228327 -0.23349155 0.21859655 -0.32658136 -0.21552521 0.20432584 -0.26899406
-0.07130717 -0.458625 0.12806019 0.13033059 0.13639852 0.011448965 0.025754392 0.11075721
-0.18520415 0.029417068 -0.36431226 -0.75488687 -0.23798022 -0.087276146 -0.1270797 0.08401227
00000000: ede6 74bd d027 2b3d 5bbe 24be 7133 87be
00000010: 50ec cf3c 743f edbd 56a0 16bf 8d08 e4be
00000020: 2741 88bf 376f e5bd c52e 60be 7b26 443e
00000030: 6505 08bf e8f7 8e3d 473f 523d 26f5 b6be
00000040: 074a 15bd 793c 1ebe 1b9a 473e 02e6 16be
00000050: 8064 463e 83e2 85be afe2 4fbe 368d 78bc
00000060: b3e5 53be 205e d93d 1bad 373d 9e15 ac3d
00000070: c159 fabe d479 293e 5039 683d aa7e acbd
00000080: 1d8a bfbd 7aa1 423e 297e 1bbe 5010 4fbe
00000090: 9d89 47be 2a1d 663e cc84 1ebe edf7 fb3c
000000a0: b0ca 62bf 340d bfbe 4095 f9be 1844 52be
000000b0: c6c3 f1be 9c7f 243e 708f 11bd c5d2 cdbe
000000c0: 5e67 36be fc23 abbd 30bc 8d3d b0dc 03bc
000000d0: 4cf5 01be b54b 2fbe 9189 f1bd aa10 3abd
000000e0: 524b 2cbe b04c 723d f270 8cbe 3a71 51be
000000f0: 666a 58be 601d 98bc 80c5 953d 6466 ce3d
00000100: 9525 a53d 40aa 293d c431 d13d 75e9 95bd
00000110: 91e2 55be 0061 7b3c 8eda 82be f857 8fbe
00000120: 6170 ad3e 9f34 1bbe 27d1 84be 31fc 30be
00000130: 9231 9bbd c0f0 19bc 7c53 17be 3aea c8bb
00000140: bf19 b43c fe48 96bd fafb 0f3e a8b6 88bd
00000150: 187e b6bd 88fe df3d 1d3f edbd 44c2 f93c
00000160: fa7a d0bd 00e3 f73d 1114 74be da2e e33c
00000170: 0426 c0be bcb4 a83d b0ed 4dbc 58c8 573d
00000180: cddb 84bc e288 2a3e bc45 f43d dab5 d23c
00000190: cf5d 37bf e841 a43d b3fd eabe 1fe3 8ebe
000001a0: 9876 bebe a74b aebe c052 e93b 88ce 0d3e
000001b0: 4756 0abf 68fd 7e3d 3ee5 103e 5939 e0bd
000001c0: 8895 a23d 7fcb 8dbe f6b3 5d3e 7cff d93d
000001d0: 70c1 6c3d 3bef 47be 38e8 b33d 4a8f be3d
000001e0: d48f 30bd 10fc 39be 4176 86be bc14 53bf
000001f0: 6195 a83d 5445 ca3d b287 1a3e 0862 2b3d
00000200: a731 8bbe 78ad 2c3d b8b5 fabc d5f4 a7be
00000210: 0a7f f6be 7cac 4e3e 18cd 62bc 3977 a1be
00000220: 489c 98be e1ca e5be 3e51 a4be 47eb 0a3e
00000230: 9484 02be ce08 48be f682 143e 8fdd c3bd
00000240: b77f b8bc 5d70 6dbe b4a5 9a3d 883c 033e
00000250: f487 9dbd 1363 e6be 82cf 543e a23c 703d
00000260: 50f1 5abe c63e 3c3e 8b02 1cbf 7542 a93d
00000270: 1687 06bf 9803 c7bc ac30 0a3e f014 3abe
00000280: 627f efbd fa18 0c3e 96ec 0f3e cec4 0dbf
00000290: 6315 6bbe 3892 543d 7375 e1be d542 b0be
000002a0: d466 a8be a832 64be e34c 08bf 2782 2e3e
000002b0: 3a9f aabe 6eba 5a3e 902f 38be e81a cebe
000002c0: 1771 a8be b9b3 74be 1bdc 993e d4c3 5d3e
000002d0: 46d6 52be 8604 0d3d f20d c3bd c45e b73d
000002e0: 10ed da3c 7860 123d e5f2 04bd 036c 69bd
000002f0: fa6e dfbe 90db 9e3d a635 f4bd 7898 0ebd
00000300: 43cd aebd 21f5 38be 5496 c63d 2157 623d
00000310: 1d95 01be 82e6 493e 5636 8cbe 9adb 713d
00000320: 0ec2 69bf ccf7 95be 6157 d2be adcc ad3d
00000330: 8a2d 263e 8a2a a1bd 646f 6c3d f859 4ebd
00000340: 8089 8abe e6aa 023e 8c9a bd3d e8c3 163d
00000350: 0465 b03d dc55 763d eaa2 36be 671e 27be
00000360: 5204 e8bd d4fb 1ebe a44c e6be 5753 e3be
00000370: 8535 b1bd 6b78 16be c2d1 60be e0a9 4ebd
00000380: 3bfe f9bd 9473 d73d fa11 563e b7d3 47be
00000390: 25f2 8bbd d004 1e3d 0c40 473d 4bd6 49be
000003a0: 842d b8bf 9396 a4bb 6918 6fbe c6d7 5f3e
000003b0: ac35 a7be a4b2 5cbe cb3a 513e 97b9 89be
000003c0: 7e09 92bd e5d0 eabe 3622 033e 6275 053e
000003d0: 0eac 0b3e 7194 3b3c e0fa d23c add4 e23d
000003e0: 28a6 3dbe 10fc f03c 2387 babe 4440 41bf
000003f0: 16b1 73be d6bd b2bd 2e21 02be a00e ac3d

model_4/bidirectional_4/forward_lstm_4/Read_2/ReadVariableOp1 f4 [84]
-0.138308 -0.15094402 -0.13358134 -0.19951059 -0.08954707 -0.16797432 -0.057049133 -0.06699409
-0.14330235 -0.0962518 -0.12007645 -0.1367414 -0.12731934 -0.09217034 -0.123854615 -0.21572873
-0.1204235 -0.1258341 -0.1108778 -0.14775401 -0.13375314 0.9129384 0.899296 0.8972153
0.82436955 0.93266445 0.9255362 0.9637356 0.94695246 0.8879432 0.94557005 0.8920475
0.9040313 0.90823716 0.9426518 0.88361096 0.8828094 0.9184782 0.8903228 0.93056905
0.9337285 0.9510415 0.0052543357 0.0009663891 0.0005510707 0.006575481 -0.0069964076 -0.0071401037
-0.0073862257 -0.004591036 0.0074854116 -0.0026248093 -0.005776404 0.014245451 -0.003705729 0.01695725
-0.0015822116 0.00076807174 0.0064184424 -0.008657539 0.0030533269 0.012980621 0.004268247 -0.1054255
-0.15136635 -0.113777675 -0.19757183 -0.08153954 -0.16746718 -0.054623544 -0.061866783 -0.14140028
-0.09625995 -0.12631573 -0.13974383 -0.12120426 -0.08831107 -0.1143986 -0.17623349 -0.10639929
-0.1286341 -0.11065893 -0.14676057 -0.12889473
00000000: 9da0 0dbe 1291 1abe 8cc9 08be 814c 4cbe
00000010: 7464 b7bd 7601 2cbe 5aac 69bd 3334 89bd
00000020: dabd 12be aa1f c5bd a4ea f5bd f005 0cbe
00000030: 0060 02be cec3 bcbd 7da7 fdbd fee7 5cbe
00000040: 99a0 f6bd a8da 00be e613 e3bd d44c 17be
00000050: 95f6 08be 55b6 693f 4338 663f e7af 653f
00000060: e209 533f 19c3 6e3f f1ef 6c3f 60b7 763f
00000070: 7a6b 723f 3f50 633f e110 723f 3a5d 643f
00000080: 986e 673f 3b82 683f a151 713f 5434 623f
00000090: ccff 613f 6321 6b3f 32ec 633f c639 6e3f
000000a0: d508 6f3f 7577 733f 902c ac3b 4655 7d3a
000000b0: bb75 103a 2277 d73b 1f42 e5bb 88f7 e9bb
000000c0: 2708 f2bb 6770 96bb 2f48 f53b fe04 2cbb
000000d0: fd47 bdbb c165 693c d1db 72bb eee9 8a3c
000000e0: 3662 cfba 6c58 493a cc51 d23b 5ad8 0dbc
000000f0: 531a 483b acac 543c a7dc 8b3b 53e9 d7bd
00000100: c8ff 1abe 4504 e9bd 4550 4abe 34fe a6bd
00000110: 847c 2bbe f0bc 5fbd 0668 7dbd 3ccb 10be
00000120: f023 c5bd e958 01be 0219 0fbe f039 f8bd
00000130: 6fdc b4bd d049 eabd 8d76 34be dfe7 d9bd
00000140: a8b8 03be 26a1 e2bd 6748 16be fbfc 03be

while/MatMul_14 f4 [84, 21]
-0.014307798 -0.23676772 0.0018701301 0.13431512 0.1201812 0.18113908 0.040060587 0.04211044
0.12694862 -0.17954335 -0.14702432 0.05128809 0.033273418 -0.2386684 -0.027070388 -0.048622325
0.16018356 -0.0068978476 0.010843277 0.148909 0.025976382 -0.09721977 0.22685522 -0.057367645
0.005477578 -0.17275503 -0.01843922 0.23207706 -0.082569525 0.07151012 -0.047913663 -0.20829217
0.05421615 -0.09086834 0.052316125 -0.18383597 0.24072003 -0.032897618 -0.20833643 0.012417994
0.26035073 0.105694205 -0.095497236 -0.06768408 -0.036199924 0.05008352 -0.048009392 0.4044963
0.18497263 0.04961168 0.0297245 0.033845536 -0.064493366 0.044881403 0.09201541 0.13983719
-0.24641578 -0.026672108 0.20852701 -0.057493575 0.09234947 0.053733617 -0.0013721569 -0.09025206
0.028052753 0.11680597 0.0531135 0.30563423 0.31696612 0.29751405 0.05308504 -0.0029125586
-0.23048884 -0.19677235 0.08915633 0.18254167 -0.025116403 -0.07600214 -0.009598583 -0.005406017
-0.001164725 0.0615896 0.25562 0.18343608 -0.085991 -0.0139955655 -0.054802295 0.17261836
0.10742297 -0.010658501 0.12639768 -0.013932531 0.09550415 -0.15961958 0.06115685 0.14317773
-0.037387133 -0.035092875 -0.037186317 0.08527499 0.28864127 -0.18270072 0.045992475 0.10501128
0.23150401 -0.10321218 0.0893496 -0.17655413 0.114673436 0.116501614 -0.012006498 0.009290493
0.1032888 0.11137144 -0.12010752 -0.10505733 0.17229122 0.32702893 -0.01002287 0.03956875
0.010984357 0.32622713 -0.35072327 -0.2514052 0.13137108 0.116349384 -0.124960154 0.11226489
-0.091953084 -0.03654487 0.0875538 0.19393513 0.011976696 0.025999859 0.0071574287 -0.08243788
-0.20326108 -0.1338594 0.09809438 0.029199384 -0.06924345 0.09166184 0.19140966 -0.076271616
0.18821177 -0.12829886 0.19207154 0.24803688 0.18010409 0.07997571 -0.16957933 0.089031726
0.10135758 -0.035869483 0.077193156 0.071211115 0.13579658 -0.14459023 -0.012901748 0.23591664
-0.011656964 0.026442142 0.20367825 0.018725688 -0.14622591 0.030342195 0.15914184 0.09417455
-0.14212266 0.30134788 0.18276973 0.10402571 0.1602581 -0.01155052 0.16758041 0.16097367
0.1294672 0.04373611 -0.3522825 0.12350359 -0.028303238 -0.06588668 -0.22955309 -0.07460622
0.061742496 -0.36629668 0.29881814 0.24823704 0.088576846 -0.0793239 -0.1730137 -0.15974163
0.20604439 0.1508039 0.1492513 0.007320617 -0.13914008 0.12191753 0.026448347 -0.36866564
-0.08843343 0.034816545 0.06774071 -0.025489204 -0.0748397 0.002589403 -0.048600893 0.1479211
0.25909817 0.15566063 0.04230016 0.06654779 -0.00961806 0.20871584 0.22459903 0.13150565
-0.13085935 0.2213997 0.19492616 -0.1888879 -0.02997343 0.22515468 0.08766366 0.01582041
-0.109127514 0.30715096 -0.060734283 -0.19953597 0.08982289 0.3447991 0.11332987 0.108078025
0.2083888 0.078963384 0.21836364 0.02023007 0.2114548 0.11650595 0.09110588 0.18359768
-0.35268566 -0.3338188 0.21805045 0.13452305 0.3329087 -0.24139775 0.06236069 0.2502929
-0.25301906 0.35839617 0.3860124 0.058166496 -0.017236788 -0.0979803 -0.2938122 -0.03938392
00000000: 416b 6abc 3d73 72be 271f f53a e789 093e
00000010: 9021 f63d 867c 393e 9216 243d ff7b 2c3d
00000020: d2fe 013e 36da 37be 8b8d 16be 7613 523d
00000030: b549 083d 7d65 74be b8c2 ddbc 3428 47bd
00000040: 2907 243e 5707 e2bb 00a8 313c 9a7b 183e
00000050: 6ccc d43c 291b c7bd bc4c 683e 56fa 6abd
00000060: 417d b33b b2e6 30be d90d 97bc 9ca5 6d3e
00000070: 361a a9bd e673 923d 1e41 44bd 8b4a 55be
00000080: c111 5e3d 2e19 babd 6f49 563d 7f3f 3cbe
00000090: 507f 763e a7bf 06bd 2556 55be d874 4b3c
000000a0: b14c 853e 3476 d83d 0e94 c3bd f39d 8abd
000000b0: 5f46 14bd 6124 4d3d 7fa5 44bd 241a cf3e
000000c0: 7769 3d3e 9e35 4b3d cb80 f33c 9ea1 0a3d
000000d0: 1915 84bd 90d5 373d 9372 bc3d 7b31 0f3e
000000e0: 6b54 7cbe 777f dabc 1b88 553e 627e 6bbd
000000f0: b821 bd3d c817 5c3d f2d9 b3ba 12d6 b8bd
00000100: e3ce e53c f837 ef3d 8b8d 593d 177c 9c3e
00000110: 6249 a23e c353 983e b36f 593d a0e0 3ebb
00000120: 4405 6cbe b17e 49be 9897 b63d 34ec 3a3e
00000130: eac0 cdbc 03a7 9bbd 6043 1dbc f524 b1bb
00000140: b0a9 98ba 6045 7c3d a0e0 823e abd6 3b3e
00000150: 0d1c b0bd a84d 65bc 5f78 60bd dec2 303e
00000160: 9300 dc3d fea0 2ebc 656e 013e 4545 64bc
00000170: ae97 c33d 5173 23be 9b7f 7a3d 2f9d 123e
00000180: 4023 19bd 8cbd 0fbd ae50 18bd a7a4 ae3d
00000190: cac8 933e e615 3bbe 9b62 3c3d 2710 d73d
000001a0: 630f 6d3e e860 d3bd ecfc b63d 9bca 34be
000001b0: e8d9 ea3d 6698 ee3d e7b6 44bc 2737 183c
000001c0: 1489 d33d b616 e43d eefa f5bd 4c28 d7bd
000001d0: 1c6d 303e 5670 a73e f736 24bc d712 223d
000001e0: bcf7 333c 3e07 a73e 0092 b3be 2fb8 80be
000001f0: 2486 063e 9648 ee3d 1ceb ffbd 22eb e53d
00000200: e651 bcbd 13b0 15bd 684f b33d ee96 463e
00000210: e739 443c a8fd d43c dd88 ea3b 31d5 a8bd
00000220: ac23 50be 7012 09be b5e5 c83d 8c33 ef3c
00000230: 83cf 8dbd 34b9 bb3d e500 443e 4b34 9cbd
00000240: 96ba 403e c760 03be 67ae 443e 61fd 7d3e
00000250: 356d 383e 4eca a33d 34a6 2dbe 4456 b63d
00000260: 9094 cf3d e1eb 12bd 7217 9e3d 22d7 913d
00000270: 420e 0b3e 760f 14be da61 53bc 2294 713e
00000280: dafc 3ebc 319d d83c 0891 503e 9d66 993c
00000290: 3fbc 15be 3290 f83c 14f6 223e 96de c03d
000002a0: 9a88 11be 454a 9a3e fd27 3b3e 6e0b d53d
000002b0: b31a 243e 643e 3dbc 339a 2b3e 48d6 243e
000002c0: 0d93 043e a324 333d 5f5e b4be 73ef fc3d
000002d0: 31dc e7bc 98ef 86bd f70f 6bbe 25cb 98bd
000002e0: b3e5 7c3d 3d8b bbbe b1fe 983e da31 7e3e
000002f0: c767 b53d 9274 a2bd 812a 31be 4f93 23be
00000300: 4dfd 523e 566c 1a3e 55d5 183e c9e1 ef3b
00000310: bd7a 0ebe e6af f93d 34aa d83c bec1 bcbe
00000320: 961c b5bd cb9b 0e3d a4bb 8a3d bcce d0bc
00000330: 8e45 99bd f9b2 293b bb11 47bd a178 173e
00000340: 84a8 843e 8065 1f3e ef42 2d3d 354a 883d
00000350: 1195 1dbc 9bb9 553e 4afd 653e 6ba9 063e
00000360: feff 05be 9ab6 623e b99a 473e d46b 41be
00000370: d78a f5bc f38e 663e 0189 b33d ce99 813c
00000380: 3f7e dfbd e442 9d3e 83c4 78bd 2853 4cbe
00000390: 10f5 b73d 8289 b03e 7e19 e83d 0358 dd3d
000003a0: e063 553e 8eb7 a13d b89a 5f3e 88b9 a53c
000003b0: 9b87 583e ac9a ee3d b895 ba3d 0801 3c3e
000003c0: 3793 b4be 4cea aabe 9e48 5f3e 69c0 093e
000003d0: 0273 aa3e f930 77be ec6d 7f3d 6426 803e
000003e0: b78b 81be b47f b73e 6ba3 c53e fe3f 6e3d
000003f0: 2a34 8dbc e5a9 c8bd 8d6e 96be 0951 21bd

while/MatMul2 f4 [84, 32]
-0.05560069 -0.11493116 -0.11550251 0.177193 -0.120351724 -0.16211478 0.10672407 -0.69895774
0.037394516 -0.3460521 -0.11020103 0.13304217 -0.07925663 -0.024611026 0.07069668 -0.2561633
0.07543688 -0.03546305 0.11452612 0.167038 -0.0083221495 -0.012376999 -0.20213285 0.15223068
-0.004879996 0.020790502 -0.17358302 0.10116795 0.08612923 0.02188918 0.06357589 0.22426587
0.042043157 -0.04556425 0.090197325 -0.2133878 -0.42096376 0.08724892 -0.30479425 -0.17488971
-0.16513066 -0.04390779 -0.29038763 0.009118976 -0.279208 -0.07509832 0.002694568 0.09184211
-0.20928986 -0.3068084 0.11209397 0.19146147 -0.04565485 0.086286075 -0.1881624 -0.074840926
0.07829657 0.022767633 -0.1811783 -0.015237016 -0.124417745 -0.09072171 -0.19258898 -0.1276806
0.012186507 0.12769523 0.05355975 -0.245633 0.26344943 -0.05350977 0.014669671 -0.47804835
-0.40522125 -0.09031909 0.10693348 0.030428156 0.05266224 -0.18240969 0.22711593 0.053499628
0.08778771 0.13239647 -0.07493407 0.06507447 -0.072242916 -0.2810529 0.067239344 -0.16394195
-0.09523435 -0.13248572 -0.34595737 -0.019893581 0.0919646 -0.013506795 -0.10130292 0.007830542
-0.3025987 -0.200015 -0.17545661 0.03142944 0.04094874 -0.20389126 -0.2430734 -0.5320164
-0.005464559 -0.3890184 -0.06140162 -0.13784103 -0.11690983 0.17184696 -0.02897506 -0.061655473
-0.24111043 -0.078866854 0.07298273 0.002566889 0.21226922 -0.34038994 -0.17926376 0.0672798
0.016840756 -0.044523865 -0.31341562 -0.102604 -0.2357063 -0.10252669 -0.17539144 -0.21830732
0.14031953 0.06417373 -0.08645487 0.02029593 -1.1441393 -0.092899054 -0.3260145 -0.51263225
0.19931515 -0.31300563 -0.21779904 -0.052565638 -0.14599985 -0.15890655 0.10628837 -0.11122688
-0.20377308 -0.087030806 0.26077765 -0.039991602 0.13169453 0.10578137 -0.108463064 0.037941124
-0.008881852 0.09518549 -0.4846696 -0.089834444 0.04961228 -0.13128689 -0.22485398 -0.042830303
-0.23827982 0.15323046 -0.07429728 -0.7258529 -0.43061084 -0.08695638 -0.2009949 -0.3605963
-0.28434813 -0.5493794 -0.118783586 0.0039110077 -0.25116825 -0.216208 -0.020409016 -0.05831839
0.031293247 0.13005419 0.08184196 0.027852565 0.16629589 -0.34679624 0.0943436 -0.13272494
-0.13030869 -0.15408951 -0.34014654 -0.056796882 -0.47081655 0.10397905 0.14087191 0.15707245
-0.1146135 0.19764051 0.12888294 0.21107447 -0.060828216 -0.1253606 -0.11566948 -0.059697565
-0.33039492 -0.0521338 0.0053405752 0.013553184 -0.3160913 -0.19202122 0.1128007 -0.28769943
0.16345584 -0.033436574 0.045772366 0.0035509318 -0.13325992 0.08798921 -0.16802487 0.14844316
-0.11104605 0.059924185 0.114268064 0.18008415 -0.10030064 -0.013880268 0.09726751 0.0087581575
0.016359976 0.057646185 -0.21894124 0.0043624425 0.20380583 -0.052276134 -0.08461516 -0.23052031
-0.20330301 -0.21925944 -0.0639695 -0.10730429 0.06305763 -0.13261254 -0.13685237 0.049024932
0.0513699 -0.12496425 0.081177495 0.04797551 0.03224644 0.09589146 -0.049154922 -0.22108284
-0.013585731 0.19395795 0.02994966 -0.14427046 -0.15377815 0.16875985 -0.12209998 0.05463767
00000000: 8dbd 63bd 0761 ebbd 948c ecbd 1572 353e
00000010: f77a f6bd 6b01 26be 2692 da3d e5ee 32bf
00000020: fe2a 193d be2d b1be 14b1 e1bd 353c 083e
00000030: 4d51 a2bd 109d c9bc 6cc9 903d d627 83be
00000040: a77e 9a3d b441 11bd ac8c ea3d 020c 2b3e
00000050: a059 08bc e5c8 4abc eafb 4ebe 5ce2 1b3e
00000060: 60e8 9fbb d850 aa3c bfbf 31be 2431 cf3d
00000070: 8664 b03d f050 b33c 1434 823d f4a5 653e
00000080: 7235 2c3d 94a1 3abd 60b9 b83d 5582 5abe
00000090: 9088 d7be 90af b23d fe0d 9cbe 4a16 33be
000000a0: 0318 29be a8d8 33bd b0ad 94be c267 153c
000000b0: 5af4 8ebe 26cd 99bd 5997 303b b717 bc3d
000000c0: 1550 56be fe15 9dbe 8691 e53d 7a0e 443e
000000d0: 9400 3bbd c1b6 b03d a5ad 40be 3346 99bd
000000e0: f459 a03d 3083 ba3c ce86 39be ada4 79bc
000000f0: bbce febd 4ecc b9bd 0c36 45be b4be 02be
00000100: eaa9 473c 8ac2 023e 7861 5b3d 3887 7bbe
00000110: d8e2 863e 102d 5bbd 0f59 703c c1c2 f4be
00000120: 2979 cfbe 37f9 b8bd f1ff da3d 7844 f93c
00000130: 5cb4 573d 9bc9 3abe 1491 683e 6d22 5b3d
00000140: 0bca b33d f192 073e 0977 99bd c445 853d
00000150: 18f4 93bd 2ae6 8fbe c8b4 893d 66e0 27be
00000160: 3a0a c3bd 56aa 07be 5321 b1be ddf7 a2bc
00000170: f057 bc3d 9b4b 5dbc e877 cfbd ac4b 003c
00000180: 38ee 9abe bbd0 4cbe e6aa 33be 28bc 003d
00000190: deb9 273d dfc8 50be 3ce8 78be 3a32 08bf
000001a0: 0b10 b3bb 6b2d c7be 4480 7bbd 3326 0dbe
000001b0: 6c6e efbd a6f8 2f3e 1b5d edbc 738a 7cbd
000001c0: a7e5 76be f284 a1bd f877 953d 4039 283b
000001d0: 1a5d 593e 9747 aebe eb90 37be fec9 893d
000001e0: a0f5 893c a85e 36bd 0378 a0be 0c22 d2bd
000001f0: fe5c 71be 83f9 d1bd d099 33be f48b 5fbe
00000200: ecaf 0f3e 846d 833d 400f b1bd a643 a63c
00000210: 2873 92bf dc41 bebd 5feb a6be de3b 03bf
00000220: 4519 4c3e 4642 a0be b606 5fbe 114f 57bd
00000230: fc80 15be 66b8 22be b8ad d93d ebca e3bd
00000240: e4a9 50be 353d b2bd a684 853e 3cce 23bd
00000250: eeda 063e e7a3 d83d e221 debd 2768 1b3d
00000260: 3085 11bc 9cf0 c23d 9d26 f8be 1ffb b7bd
00000270: 3f36 4b3d 1270 06be 1f40 66be d46e 2fbd
00000280: a0ff 73be 72e8 1c3e 2c29 98bd 7fd1 39bf
00000290: 0679 dcbe 3016 b2bd 9bd1 4dbe 14a0 b8be
000002a0: 1496 91be 21a4 0cbf cf44 f3bd e927 803b
000002b0: 2099 80be a165 5dbe cf30 a7bc 44df 6ebd
000002c0: 592d 003d ed2c 053e c29c a73d 102b e43c
000002d0: 7849 2a3e 478f b1be 3837 c13d 0ce9 07be
000002e0: a46f 05be a4c9 1dbe b027 aebe d9a3 68bd
000002f0: de0e f1be f8f2 d43d ba40 103e 9ad7 203e
00000300: 7cba eabd 4662 4a3e e4f9 033e e823 583e
00000310: 0227 79bd 875e 00be 1fe4 ecbd 6f85 74bd
00000320: 8629 a9be 408a 55bd feff ae3b 2d0e 5e3c
00000330: b8d6 a1be 36a1 44be 0e04 e73d 574d 93be
00000340: f860 273e caf4 08bd ce7b 3b3d c0b6 683b
00000350: 4a75 08be b033 b43d b60e 2cbe 7c01 183e
00000360: 1d6c e3bd 1073 753d 6005 ea3d fb67 383e
00000370: 6c6a cdbd 106a 63bc 3034 c73d 607e 0f3c
00000380: 5b05 863c 681e 6c3d 2232 60be d2f2 8e3b
00000390: 7ab2 503e 801f 56bd b74a adbd 840d 6cbe
000003a0: aa2e 50be 8c85 60be 7102 83bd 5ac2 dbbd
000003b0: 5c24 813d 95cb 07be 0723 0cbe 5ece 483d
000003c0: 3f69 523d 42ed ffbd 6340 a63d f881 443d
000003d0: d814 043d be62 c43d ac56 49bd 8a63 62be
000003e0: b096 5ebc ea9c 463e fd58 f53c a3bb 13be
000003f0: 0578 1dbe 62cf 2c3e 8e0f fabd c0cb 5f3d
