check_points/student_tflite_models_pruning_quantization/student_model_quant.tflite (tflite, 67536 bytes, 12 tensors)

model_3/conv1d_3/BiasAdd/ReadVariableOp f4 [32]
0	0xbcbbad25	-0.02290971
1	0xbe0eb611	-0.1393664
2	0xbe074d6b	-0.13213126
3	0xbdd5295c	-0.10408279
4	0xbdaf13a7	-0.0854867
5	0xbe14ac20	-0.14518785
6	0xbd846d0d	-0.06466112
7	0xbdee669d	-0.11640666
8	0x00000000	0.0
9	0xbdf4b6f0	-0.11948955
10	0x00000000	0.0
11	0xbcae860c	-0.021304153
12	0xbcaa2754	-0.020770706
13	0xbac3b4ca	-0.0014931199
14	0xbde904e8	-0.11377889
15	0xbd0de371	-0.034640733
16	0xbc8fa69d	-0.017535502
17	0x00000000	0.0
18	0xbe2c46ba	-0.16823855
19	0xbd2bbd78	-0.04192874
20	0xbe457df4	-0.19286329
21	0x3db15629	0.08659012
22	0xbe0a32a1	-0.13495876
23	0xbd90d8ac	-0.07072577
24	0xbdf620a4	-0.120179445
25	0xbda94844	-0.08265737
26	0xbc937362	-0.017999355
27	0xbdc49d71	-0.09600342
28	0xbb35e3f9	-0.002775429
29	0xbd8d56b1	-0.06901301
30	0xbba835dd	-0.005133374
31	0xbc9d7a0b	-0.019223234

model_3/conv1d_3/Conv1D f4 [32, 1, 1, 4]
0	0x3d07b61e	0.033132665
1	0x3e585db8	0.21129501
2	0xbe8a45e2	-0.2700644
3	0x3e23ddf2	0.16002634
4	0x3db9af32	0.09066619
5	0x3e2451d6	0.16046843
6	0x3e50141e	0.20320174
7	0xbe03c717	-0.12868915
8	0xbd9d1f8d	-0.076720335
9	0x3e68e2cf	0.2274277
10	0xbd9205b1	-0.07129992
11	0x3df77086	0.12082009
12	0xbe3db0e7	-0.18524514
13	0x3e519969	0.20468678
14	0xbe34a93e	-0.17642686
15	0x3eab62ec	0.3347391
16	0x3e830942	0.25593
17	0xbeeabeb7	-0.4584863
18	0x3e5d0cc8	0.21586907
19	0x3e5b669f	0.21425866
20	0xbb974e72	-0.0046175057
21	0xbe6f05ae	-0.2334201
22	0x3e7f4ee4	0.24932438
23	0x3e69dbfb	0.22837822
24	0x3e82b412	0.25528008
25	0x3ea38f56	0.31945294
26	0xbe37a856	-0.17935309
27	0xbdf4b1b2	-0.11947955
28	0x3e95d4b6	0.29263848
29	0xbe846b75	-0.25863233
30	0xbb9e5ac6	-0.0048325984
31	0x3e5df3fd	0.21675105
32	0xbb756a00	-0.0037447214
33	0xbec2ba31	-0.38032678
34	0xbece52f3	-0.4029766
35	0xbe942dc8	-0.28941178
36	0xbd842ab2	-0.06453456
37	0x3e9882b0	0.29787207
38	0x3d70f65e	0.058828704
39	0xbdf2f5c8	-0.11863285
40	0xbded12b4	-0.11575833
41	0xbe8248d4	-0.25446188
42	0xbe46b03e	-0.19403169
43	0xbe9dfc1a	-0.308564
44	0xbe27bd7c	-0.16380876
45	0x3cb39a13	0.021924054
46	0xbbdbb08a	-0.0067043947
47	0x3e9a4617	0.301316
48	0x3e7b21e8	0.24524653
49	0xbe203467	-0.1564499
50	0x3d96135b	0.073279105
51	0xbc66dc1e	-0.014090566
52	0x3e75d3fe	0.2400665
53	0xbdb11ce0	-0.086480856
54	0xbea909da	-0.3301533
55	0x3e20f463	0.15718226
56	0xbd470d98	-0.04859695
57	0x3e4c3fcb	0.1994621
58	0x3dd62852	0.10456909
59	0x3dde7bad	0.10863433
60	0xbe9fbc8c	-0.31198537
61	0x3e5403f3	0.20704632
62	0x3e2fd25b	0.17170088
63	0x3d5514a5	0.05202164
64	0xbb104910	-0.0022016205
65	0x3d1d3b4a	0.03838662
66	0x3e0193a7	0.12653981
67	0xbc84f606	-0.016230594
68	0xbe59abd4	-0.21256953
69	0xbec3c4e2	-0.38236147
70	0xbe13c542	-0.14430717
71	0xbe0dd264	-0.13849789
72	0xbd8d0126	-0.06884985
73	0x3e36284a	0.17788807
74	0x3dfb4894	0.122697026
75	0x3ddd8f9a	0.108184054
76	0xbeb356d6	-0.35027188
77	0xbb22f078	-0.0024862569
78	0x3e958c8d	0.29208794
79	0x3e8089a4	0.2510501
80	0xbe221550	-0.15828443
81	0xbda0326d	-0.07822118
82	0x3e90aa9e	0.2825517
83	0x3e410f13	0.18853407
84	0xbbd80b36	-0.0065931333
85	0x3e047144	0.12933832
86	0xbe9c64f2	-0.30545765
87	0xbeebc612	-0.46049553
88	0x3e5ff8a0	0.21872187
89	0xbe79dc20	-0.24400377
90	0x3e042e3a	0.12908259
91	0x3e74f558	0.23921716
92	0x3e97a293	0.29616222
93	0x3e9a9c86	0.30197543
94	0xbeac4ec2	-0.33653837
95	0xbde70f7b	-0.112822495
96	0x3d5c3795	0.053763945
97	0x3e893d9d	0.2680482
98	0x3e006e50	0.12542081
99	0xbe6e5525	-0.23274668
100	0x3e925c62	0.28586107
101	0x3e7b620d	0.24549122
102	0xbea399b7	-0.31953213
103	0x3b69ae19	0.0035656749
104	0xbd4e840b	-0.050418895
105	0x3e863f4a	0.2622016
106	0xbeab37a0	-0.33440876
107	0x3e9316dd	0.2872838
108	0x3ea94fc4	0.3306867
109	0xbc9cc54a	-0.019137044
110	0x3ead2517	0.3381736
111	0xbeed97c0	-0.4640484
112	0xbeccea94	-0.4002272
113	0x3d21a0c0	0.039459944
114	0x3e9e299d	0.30891123
115	0xbec3604a	-0.381594
116	0x3e0fc65d	0.14040513
117	0x3eaf9a5e	0.3429746
118	0xbeda5576	-0.42643327
119	0x3dd7556d	0.105143405
120	0xbe723f65	-0.23656996
121	0x3eb8a440	0.36062813
122	0xbe24b7de	-0.16085765
123	0xbe790f92	-0.24322346
124	0xbe62ed68	-0.22160876
125	0xbe744851	-0.23855712
126	0x3e3b34d0	0.18281865
127	0x3edfc6e4	0.4370643

model_3/dense_5/BiasAdd/ReadVariableOp f4 [4]
0	0x3ecdbdb0	0.40183783
1	0x3ecd4024	0.40087998
2	0x3ece0866	0.40240782
3	0x3ecda809	0.40167263

model_3/bidirectional_3/forward_lstm_3/Read_2/ReadVariableOp f4 [84]
0	0xbe279917	-0.16366993
1	0xbe144afe	-0.14481732
2	0xbe65d75b	-0.22445433
3	0xbe4723e2	-0.19447282
4	0xbe48d2a5	-0.19611605
5	0xbe85f828	-0.2616589
6	0xbe29de95	-0.16588815
7	0xbe38ba2d	-0.1803977
8	0xbde23486	-0.11045174
9	0xbe061cd2	-0.13096932
10	0xbdd509dc	-0.10402271
11	0xbe585e50	-0.21129727
12	0xbe5cbea8	-0.21557105
13	0xbe72ead9	-0.237224
14	0xbe2ea40d	-0.17054768
15	0xbdff93b9	-0.12479348
16	0xbe0998f2	-0.1343725
17	0xbe1c6ece	-0.15276644
18	0xbdd07c5d	-0.101799704
19	0xbe125204	-0.14289099
20	0xbe4b3aba	-0.19846621
21	0x3f5f4ec1	0.87229544
22	0x3f6a9e48	0.9164777
23	0x3f5fb886	0.87390935
24	0x3f5e43aa	0.86822
25	0x3f605b8d	0.87639695
26	0x3f63a795	0.88927585
27	0x3f61802e	0.8808621
28	0x3f66a3bf	0.90093607
29	0x3f6bad87	0.92061657
30	0x3f66b8a8	0.90125513
31	0x3f64ef47	0.8942761
32	0x3f612d58	0.87959814
33	0x3f623eac	0.8837688
34	0x3f5c2705	0.8599704
35	0x3f6515b7	0.8948626
36	0x3f667f2c	0.900378
37	0x3f657608	0.89633226
38	0x3f5d20d1	0.863782
39	0x3f72c544	0.94832253
40	0x3f6033ec	0.87579226
41	0x3f62b6b2	0.8856002
42	0xbd0548db	-0.032540184
43	0xbc44770d	-0.011991275
44	0xbc8396b7	-0.016063077
45	0xbc016204	-0.007896904
46	0x3cf18f09	0.02948715
47	0xbc9bbec5	-0.019011864
48	0xbc28e1bb	-0.010307725
49	0x39bc473d	0.0003591123
50	0xbcbcae7f	-0.023032425
51	0x3c8d7d73	0.017271733
52	0x3c4102bc	0.011780437
53	0x3c465fee	0.012107832
54	0x3c0adfb6	0.008476188
55	0xbbac6969	-0.0052615893
56	0x3c8e9971	0.017407151
57	0xbc0da085	-0.008644228
58	0x3b967090	0.004591055
59	0xbc988b1d	-0.018621022
60	0xbbf7c187	-0.007560912
61	0x3c4f70ee	0.012661202
62	0x3bd3d87f	0.0064650173
63	0xbe0f089f	-0.13968132
64	0xbe104317	-0.14088093
65	0xbe60ea60	-0.21964407
66	0xbe466578	-0.19374645
67	0xbe2831c5	-0.16425236
68	0xbe5229f6	-0.2052382
69	0xbe2c4e14	-0.1682666
70	0xbdfe5eaa	-0.124203995
71	0xbddec225	-0.10876874
72	0xbe13d33e	-0.14436051
73	0xbdc08e7f	-0.09402179
74	0xbe529e5f	-0.20568226
75	0xbe2baeaa	-0.16765848
76	0xbe5b900d	-0.2144167
77	0xbe1f7b51	-0.15574385
78	0xbde22891	-0.11042894
79	0xbda48ddf	-0.08034872
80	0xbe1ffb19	-0.1562313
81	0xbdceec34	-0.10103646
82	0xbdf4876d	-0.11939893
83	0xbe4d463d	-0.20046325

model_3/bidirectional_3/backward_lstm_3/Read_2/ReadVariableOp f4 [84]
0	0xbe252757	-0.16128288
1	0xbdff7cda	-0.124749854
2	0xbde8df7c	-0.11370751
3	0xbe556ca8	-0.2084223
4	0xbdf9791a	-0.121813014
5	0xbe53b073	-0.20672779
6	0xbdc5dde9	-0.09661467
7	0xbe74713a	-0.23871318
8	0xbe14a546	-0.14516172
9	0xbe4d5440	-0.2005167
10	0xbe57093d	-0.20999618
11	0xbe1ed65a	-0.15511456
12	0xbe20081e	-0.15628096
13	0xbdd90dca	-0.10598333
14	0xbe072ff2	-0.13201883
15	0xbe615e5a	-0.22008649
16	0xbe05230f	-0.13001655
17	0xbe8ac3aa	-0.27102405
18	0xbded85a9	-0.11597759
19	0xbde7d8da	-0.11320658
20	0xbe4c24b8	-0.19935882
21	0x3f7b5268	0.98172617
22	0x3f81b34f	1.0132846
23	0x3f75126a	0.9573122
24	0x3f73670b	0.95079106
25	0x3f777084	0.9665606
26	0x3f62ddc8	0.8861966
27	0x3f751aca	0.95744
28	0x3f6e618d	0.931176
29	0x3f716fa3	0.9431097
30	0x3f6af215	0.9177564
31	0x3f6b9fc0	0.92040634
32	0x3f6d3c8d	0.9267052
33	0x3f6d800b	0.92773503
34	0x3f779511	0.9671183
35	0x3f74ca74	0.9562142
36	0x3f623243	0.88357943
37	0x3f7e31e2	0.99294865
38	0x3f5ee8dc	0.87074065
39	0x3f6fc8fe	0.93666065
40	0x3f750e09	0.9572454
41	0x3f639e47	0.8891339
42	0xbbe3a4f4	-0.006947154
43	0xbcc71e63	-0.024306482
44	0x3cbe6a81	0.023244144
45	0xbc93fc57	-0.018064661
46	0xbccfdcf9	-0.025373923
47	0xba239361	-0.0006239918
48	0x3ba58771	0.0050515463
49	0xbccfb803	-0.025356298
50	0xbb28e673	-0.0025772124
51	0xbc2c2ecf	-0.010509207
52	0xbba01dff	-0.0048863883
53	0xbc8be1de	-0.017075475
54	0x3c8ca416	0.017168086
55	0x3a4acd2a	0.00077362603
56	0xbb4753e9	-0.0030415005
57	0x3a242116	0.00062610337
58	0x3cd80b74	0.026372649
59	0x3cd65248	0.026162282
60	0x3c2f8987	0.010713941
61	0x3b58730d	0.003302756
62	0x3bfd4957	0.00772969
63	0xbe0705ee	-0.13185856
64	0xbde944ae	-0.11390053
65	0xbdf5f1a1	-0.12008978
66	0xbe347560	-0.176229
67	0xbe06c9a6	-0.1316286
68	0xbe3e0857	-0.18557869
69	0xbdc5ec5f	-0.09664225
70	0xbe6a2a9a	-0.22867814
71	0xbdf9dff4	-0.12200919
72	0xbe5ac2d9	-0.21363391
73	0xbe4769ea	-0.19473997
74	0xbe11ac05	-0.14225776
75	0xbe1ceb29	-0.15324081
76	0xbdc6a7e0	-0.09699988
77	0xbdcf5ef5	-0.101255335
78	0xbe607c26	-0.21922359
79	0xbe0a1a15	-0.13486512
80	0xbe77f072	-0.24212816
81	0xbdd08c18	-0.10182971
82	0xbdd9ffb0	-0.10644472
83	0xbe1fdd2c	-0.15611714

model_3/dense_5/MatMul f4 [4, 840]
0	0x3c33b412	0.010968225
1	0x3d2cc16f	0.04217666
2	0x3c9b47b8	0.018955097
3	0x3ce2874a	0.027652401
4	0xbc01f5f8	-0.007932179
5	0x3ccd16b5	0.025035242
6	0x3c0e21aa	0.008675018
7	0x3bc45708	0.0059918202
8	0x3cb68d2a	0.02228411
9	0xbcaf7127	-0.02141626
10	0xbc32b382	-0.010907056
11	0xbd183d41	-0.03716779
12	0xbc0c2b9b	-0.008555318
13	0x3cf6aff0	0.03011319
14	0xbcc4b66e	-0.02401277
15	0xbbc90b95	-0.006135414
16	0xbcdd71a0	-0.02703172
17	0x3ce9163c	0.028452985
18	0x3ca7316d	0.02040931
19	0xbcf1a93e	-0.029499646
20	0xbc8d9a01	-0.017285349
21	0x3bfc9b78	0.007708963
22	0x3b453de5	0.0030096706
23	0xbbcc63a8	-0.006237466
24	0x3c0f58ba	0.008749181
25	0x3c4289d3	0.01187368
26	0x3cc12e31	0.023581596
27	0xbc24bfe9	-0.010055521
28	0x3bb90822	0.0056467215
29	0x3c58f67f	0.013242363
30	0x3c8fac48	0.017538205
31	0x3c401f62	0.011726232
32	0x3c729862	0.014806839
33	0xbc1d8c93	-0.009616035
34	0x3c5bdd53	0.013419467
35	0x3bf52699	0.007481408
36	0xbc6374cd	-0.013882828
37	0xbbfaaaf8	-0.0076497756
38	0xbc2095e0	-0.009801358
39	0xbbfbee81	-0.007688344
40	0xbc1786e6	-0.009248471
41	0xbc90dabf	-0.017682431
42	0x3c97c268	0.018525317
43	0x3d086733	0.033301543
44	0x3cd143ee	0.025545087
45	0x3c8a3b86	0.016874086
46	0xbb804693	-0.003914663
47	0x3d152a1e	0.03641712
48	0x3b711b5b	0.0036789987
49	0xbc0766db	-0.008264269
50	0xbaf3ee81	-0.0018610508
51	0xbc64f964	-0.013975475
52	0xbcab08b0	-0.020878166
53	0xbd27bc8e	-0.040951304
54	0xbc07b11a	-0.00828197
55	0x3cf9d238	0.030495748
56	0xbca91148	-0.020638123
57	0x3ccb24bf	0.024797795
58	0xbaf202bb	-0.0018463949
59	0x3bd3320e	0.006445176
60	0x3cafeeea	0.021476228
61	0xbcd83dd3	-0.026396668
62	0xbcd15d57	-0.025557203
63	0x3c45e1e7	0.012077785
64	0x3b5519bd	0.0032516562
65	0xbc1bf6b2	-0.009519266
66	0x3c3e293a	0.011606509
67	0x3c08f8aa	0.008360067
68	0x3c4b820f	0.012421145
69	0xbc77de96	-0.015128752
70	0x3c7a56bc	0.015279468
71	0x3c6faf62	0.014629217
72	0x3c348a6c	0.0110193305
73	0x3b9e6c1f	0.0048346664
74	0x3b9664b0	0.0045896396
75	0xbc7a7426	-0.015286481
76	0x3c741bf5	0.014899244
77	0x3c65a81a	0.014017129
78	0xbc2e8a87	-0.010653145
79	0xbba9847c	-0.005173264
80	0xbc8e8d0e	-0.017401244
81	0xbca7f664	-0.02050323
82	0xbc341aa0	-0.010992676
83	0xbc954e4c	-0.018225811
84	0x3ab8093f	0.0014040841
85	0x3ccff947	0.02538742
86	0x3c40094f	0.011720969
87	0x3c8cafaa	0.017173607
88	0xbc3e05f6	-0.011598101
89	0x3c81233e	0.015763875
90	0x3c9071d7	0.017632408
91	0x3c290859	0.010316932
92	0x3c640bf8	0.013918869
93	0xbc5825a6	-0.01319257
94	0xbcce2c69	-0.02516766
95	0xbd21ad74	-0.03947206
96	0xbd0843a6	-0.03326764
97	0x3c766133	0.015037823
98	0xbc6bd605	-0.014394288
99	0x3cb3c4b5	0.021944383
100	0xbd009da6	-0.031400345
101	0x3c5c88ca	0.013460347
102	0x3cd5f55a	0.02611797
103	0xbc9045c5	-0.017611394
104	0xbc670f29	-0.014102736
105	0x3c3b3c31	0.011427925
106	0x3bd05eab	0.0063589416
107	0xbb764e5e	-0.0037583332
108	0x3c1fae1d	0.009746102
109	0x3c57d1df	0.013172596
110	0x3c95cca0	0.01828605
111	0xbc54dcb1	-0.01299207
112	0x3c55f51f	0.01305893
113	0x3c1fa5cc	0.009744119
114	0x3c930902	0.017948631
115	0x3c565015	0.0130806165
116	0x3c5c3471	0.013440237
117	0xbc3498ab	-0.011022727
118	0x3c663aca	0.014052102
119	0x3c018ac4	0.007906619
120	0xbc7cb83c	-0.015424784
121	0xbbb68b84	-0.005570831
122	0xbc90d796	-0.017680924
123	0xbc31cce3	-0.010852071
124	0xbc49e563	-0.012322756
125	0xbc1a8ed8	-0.009433471
126	0x3ca7f276	0.020501357
127	0x3cd140e1	0.025543632
128	0x3ca0542b	0.019571384
129	0x3cacf721	0.021113934
130	0xbc494968	-0.012285568
131	0x3cebdc59	0.028791593
132	0x3cabafd3	0.020957863
133	0xbc03fcac	-0.008055847
134	0x3c832100	0.016006947
135	0xbc9ea0d3	-0.019363796
136	0xbbbdc0b4	-0.0057907943
137	0xbcb93fbb	-0.022613397
138	0xbc046459	-0.008080565
139	0x3cc4578f	0.023967532
140	0xbc409479	-0.011754149
141	0x3cd4bbab	0.025968393
142	0xbc3d92e7	-0.011570669
143	0x3c315ff9	0.010826104
144	0x3c5beff0	0.013423905
145	0xbcb495f8	-0.022044167
146	0xbc3f9e77	-0.011695496
147	0x3c302414	0.010750789
148	0x3ba850bf	0.005136579
149	0xbc0c27cd	-0.008554411
150	0x3c9a672e	0.018848028
151	0x3c0730e6	0.008251404
152	0x3c94ffae	0.018188324
153	0xbc569d5b	-0.01309904
154	0x3cab2a3e	0.020894166
155	0x3c5bcaf9	0.013415092
156	0x3c8ab4bd	0.016931886
157	0x3c961c8a	0.018324155
158	0x3c6f679e	0.014612107
159	0xbc7e1757	-0.015508494
160	0x3c717b46	0.014738863
161	0x3c4e1386	0.012577897
162	0xbc069077	-0.008213154
163	0xbc1927ec	-0.009347897
164	0xbca87079	-0.020561444
165	0xbc7703aa	-0.015076557
166	0xbc5114e5	-0.012761329
167	0xbcd547cb	-0.02603521
168	0x3cb64c97	0.022253318
169	0x3cbefb1a	0.023313094
170	0x3cdcb6e2	0.026942674
171	0x3cb48ca1	0.022039713
172	0xbc2f128e	-0.010685576
173	0x3d01a729	0.031653557
174	0x3cd15b0b	0.025556108
175	0x3b5c8441	0.0033648165
176	0x3c9dc2fe	0.019258019
177	0xbc5a7c65	-0.013335322
178	0xbc23f77b	-0.010007734
179	0xbd042169	-0.032258425
180	0xbcb6228d	-0.022233272
181	0x3cbbf967	0.022946073
182	0xbca66db5	-0.020315984
183	0x3b99a0e3	0.0046883686
184	0xbc4d3cff	-0.01252675
185	0x3c4e9ec7	0.012611098
186	0x3c758563	0.014985415
187	0xbc9cf65d	-0.019160444
188	0xbd16407c	-0.03668259
189	0x3c3f8351	0.011689023
190	0x3c020adf	0.007937162
191	0xbb870a41	-0.0041210954
192	0x3c2e8c23	0.010653528
193	0x3c46384e	0.012098385
194	0x3cab86b0	0.020938247
195	0xbc705892	-0.014669554
196	0x3c84b5da	0.016199995
197	0x3ce320e1	0.027725639
198	0x3cb1fc4e	0.021726754
199	0x3c872331	0.016496273
200	0x3c606439	0.01369577
201	0xbc3b41b2	-0.011429237
202	0x3c84fd70	0.01623413
203	0x3c866e18	0.016409919
204	0xbc9b74df	-0.018976627
205	0xbbe3a964	-0.006947683
206	0xbc6bfd81	-0.014403702
207	0xbc86c63d	-0.01645195
208	0xbc35f0cd	-0.011104775
209	0xbcd200d7	-0.025635166
210	0x3c940466	0.018068504
211	0x3d2c8326	0.04211726
212	0x3cb501ac	0.022095524
213	0x3cf20820	0.02954489
214	0xbcab165d	-0.020884687
215	0x3d0187c6	0.031623624
216	0x3cc290b4	0.02375064
217	0x3ca35873	0.019939637
218	0x3c73f383	0.014889601
219	0xbc9d0091	-0.01916531
220	0xbc3cac13	-0.011515635
221	0xbcb1c7e2	-0.021701757
222	0xbc91f487	-0.017816795
223	0x3cb18745	0.021670947
224	0xbcba47f2	-0.022739384
225	0x3c84c79e	0.016208466
226	0xbc94a52d	-0.018145168
227	0x3c82eeee	0.015983071
228	0x3b87e2ee	0.004146925
229	0xbcb690ba	-0.022285808
230	0xba9d2219	-0.0011988311
231	0x3c966441	0.018358352
232	0x3bbad1ab	0.005701264
233	0xbbe2f7f1	-0.0069265296
234	0x3c27c460	0.010239691
235	0x3c46b566	0.01212821
236	0x3cb29de5	0.021803806
237	0xbc4717c8	-0.012151666
238	0x3c367535	0.011136343
239	0x3c837079	0.016044842
240	0x3c63bc42	0.013899865
241	0x3c83a0d1	0.016067894
242	0x3baa36ee	0.0051945364
243	0xbc81157f	-0.01575732
244	0x3cd348b8	0.025791511
245	0x3ca32d75	0.019919137
246	0xbc8b51d4	-0.017006792
247	0xbc187f99	-0.009307765
248	0xbc0980d3	-0.0083925305
249	0xbc8df7ad	-0.017330015
250	0xbc5a6ad2	-0.013331132
251	0xbc93a15e	-0.018021282
252	0x3c560aa3	0.013064059
253	0x3c6551f6	0.013996592
254	0x3cc5e129	0.024155216
255	0x3c827c85	0.015928516

model_3/bidirectional_3/backward_lstm_3/Read_2/ReadVariableOp1 f4 [84]
0	0xbe252757	-0.16128288
1	0xbdff7cda	-0.124749854
2	0xbde8df7c	-0.11370751
3	0xbe556ca8	-0.2084223
4	0xbdf9791a	-0.121813014
5	0xbe53b073	-0.20672779
6	0xbdc5dde9	-0.09661467
7	0xbe74713a	-0.23871318
8	0xbe14a546	-0.14516172
9	0xbe4d5440	-0.2005167
10	0xbe57093d	-0.20999618
11	0xbe1ed65a	-0.15511456
12	0xbe20081e	-0.15628096
13	0xbdd90dca	-0.10598333
14	0xbe072ff2	-0.13201883
15	0xbe615e5a	-0.22008649
16	0xbe05230f	-0.13001655
17	0xbe8ac3aa	-0.27102405
18	0xbded85a9	-0.11597759
19	0xbde7d8da	-0.11320658
20	0xbe4c24b8	-0.19935882
21	0x3f7b5268	0.98172617
22	0x3f81b34f	1.0132846
23	0x3f75126a	0.9573122
24	0x3f73670b	0.95079106
25	0x3f777084	0.9665606
26	0x3f62ddc8	0.8861966
27	0x3f751aca	0.95744
28	0x3f6e618d	0.931176
29	0x3f716fa3	0.9431097
30	0x3f6af215	0.9177564
31	0x3f6b9fc0	0.92040634
32	0x3f6d3c8d	0.9267052
33	0x3f6d800b	0.92773503
34	0x3f779511	0.9671183
35	0x3f74ca74	0.9562142
36	0x3f623243	0.88357943
37	0x3f7e31e2	0.99294865
38	0x3f5ee8dc	0.87074065
39	0x3f6fc8fe	0.93666065
40	0x3f750e09	0.9572454
41	0x3f639e47	0.8891339
42	0xbbe3a4f4	-0.006947154
43	0xbcc71e63	-0.024306482
44	0x3cbe6a81	0.023244144
45	0xbc93fc57	-0.018064661
46	0xbccfdcf9	-0.025373923
47	0xba239361	-0.0006239918
48	0x3ba58771	0.0050515463
49	0xbccfb803	-0.025356298
50	0xbb28e673	-0.0025772124
51	0xbc2c2ecf	-0.010509207
52	0xbba01dff	-0.0048863883
53	0xbc8be1de	-0.017075475
54	0x3c8ca416	0.017168086
55	0x3a4acd2a	0.00077362603
56	0xbb4753e9	-0.0030415005
57	0x3a242116	0.00062610337
58	0x3cd80b74	0.026372649
59	0x3cd65248	0.026162282
60	0x3c2f8987	0.010713941
61	0x3b58730d	0.003302756
62	0x3bfd4957	0.00772969
63	0xbe0705ee	-0.13185856
64	0xbde944ae	-0.11390053
65	0xbdf5f1a1	-0.12008978
66	0xbe347560	-0.176229
67	0xbe06c9a6	-0.1316286
68	0xbe3e0857	-0.18557869
69	0xbdc5ec5f	-0.09664225
70	0xbe6a2a9a	-0.22867814
71	0xbdf9dff4	-0.12200919
72	0xbe5ac2d9	-0.21363391
73	0xbe4769ea	-0.19473997
74	0xbe11ac05	-0.14225776
75	0xbe1ceb29	-0.15324081
76	0xbdc6a7e0	-0.09699988
77	0xbdcf5ef5	-0.101255335
78	0xbe607c26	-0.21922359
79	0xbe0a1a15	-0.13486512
80	0xbe77f072	-0.24212816
81	0xbdd08c18	-0.10182971
82	0xbdd9ffb0	-0.10644472
83	0xbe1fdd2c	-0.15611714

while/MatMul_11 f4 [84, 21]
0	0xbebedad2	-0.37276322
1	0xbec27537	-0.37980053
2	0x3e52a1ca	0.2056953
3	0xbe0e8678	-0.13918483
4	0xbe54c828	-0.20779479
5	0xbc95da2c	-0.018292509
6	0x3e8efef6	0.27928895
7	0xbe9b69d1	-0.3035417
8	0xbd286b2b	-0.04111783
9	0xbe5bfc67	-0.21483003
10	0xbe7191b9	-0.23590745
11	0xbe871acd	-0.26387635
12	0x3e712899	0.23550643
13	0xbdea0b34	-0.11427918
14	0xbd7c0c55	-0.0615352
15	0x3e67f730	0.22652888
16	0x3eed188f	0.463078
17	0x3e904e76	0.2818486
18	0xbc401ce0	-0.011725634
19	0x3e371c07	0.17881785
20	0xbd28a5a5	-0.041173596
21	0xbe2adabd	-0.16685005
22	0xbe1a42b2	-0.15064505
23	0x3f0933b6	0.5359453
24	0xbe24cce7	-0.16093789
25	0xbec4fe47	-0.38475248
26	0xbe52f2c8	-0.20600426
27	0x3ecfdf5a	0.4060009
28	0xbe7cb94e	-0.24680063
29	0x3e0a3148	0.13495362
30	0xbea01beb	-0.312713
31	0xbd7cf236	-0.061754428
32	0xbe27328c	-0.16327876
33	0x3ec52488	0.38504434
34	0x3d8ec3b6	0.06970923
35	0xbe4a35f3	-0.19747142
36	0x3e80ec68	0.25180364
37	0x3f0fe723	0.5621206
38	0x3e30e99b	0.17276613
39	0x3d5ac67d	0.05341195
40	0xbdde6c10	-0.10860455
41	0x3ddb9b2d	0.10722957
42	0xbd8aba56	-0.06773822
43	0xbeafb032	-0.34314114
44	0x3e483c87	0.1955434
45	0x3d815207	0.063144736
46	0xbebd2feb	-0.3695062
47	0xbcd6b088	-0.026207224
48	0x3e17b841	0.14816381
49	0xbebc0556	-0.3672282
50	0xbdd98a5f	-0.10622095
51	0xbe1e017b	-0.15430252
52	0xbe4b9528	-0.19881117
53	0xbe6c813d	-0.23096175
54	0x3e5b347a	0.21406737
55	0xbd1e7ebc	-0.038695082
56	0x3c0c4389	0.0085610235
57	0x3af7af39	0.0018896825
58	0x3ea0dbdf	0.31417748
59	0x3e5323c8	0.20619118
60	0xbc68fd53	-0.014220553
61	0xbda6596a	-0.08122523
62	0x3e36de82	0.17858317
63	0x3c5f5215	0.01363041
64	0xbe6cf9cd	-0.23142166
65	0x3f00fef8	0.5038905
66	0xbea94cb6	-0.33066338
67	0xbe588984	-0.21146208
68	0xbe788e56	-0.24273047
69	0x3e4ca92f	0.19986413
70	0xbe1d647c	-0.15370363
71	0x3bc297b5	0.005938495
72	0xbd08fb35	-0.033442695
73	0x3d3f961a	0.046774007
74	0xbe85fdab	-0.26170096
75	0x3ded48e8	0.115861714
76	0xbdc41034	-0.09573403
77	0x3dc5c037	0.09655803
78	0x3db641a1	0.088992365
79	0x3eb4ba89	0.35298565
80	0x3e5123ff	0.20423888
81	0xbbf51a91	-0.0074799736
82	0x3e65eca1	0.22453548
83	0xbcf5b9e4	-0.029995866
84	0xbda19640	-0.07889986
85	0xbd826ca8	-0.06368381
86	0x3e413ae8	0.18870127
87	0xbde8493a	-0.11342092
88	0xbef19ec0	-0.4719143
89	0x3e4361c4	0.19080263
90	0x3e20530c	0.1565668
91	0xbe2c08f5	-0.16800292
92	0xbcd5c606	-0.026095401
93	0xbc1dc04f	-0.0096283695
94	0xbc556afa	-0.0130259935
95	0xbe38853b	-0.18019573
96	0x3c8c5411	0.01712993
97	0xbda4609f	-0.080262415
98	0xbe2a26f8	-0.16616428
99	0x3d991905	0.07475475
100	0x3e959a6e	0.29219383
101	0x3e540407	0.20704661
102	0x3dba2317	0.09088724
103	0xbca91f0e	-0.02064469
104	0x3ced6a2e	0.028981294
105	0xbec55f52	-0.38549286
106	0xbe78c8ac	-0.242953
107	0x3ef8d3b0	0.48599005
108	0xbe4384ba	-0.190936
109	0xbeaed34a	-0.34145576
110	0xbdbbe4de	-0.09174512
111	0x3d52cdcb	0.05146579
112	0xbe5810ff	-0.21100233
113	0xbdd0bcc8	-0.10192257
114	0xbdde68c6	-0.10859828
115	0xbe32d8f9	-0.17465581
116	0xbeba2c3a	-0.36361867
117	0x3eac30a2	0.33630854
118	0x3cfb4a22	0.030674998
119	0xbd07e849	-0.03318051
120	0x3e53751e	0.20650145
121	0x3e8428ac	0.2581228
122	0x3db61e2d	0.08892474
123	0xbc4cdc5a	-0.012503708
124	0x3ddb4edc	0.107084006
125	0x3d895ce6	0.06707172
126	0x3d406db0	0.046979606
127	0xbe53c027	-0.20678769
128	0x3e38c43e	0.1804361
129	0xbdbc20e8	-0.09185964
130	0xbea48e48	-0.32139802
131	0x3df57a07	0.119861655
132	0x3d9c7bbe	0.076407894
133	0xbdc61ddd	-0.09673665
134	0xbddab67d	-0.10679338
135	0xbd996cb9	-0.0749144
136	0x3cd107d5	0.02551643
137	0xbe2d8cbd	-0.16948219
138	0x3e9f8ff8	0.31164527
139	0x3e821b18	0.25411296
140	0xbd5f2f84	-0.054488674
141	0x3e626ce3	0.2211185
142	0x3d9182f0	0.071050525
143	0x3deeaf39	0.11654515
144	0x3d3ab464	0.04558219
145	0x3d8456e8	0.064618886
146	0xbd8e8c6b	-0.06960376
147	0xbd2f09de	-0.04273402
148	0xbe7f32db	-0.24921744
149	0x3ecd9be5	0.40158
150	0xbbb741c7	-0.005592558
151	0xbe6dd7f9	-0.23226918
152	0x3d41a468	0.04727593
153	0x3dfb1205	0.12259296
154	0xbdc826e4	-0.09773043
155	0x3a8212e1	0.0009923839
156	0xbd7366d1	-0.059424225
157	0x3e6906a7	0.22756444
158	0xbe9e857a	-0.3096121
159	0x3ebe5f01	0.37181857
160	0xbe80fb09	-0.25191525
161	0xbc8110a8	-0.015755013
162	0x3e82cb95	0.25545946
163	0x3ebb83f0	0.36624098
164	0x3e97ad6d	0.296245
165	0x3e2bc07b	0.16772644
166	0x3d108ed6	0.03529247
167	0xbd8ef2fe	-0.06979941
168	0xbdcaef3a	-0.0990891
169	0xbea3ab2a	-0.31966525
170	0x3e8d9807	0.2765505
171	0xbe5fee3f	-0.21868227
172	0xbdd3d55d	-0.1034343
173	0x3e3fc45f	0.18727253
174	0xbddde798	-0.108351886
175	0xbe062f29	-0.13103928
176	0xbc61ca71	-0.013781176
177	0xbca2befc	-0.01986646
178	0xbe3eb907	-0.1862527
179	0xbe44617a	-0.1917781
180	0x3e776772	0.24160555
181	0xbdd75e75	-0.10516063
182	0xbd714390	-0.058902323
183	0x3e672d63	0.22575907
184	0x3e667bea	0.22508207
185	0x3e88ed78	0.26743674
186	0xbd7457de	-0.05965411
187	0x3c806771	0.015674325
188	0xbd9036e2	-0.07041718
189	0x3d187dc7	0.037229326
190	0xbe6d99eb	-0.23203246
191	0x3ecb8ec5	0.39757362
192	0xbe2032e5	-0.15644415
193	0xbe176107	-0.14783107
194	0x3df900dd	0.12158368
195	0x3e9a6710	0.30156755
196	0x3d60eaa5	0.054911274
197	0xbe11789c	-0.14206165
198	0xbe7c0924	-0.24612862
199	0xbe13b8a8	-0.1442591
200	0x3d64eff2	0.055892892
201	0x3ea0076f	0.3125567
202	0x3dc819ec	0.09770569
203	0xbda35543	-0.07975247
204	0x3c49120d	0.01227237
205	0x3e8520ef	0.2600169
206	0x3e1cad62	0.15300515
207	0x3ddf2441	0.10895587
208	0xbd53f11e	-0.05174362
209	0x3dc1ee11	0.09469236
210	0xbe96b163	-0.2943221
211	0xbd78f8bf	-0.060784098
212	0x3e289fdb	0.1646723
213	0xbe8672a7	-0.26259348
214	0xbef60e1b	-0.48057637
215	0xbe8ee717	-0.27910683
216	0x3e130c73	0.14360218
217	0xbdec5fee	-0.11541735
218	0x3d290dd4	0.041272953
219	0x3c2bc597	0.010484121
220	0xbdb01359	-0.0859744
221	0xbe6ef1bb	-0.233344
222	0x3ef73163	0.48279867
223	0xbdae9c38	-0.0852589
224	0xbe73e172	-0.2381647
225	0x3e0e35e5	0.13887747
226	0x3eb94bac	0.36190546
227	0x3e5efc40	0.21775913
228	0x3e19150a	0.14949432
229	0x3e58636c	0.21131676
230	0xbcbd312b	-0.023094734
231	0xbe17278b	-0.14761178
232	0xbdde24f7	-0.10846894
233	0x3ee0739a	0.43838197
234	0xbeafb773	-0.34319648
235	0xbe94eeb6	-0.29088372
236	0xbd7af182	-0.061265476
237	0x3d856d34	0.065149695
238	0xbcb7b042	-0.022422913
239	0xbc240ec1	-0.010013283
240	0xbcdffb55	-0.027341524
241	0xbd81143c	-0.063026875
242	0xbdc63e94	-0.096799046
243	0x3e8ae42e	0.27127212
244	0xbdf02715	-0.11726204
245	0xbdc52a15	-0.09627167
246	0x3dbbe452	0.09174408
247	0x3e7315fe	0.23738858
248	0x3ed9e407	0.42556784
249	0x3e09ff8d	0.13476391
250	0x3e3a8028	0.1821295
251	0xbe09c8bf	-0.13455485
252	0xbe22a8c4	-0.15884691
253	0xbe14bc8c	-0.1452505
254	0x3ec3243c	0.38113582
255	0xbeb37d72	-0.35056645

while/MatMul f4 [84, 32]
0	0xbe36755a	-0.17818204
1	0x3e1c79b2	0.15280798
2	0x3d737c17	0.059444513
3	0xbe05c41a	-0.13063088
4	0xbddd922f	-0.10818898
5	0xbe8686f8	-0.26274848
6	0xbee63ea9	-0.4496968
7	0x3dca8250	0.098881364
8	0x3e4a1344	0.19733912
9	0xbd625fbd	-0.055267084
10	0xbdc07e04	-0.093990356
11	0xbde307c0	-0.110854626
12	0xbd6b2633	-0.057409476
13	0xbccd1ef0	-0.025039166
14	0xbf1ac0cd	-0.6045044
15	0xbe8f95de	-0.28044027
16	0xbeaf1e8c	-0.34202993
17	0xbd8c544c	-0.06852016
18	0xbe9aacc9	-0.3020995
19	0xbe2f19c0	-0.17099667
20	0x3d6bf7a2	0.057609208
21	0x3d154533	0.036442947
22	0x3d6cd1a3	0.057817113
23	0xbd81a96d	-0.063311435
24	0xbe908b6d	-0.28231373
25	0xbd99f5af	-0.075175636
26	0xbea444fc	-0.3208388
27	0x3dfd3266	0.12363128
28	0x3e1b3e85	0.15160568
29	0x3d9a7a44	0.075428516
30	0xbd429594	-0.04750593
31	0xbe9b326b	-0.30311903
32	0xbf065758	-0.52477026
33	0xbec52e23	-0.38511762
34	0x3eb57f38	0.35448623
35	0x3db9d14d	0.09073124
36	0xbcba6120	-0.022751391
37	0x3de9b797	0.1141197
38	0xbec803cb	-0.39065394
39	0x3c3f0f41	0.011661352
40	0xbdb17f34	-0.0866684
41	0x3d2b937b	0.041888695
42	0xbe09a82c	-0.13443059
43	0xbed38cb2	-0.4131828
44	0xbe8b6c74	-0.2723118
45	0xbd34fba4	-0.044185296
46	0xbe86a70e	-0.26299328
47	0xbec55f6b	-0.3854936
48	0xbed58132	-0.4170013
49	0x3dec5e30	0.11541402
50	0xbee5f8eb	-0.44916472
51	0xbe847d31	-0.25876763
52	0x3e9301ab	0.2871221
53	0xbed18868	-0.40924382
54	0xbf0c4531	-0.5479308
55	0xbd96aaaa	-0.0735677
56	0xbdce6063	-0.10076978
57	0xbe19a1ee	-0.15003178
58	0xbe27e45d	-0.16395707
59	0xbc267fad	-0.010162276
60	0xbd251a42	-0.040308245
61	0x3d505265	0.050859828
62	0x3e20794e	0.15671274
63	0xbeda8cdc	-0.42685592
64	0xbe0c07c4	-0.13674837
65	0xbd33be61	-0.04388273
66	0x3dcb04b7	0.09913009
67	0xbb5f8135	-0.0034104113
68	0xbea7915b	-0.32728085
69	0xbe0513fe	-0.12995908
70	0xbdba6ed1	-0.09103168
71	0x3dd10c99	0.10207481
72	0xbe558196	-0.20850214
73	0x3e6e8185	0.23291595
74	0xbc0243c0	-0.007950723
75	0xbe87db46	-0.2653448
76	0xbeaf79f6	-0.34272736
77	0x3d445a68	0.04793778
78	0xbe9aa221	-0.3020182
79	0xbd876e77	-0.06612866
80	0xbe4091ef	-0.18805669
81	0x3e3586f4	0.17727262
82	0x3cdb0cc6	0.02673949
83	0xbeb81923	-0.35956678
84	0x3ead4c89	0.33847454
85	0xbe5d5d9f	-0.21617745
86	0xbecd23bf	-0.40066335
87	0x3dbe85a5	0.093028344
88	0xb994f508	-0.00028411322
89	0xbe784d70	-0.2424829
90	0xbdbafe3c	-0.091305226
91	0x3dc23855	0.09483401
92	0xbe62035e	-0.22071597
93	0x3e369a4e	0.178323
94	0xbd622682	-0.055212505
95	0xbc968b19	-0.018376874
96	0xbeb37253	-0.3504816
97	0xbe99794d	-0.29975358
98	0x3e2d1c0a	0.16905227
99	0x3e0b9a7b	0.13633148
100	0xbcfd4539	-0.030916797
101	0x3c9d7403	0.019220358
102	0xbe9f7ea4	-0.31151307
103	0xbe648fc2	-0.22320464
104	0xbe50a380	-0.2037487
105	0x3e9804bf	0.2969112
106	0x3caa4680	0.02078557
107	0xbee5bd7e	-0.44871134
108	0xbeb6144a	-0.35562354
109	0x3ddea8e4	0.10872057
110	0xbe88a508	-0.2668841
111	0xbe0512f8	-0.12995517
112	0xbe6f4c57	-0.23368965
113	0x3dc968b0	0.09834421
114	0x3d593da7	0.053037312
115	0xbe8d3941	-0.27582744
116	0x3e82fa62	0.25581652
117	0x3deeec5f	0.11666178
118	0xbe847527	-0.2587063
119	0xbc8ed873	-0.017437195
120	0xbe3bfe4e	-0.18358728
121	0xbe237008	-0.15960705
122	0xbd5db381	-0.054126266
123	0xbd2fa1c6	-0.04287889
124	0xbbb175d0	-0.0054156557
125	0x3d64bdfd	0.05584525
126	0x3dc7d9b4	0.097583205
127	0xbe9f2bcc	-0.31088102
128	0xbec597ef	-0.3859248
129	0xbe3f3670	-0.1867311
130	0x3dd37519	0.10325069
131	0xbde8f7b7	-0.11375373
132	0xbe5b5d2d	-0.21422262
133	0x3e337345	0.1752444
134	0xbe8f7337	-0.2801759
135	0xbe4d9d6e	-0.20079586
136	0x3d91c988	0.07118517
137	0x3e757879	0.23971738
138	0xbe670653	-0.22561006
139	0xbe857cc3	-0.26071748
140	0x3cfa21cf	0.0305337
141	0x3d658920	0.056038976
142	0x3d5b2b12	0.053507872
143	0xbe704a6a	-0.23465887
144	0xbdd2446e	-0.10266958
145	0xbc54d3b0	-0.012989923
146	0xbe6f3759	-0.23360957
147	0xbec0de20	-0.37669468
148	0xbd2cce07	-0.04218867
149	0x3d9b3881	0.07579137
150	0xbe721c00	-0.23643494
151	0x3d3a0bad	0.04542129
152	0xbd9c5dc0	-0.07635069
153	0xbe979d84	-0.29612362
154	0x3d9ccda0	0.07656407
155	0xbd760e31	-0.060072128
156	0x3c7c8e0b	0.015414725
157	0x3d6a5a65	0.057215113
158	0xbe3db597	-0.18526302
159	0xbea913e9	-0.33023003
160	0xbed713af	-0.42007205
161	0xbe93201b	-0.28735432
162	0xbe11f7e0	-0.14254713
163	0xbe908313	-0.28225002
164	0x3c73d5eb	0.014882545
165	0xbdbb3d87	-0.09142595
166	0xbdb86c21	-0.09004999
167	0x3bd12a22	0.0063831965
168	0xbe5f4d48	-0.21806824
169	0xbe5f8f8b	-0.21832101
170	0x3e2c8944	0.16849238
171	0xbf061ae1	-0.52384764
172	0xbed2d1e8	-0.4117577
173	0xbd59ab74	-0.053142026
174	0xbe9aa72c	-0.30205667
175	0xbe525e26	-0.20543727
176	0xbedb867f	-0.4287605
177	0x3e3e54c0	0.18587017
178	0xbe82ee59	-0.2557247
179	0xbe82ee0d	-0.25572243
180	0x3e0f3afc	0.13987345
181	0xbdb935ea	-0.090434864
182	0xbd395496	-0.045246683
183	0x3d41696b	0.047219675
184	0xbc962e29	-0.018332558
185	0xbea8cb6e	-0.32967705
186	0xbe8a0874	-0.26959574
187	0xbddd34ed	-0.108011104
188	0xbda53dbf	-0.08068418
189	0xbe90a8bd	-0.28253737
190	0xbe436d56	-0.19084677
191	0xbed7e84a	-0.4216941
192	0xbe939175	-0.28821912
193	0xbdacfeb8	-0.08447021
194	0xbd5573bf	-0.052112337
195	0x3d8ac1a3	0.067752145
196	0xbd4cbdeb	-0.049985807
197	0xbe81169c	-0.25212562
198	0xbec4456e	-0.3833422
199	0xbe8bbdc3	-0.27293214
200	0x3e06a5ca	0.13149181
201	0x3e86a916	0.26300877
202	0x3e2b8082	0.1674824
203	0xbe52bbd7	-0.20579468
204	0xbe94a968	-0.29035497
205	0xbe053894	-0.13009864
206	0x3c3d6677	0.011560074
207	0xbc5a370c	-0.013318788
208	0xbea302e8	-0.31838155
209	0x3d84edac	0.06490645
210	0x3dbfa803	0.093582176
211	0xbe227d62	-0.15868142
212	0xbdf45b18	-0.11931437
213	0xbd741454	-0.0595897
214	0xbd2372b5	-0.039904315
215	0xbdffbdba	-0.12487359
216	0x3e32f12c	0.17474812
217	0x3dcb2ac7	0.099202685
218	0xbec0e69d	-0.37675944
219	0xbe65f4b3	-0.22456627
220	0xbdf52e5a	-0.119717315
221	0x3b5a7464	0.0033333534
222	0x3e113fbe	0.14184472
223	0xbe0f19b2	-0.13974646
224	0xbf046972	-0.51723397
225	0xbf0fee5f	-0.562231
226	0xbc325f00	-0.010886908
227	0xbe6b0378	-0.22950542
228	0xbe880897	-0.26569054
229	0xbea0c830	-0.3140273
230	0xbe9a5502	-0.3014298
231	0xbcdc86f9	-0.026919829
232	0x3e1840d0	0.14868474
233	0x3e4d321b	0.20038645
234	0x3d68f520	0.056874394
235	0xbe40ecad	-0.18840285
236	0xbe4f5033	-0.20245437
237	0x3c0de160	0.008659691
238	0xbd9492bd	-0.072545506
239	0xbf0448c7	-0.5167355
240	0xbe08bdef	-0.13353704
241	0xbe3dcd46	-0.18535337
242	0xbc8bca81	-0.017064335
243	0xbf20230f	-0.62553495
244	0x3eb007bd	0.34380904
245	0xbdaa0be7	-0.083030514
246	0xbeab0ea9	-0.33409622
247	0xbd2f6e23	-0.042829644
248	0xbdd732ff	-0.105077736
249	0xbecca87e	-0.399723
250	0xbe76ccf5	-0.24101622
251	0xbe67f430	-0.22651744
252	0xbdbf53b0	-0.09342134
253	0xbd88749d	-0.06662867
254	0xbdf1f7fb	-0.11814877
255	0xbf019f43	-0.5063364

model_3/bidirectional_3/forward_lstm_3/Read_2/ReadVariableOp1 f4 [84]
0	0xbe279917	-0.16366993
1	0xbe144afe	-0.14481732
2	0xbe65d75b	-0.22445433
3	0xbe4723e2	-0.19447282
4	0xbe48d2a5	-0.19611605
5	0xbe85f828	-0.2616589
6	0xbe29de95	-0.16588815
7	0xbe38ba2d	-0.1803977
8	0xbde23486	-0.11045174
9	0xbe061cd2	-0.13096932
10	0xbdd509dc	-0.10402271
11	0xbe585e50	-0.21129727
12	0xbe5cbea8	-0.21557105
13	0xbe72ead9	-0.237224
14	0xbe2ea40d	-0.17054768
15	0xbdff93b9	-0.12479348
16	0xbe0998f2	-0.1343725
17	0xbe1c6ece	-0.15276644
18	0xbdd07c5d	-0.101799704
19	0xbe125204	-0.14289099
20	0xbe4b3aba	-0.19846621
21	0x3f5f4ec1	0.87229544
22	0x3f6a9e48	0.9164777
23	0x3f5fb886	0.87390935
24	0x3f5e43aa	0.86822
25	0x3f605b8d	0.87639695
26	0x3f63a795	0.88927585
27	0x3f61802e	0.8808621
28	0x3f66a3bf	0.90093607
29	0x3f6bad87	0.92061657
30	0x3f66b8a8	0.90125513
31	0x3f64ef47	0.8942761
32	0x3f612d58	0.87959814
33	0x3f623eac	0.8837688
34	0x3f5c2705	0.8599704
35	0x3f6515b7	0.8948626
36	0x3f667f2c	0.900378
37	0x3f657608	0.89633226
38	0x3f5d20d1	0.863782
39	0x3f72c544	0.94832253
40	0x3f6033ec	0.87579226
41	0x3f62b6b2	0.8856002
42	0xbd0548db	-0.032540184
43	0xbc44770d	-0.011991275
44	0xbc8396b7	-0.016063077
45	0xbc016204	-0.007896904
46	0x3cf18f09	0.02948715
47	0xbc9bbec5	-0.019011864
48	0xbc28e1bb	-0.010307725
49	0x39bc473d	0.0003591123
50	0xbcbcae7f	-0.023032425
51	0x3c8d7d73	0.017271733
52	0x3c4102bc	0.011780437
53	0x3c465fee	0.012107832
54	0x3c0adfb6	0.008476188
55	0xbbac6969	-0.0052615893
56	0x3c8e9971	0.017407151
57	0xbc0da085	-0.008644228
58	0x3b967090	0.004591055
59	0xbc988b1d	-0.018621022
60	0xbbf7c187	-0.007560912
61	0x3c4f70ee	0.012661202
62	0x3bd3d87f	0.0064650173
63	0xbe0f089f	-0.13968132
64	0xbe104317	-0.14088093
65	0xbe60ea60	-0.21964407
66	0xbe466578	-0.19374645
67	0xbe2831c5	-0.16425236
68	0xbe5229f6	-0.2052382
69	0xbe2c4e14	-0.1682666
70	0xbdfe5eaa	-0.124203995
71	0xbddec225	-0.10876874
72	0xbe13d33e	-0.14436051
73	0xbdc08e7f	-0.09402179
74	0xbe529e5f	-0.20568226
75	0xbe2baeaa	-0.16765848
76	0xbe5b900d	-0.2144167
77	0xbe1f7b51	-0.15574385
78	0xbde22891	-0.11042894
79	0xbda48ddf	-0.08034872
80	0xbe1ffb19	-0.1562313
81	0xbdceec34	-0.10103646
82	0xbdf4876d	-0.11939893
83	0xbe4d463d	-0.20046325

while/MatMul_14 f4 [84, 21]
0	0xbe3e4585	-0.18581207
1	0xbd888275	-0.06665508
2	0xbe8e216b	-0.2775987
3	0xbdd9ee62	-0.10641171
4	0x3ec0de7d	0.37669745
5	0x3dbb0c9d	0.09133265
6	0xbdb23136	-0.087007925
7	0x3e09773d	0.13424392
8	0xbe2c1944	-0.16806513
9	0x3e556ba9	0.2084185
10	0x3e8ebe63	0.2787963
11	0x3dd61c0c	0.10454568
12	0x3ddca22d	0.1077312
13	0x3d1eb3e6	0.038745783
14	0x3d503d79	0.050839875
15	0x3d56ce40	0.05244279
16	0xbdbbb2bc	-0.0916495
17	0xbe29577a	-0.16537276
18	0xbd354e62	-0.044264205
19	0x3e0dfa45	0.13865001
20	0x3e07560a	0.13216415
21	0xbe54d44d	-0.20784111
22	0xbd1a7b58	-0.037715286
23	0xbe22505b	-0.15850966
24	0x3e0abce8	0.13548625
25	0x3d42f208	0.0475941
26	0x3e90a31e	0.2824945
27	0xbddabeae	-0.106809005
28	0x3ce923ac	0.028459392
29	0xbe0f9a55	-0.14023717
30	0x3e0f355e	0.13985202
31	0x3d61995f	0.055077907
32	0x3cf2ae01	0.029623987
33	0x3e2855fd	0.16439052
34	0xbdb2677a	-0.08711143
35	0x3ddc194d	0.10747013
36	0x3a6a4bd0	0.00089376885
37	0x3e2f1915	0.17099412
38	0xbedb2ddb	-0.42808422
39	0xbe1ef66c	-0.1552369
40	0x3dda07a5	0.10645989
41	0xbab20544	-0.0013581892
42	0xbea0d891	-0.31415227
43	0xbe1032e1	-0.14081909
44	0xbde6397d	-0.11241434
45	0xbe36a9d9	-0.17838229
46	0x3e4f4fc1	0.20245267
47	0x3da5ebad	0.08101592
48	0xbdde4998	-0.10853881
49	0x3c81aebf	0.015830396
50	0xbe2d9f99	-0.16955413
51	0x3c5a0bc2	0.013308467
52	0xbdaa85be	-0.083262905
53	0x3e7e87b6	0.24856457
54	0x3d97441e	0.07386039
55	0xbdb2c4d6	-0.0872895
56	0xbde70ae6	-0.112813756
57	0xbe2724c0	-0.16322613
58	0x3e9e82dd	0.30959216
59	0xbebbf3a9	-0.36709335
60	0x3d685f6c	0.056731626
61	0xbca8cc1d	-0.020605141
62	0xbd47fb94	-0.048823908
63	0xbca7ad38	-0.02046834
64	0xbde86294	-0.11346927
65	0xbe4938c5	-0.19650562
66	0x3db76754	0.08955255
67	0x3da3df46	0.080015704
68	0x3c47dca2	0.012198599
69	0xbe600577	-0.21877085
70	0xbe2a0786	-0.16604432
71	0xbe683727	-0.22677289
72	0x3dd65804	0.104660064
73	0x3e93eab5	0.28890005
74	0x3cc8b37c	0.024499647
75	0x3e90b39d	0.28262034
76	0xbc8b07b3	-0.016971445
77	0x3e26ddab	0.16295497
78	0x3de76777	0.11299031
79	0x3ea69213	0.3253332
80	0x3cf12074	0.02943442
81	0xbe618387	-0.2202283
82	0x3ddc66ca	0.10761793
83	0xbd037a02	-0.032098778
84	0xbe13026e	-0.14356396
85	0xbe169473	-0.14705066
86	0xbdcf49c6	-0.10121493
87	0x3dd41562	0.10355641
88	0x3e0e3469	0.1388718
89	0xbdf4df6c	-0.11956677
90	0x3c2f6a82	0.010706546
91	0xbc959f16	-0.018264335
92	0x3dd37879	0.10325713
93	0xbde260cd	-0.110536195
94	0x3d44704c	0.047958657
95	0x3df4cb97	0.11952894
96	0xbe8ca4e7	-0.2746956
97	0xbe85afa8	-0.26110578
98	0x3deb0115	0.11474816
99	0x3e1d6339	0.15369882
100	0x3d07487c	0.03302811
101	0xbe6e950e	-0.23299047
102	0xbe8d6f7f	-0.27624127
103	0xbaa026fd	-0.0012218651
104	0x3d7fd50d	0.06245904
105	0x3d561db5	0.052274425
106	0xbcfd630b	-0.030931016
107	0xbca81dd3	-0.020522034
108	0x3bf01caa	0.007327636
109	0x3e623cc4	0.22093493
110	0x3d8241cd	0.06360207
111	0xbdde50b0	-0.10855234
112	0x3e5cfcbc	0.21580786
113	0xbda6b138	-0.081392705
114	0x3dd66075	0.104676165
115	0x3d7b0126	0.061280392
116	0x3d8c2872	0.06843652
117	0x3c9a3d41	0.018828036
118	0xbdd98a43	-0.106220745
119	0xbe2a1748	-0.16610444
120	0xbe0439b3	-0.12912636
121	0x3e158cd2	0.146045
122	0xbe2efb19	-0.17087974
123	0xbe54d2f8	-0.20783603
124	0xbe422e11	-0.18962885
125	0xbe1be03d	-0.15222259
126	0xbc83dc27	-0.016096188
127	0x3dfd3dfd	0.12365339
128	0xbe0a2504	-0.13490683
129	0x3cd07838	0.02544795
130	0x3e554d4e	0.2083027
131	0xbdd52415	-0.10407273
132	0x3e0c1334	0.136792
133	0x3dccd945	0.100023784
134	0xbe2a8d43	-0.1665545
135	0x3d52c41a	0.05145655
136	0x3cde1e73	0.027114129
137	0x3d28d46b	0.041218203
138	0xbc376ac9	-0.011194893
139	0xbd38cc36	-0.045116626
140	0xbd76e23f	-0.06027436
141	0xbdff407c	-0.12463471
142	0x3e0e7923	0.13913397
143	0xbe8309b4	-0.2559334
144	0x3b8e708c	0.0043469127
145	0x3d654a0c	0.05597882
146	0x3dbb693c	0.09150931
147	0xbda18922	-0.07887484
148	0x3d345ae8	0.044032007
149	0xbd462038	-0.04837057
150	0x3d549429	0.05189911
151	0xbbdf32e9	-0.006811489
152	0x3db9cbf4	0.09072104
153	0xbce0197c	-0.027355902
154	0xbd07d2ad	-0.0331599
155	0x3e0a6dd8	0.13518465
156	0xbe2ca865	-0.16861112
157	0x3d8e1785	0.0693808
158	0xbd2126ab	-0.039343517
159	0x3e050f9a	0.12994233
160	0xbdd3a1ce	-0.10333596
161	0xbd60a74e	-0.054847054
162	0xbe1269e7	-0.14298211
163	0xbe1b467f	-0.15163611
164	0xbd90ea5c	-0.070759505
165	0x3d472efa	0.048628785
166	0xbdc7c2ca	-0.0975395
167	0x3c892d9b	0.01674538
168	0x3d8de2ef	0.0692805
169	0xbe6a9e85	-0.22912033
170	0xbe1f9b97	-0.15586697
171	0xbc830c30	-0.015997022
172	0x3e35f31f	0.17768525
173	0xbd650058	-0.05590853
174	0xbd9bef1a	-0.076139644
175	0xbe401ac0	-0.18760204
176	0xbd3825e3	-0.044958007
177	0x3cafb21e	0.021447238
178	0xbe0e4baf	-0.13896058
179	0x3da2e9fc	0.07954785
180	0xbdb9c5e8	-0.09070951
181	0xbdee91a9	-0.11648876
182	0xbcd2bcef	-0.025724856
183	0xbdd9d3bd	-0.10636089
184	0x3e2bc1b0	0.16773105
185	0xbea8e7e6	-0.32989424
186	0xbe1477b6	-0.14498791
187	0xbd53ce36	-0.05171033
188	0xbdb290a5	-0.08718995
189	0xbe5c47d5	-0.21511777
190	0xbacec184	-0.0015774225
191	0x3d9b2c90	0.07576859
192	0xbb8e6263	-0.0043452247
193	0x3e8b109c	0.2716111
194	0xbd79d4c2	-0.060993917
195	0xbdfb24f0	-0.12262905
196	0xbc393e9f	-0.011306434
197	0xbe1908b9	-0.14944734
198	0x3dee01f7	0.116214685
199	0x3de38944	0.11110166
200	0xbd18adfa	-0.037275292
201	0x3d0cf169	0.034409914
202	0xbe2b284e	-0.16714594
203	0xbd37745d	-0.044788707
204	0x3c844b9b	0.016149333
205	0xbbc1cb8e	-0.005914158
206	0xbde38179	-0.11108679
207	0xbdcf4b47	-0.1012178
208	0x3edc2f3c	0.43004787
209	0xbdb8631a	-0.09003277
210	0xbd7e6c04	-0.06211473
211	0x3d431493	0.047627043
212	0x3d9a2e0e	0.075283155
213	0xbdfda5af	-0.12385117
214	0x3e14b780	0.14523125
215	0x3dddcf84	0.10830596
216	0xbdd5398c	-0.10411367
217	0x3db8e418	0.090278804
218	0xbd82c6f1	-0.06385601
219	0x3e2ed56c	0.17073601
220	0xbdc0ffe3	-0.094238065
221	0x3da6a817	0.08137529
222	0xbb901c91	-0.0043979366
223	0xbe26e546	-0.16298398
224	0x3c4bd588	0.012441047
225	0xbd807523	-0.06272342
226	0x3db8c6b4	0.090222746
227	0x3da4b146	0.08041625
228	0xbd88e568	-0.06684381
229	0x3e61329c	0.21991962
230	0xbcafe9d0	-0.021473795
231	0xbd1d8f3f	-0.03846669
232	0x3df6c910	0.120500684
233	0xbdb269d3	-0.087115906
234	0x3d85e897	0.065385036
235	0x3d9ed576	0.07755558
236	0xbd29aeaf	-0.041426357
237	0xbe80763c	-0.25090206
238	0x3dcc4ec6	0.09975962
239	0xbe21b928	-0.15793288
240	0x3e00aa35	0.12564929
241	0xbe31352b	-0.17305438
242	0x3d706817	0.058693018
243	0xbc1b5f23	-0.009483132
244	0xbdef3b61	-0.116812475
245	0x3e6bf128	0.23041213
246	0xbbe30740	-0.0069283545
247	0x3e2f6694	0.17128974
248	0x3c26a0ba	0.010170156
249	0x3c28a68e	0.010293616
250	0xbc78478a	-0.015153775
251	0xbdf79e7b	-0.120907746
252	0xbcc36544	-0.023851998
253	0xba4feefe	-0.0007932036
254	0x3d703249	0.058641706
255	0x3ca2d8d2	0.019878779

while/MatMul2 f4 [84, 32]
0	0xbebd7fb0	-0.3701148
1	0xbebb9c54	-0.36642706
2	0xbd968f2b	-0.07351526
3	0xbdb94ef2	-0.09048261
4	0xbe88c290	-0.2671094
5	0xbe1e6b58	-0.15470636
6	0xbe632f99	-0.22186126
7	0xbeb7a0db	-0.3586491
8	0x3de590e8	0.11209279
9	0x3d586896	0.052834116
10	0xbd04b850	-0.032402337
11	0xbee7a83b	-0.45245537
12	0xbea392e8	-0.31948018
13	0x3d4f4aa0	0.050608277
14	0x3e52a607	0.20571147
15	0xbd8054e9	-0.06266195
16	0xbe887b77	-0.26656696
17	0x3d6cea30	0.057840526
18	0xbf010649	-0.50400215
19	0xbef8c750	-0.48589563
20	0x3e95514d	0.2916359
21	0xbd5d8948	-0.054086
22	0xbbb4b068	-0.0055141933
23	0xbdc5ed8e	-0.096644506
24	0xbd9dc0e6	-0.07702808
25	0xbe9794a4	-0.2960559
26	0xbec361f3	-0.38160667
27	0x3d843f66	0.06457405
28	0xbdba7db8	-0.0910601
29	0xbe507155	-0.20355733
30	0x3cf674c1	0.03008497
31	0xbe673ed2	-0.22582558
32	0x3e3e80d7	0.18603836
33	0xbd1611ea	-0.036638178
34	0x3e306ea4	0.17229706
35	0xbe5be5fc	-0.21474451
36	0xbd483bce	-0.04888516
37	0x3d778de3	0.060438048
38	0xbb698c69	-0.003563667
39	0xbd349b38	-0.04409334
40	0xbe07728e	-0.13227293
41	0x3ce92bc6	0.028463256
42	0xbdf47d51	-0.11937965
43	0xbe60d3f2	-0.2195585
44	0x3da8739c	0.08225176
45	0xbe3e6696	-0.18593821
46	0x3d3a1ea1	0.045439366
47	0xbe333540	-0.17500782
48	0xbe2eaa4d	-0.17057152
49	0xbe38cc26	-0.18046626
50	0xbe46eefb	-0.19427101
51	0xbeaf7206	-0.3426668
52	0x3e899182	0.26868826
53	0xbddbf89e	-0.10740779
54	0xbe30687a	-0.17227355
55	0xbc9737b3	-0.018459177
56	0xbd1708ae	-0.036873512
57	0xbe90fb46	-0.28316706
58	0x3cac1b74	0.021009184
59	0xbdb45c49	-0.088066645
60	0xbe3eed7a	-0.18645278
61	0xbe2b0247	-0.16700087
62	0xbdfb85a6	-0.12281351
63	0xbed6dcf7	-0.41965458
64	0xbe77e1dd	-0.24207254
65	0xbe9a71cb	-0.30164942
66	0xbd569199	-0.052384946
67	0xbd964493	-0.07337298
68	0xbe39f6ac	-0.18160504
69	0xbd8eec75	-0.06978694
70	0x3da1896e	0.07887541
71	0xbe3f6d11	-0.1869395
72	0x3e5958ec	0.21225327
73	0x3d9c6e8a	0.07638271
74	0x3cef1f40	0.029189706
75	0xbe509294	-0.20368415
76	0x3d718f36	0.058974467
77	0xbd88678a	-0.066603735
78	0xbd325da9	-0.043546353
79	0xbe56f3f2	-0.20991495
80	0xbee08cd5	-0.43857446
81	0xbde00746	-0.10938887
82	0x3d832add	0.0640466
83	0xbeef828b	-0.46779284
84	0xbe32f534	-0.1747635
85	0xbe83a411	-0.2571111
86	0x3ddb0b7f	0.10695552
87	0x3d9d6175	0.07684604
88	0xbe8174f2	-0.25284535
89	0xbd81bc45	-0.06334738
90	0xbe8a5b85	-0.2702295
91	0xbdc4a8d8	-0.09602517
92	0x3dade7c3	0.08491471
93	0xbe287cc4	-0.16453844
94	0x3e2b1a56	0.16709265
95	0xbf1e79a2	-0.61904347
96	0x3db30637	0.0874142
97	0xbe38efc5	-0.18060215
98	0x3e2f89b6	0.17142376
99	0x3ce7ddcb	0.028304001
100	0xbe94d6c3	-0.290701
101	0xbea75dcc	-0.3268875
102	0xbed70e91	-0.420033
103	0xbe1c3c0d	-0.15257283
104	0xbe3c05d8	-0.18361604
105	0xbdd05a18	-0.10173434
106	0x3db9da70	0.09074867
107	0xbea24412	-0.3169256
108	0xbe8c3942	-0.27387434
109	0xbd8f44d4	-0.0699555
110	0x3dfb0e47	0.122585826
111	0xbea99b71	-0.33126405
112	0xbe7740c0	-0.24145794
113	0x3e367542	0.17818168
114	0x3e38bd55	0.18040974
115	0xbdf66245	-0.12030462
116	0xbd7dc222	-0.061952718
117	0xbd89d3cd	-0.06729851
118	0xbe29714a	-0.16547123
119	0x3daf750f	0.08567249
120	0xbd897b5a	-0.067129806
121	0xbd69f79a	-0.057120897
122	0xbe495e26	-0.19664821
123	0xbe91a230	-0.28444052
124	0xbde52224	-0.111881524
125	0xbb4d6cff	-0.0031345484
126	0xbe2e319c	-0.17011112
127	0x3dcadeae	0.09905754
128	0xbcf3f0ce	-0.02977791
129	0x3e20e314	0.15711623
130	0x3dc50ca0	0.09621549
131	0x3e19a7a1	0.15005352
132	0x3dd5c3bb	0.10437723
133	0xbdeb4022	-0.11486842
134	0xbe468421	-0.1938634
135	0xbddafc46	-0.106926486
136	0x3e61b674	0.22042257
137	0x3de1b907	0.11021619
138	0x3dc80a2c	0.09767565
139	0xbe6bc94a	-0.23026004
140	0xbe22b0a9	-0.15887703
141	0x3e4a53ba	0.19758502
142	0xbe1f211f	-0.15539978
143	0xbe336ca3	-0.1752191
144	0xbea1605f	-0.31518838
145	0xbc171600	-0.009221554
146	0xbe330541	-0.17482473
147	0xbdb15270	-0.08658302
148	0x3e4460cf	0.19177555
149	0x3e3b8ab0	0.18314624
150	0x3dec6dd7	0.11544388
151	0x3caf8cec	0.021429501
152	0x3e346f8e	0.1762068
153	0x3de7734b	0.11301287
154	0xbe5b1f88	-0.21398747
155	0xbd66c8c2	-0.0563438
156	0xbe63b189	-0.22235693
157	0xbc814065	-0.015777776
158	0x3e22606a	0.15857092
159	0xbdd01796	-0.10160749
160	0x3d8c76bd	0.06858585
161	0xbd1e9267	-0.03871384
162	0x3e1f8ff1	0.15582253
163	0x3e01692f	0.1263778
164	0x3d8e62e3	0.06952455
165	0xbcd2834c	-0.025697373
166	0x3d0b0dc1	0.033948664
167	0xbdb6eaa4	-0.08931473
168	0x3d9d7d18	0.07689875
169	0x3b90f69c	0.0044239294
170	0x3da74568	0.08167535
171	0xbcdde7d4	-0.027088083
172	0xbe833f18	-0.25634074
173	0x3e658694	0.22414619
174	0xbd2872ba	-0.041125037
175	0xbe6f29be	-0.23355767
176	0xbed0f315	-0.40810457
177	0xbd962bca	-0.07332571
178	0xbe54f7f3	-0.2079771
179	0xbe5052d8	-0.20344102
180	0x3e6fcae1	0.23417236
181	0x3cb6482d	0.022251213
182	0xbea39426	-0.31948966
183	0xbe113eb7	-0.1418408
184	0xbe818f1e	-0.25304502
185	0xbe995c96	-0.2995345
186	0x3d23d0ef	0.039994176
187	0x3c8b56fd	0.017009253
188	0x3e1b7b1a	0.15183678
189	0x3de68673	0.11256113
190	0x3ce5995b	0.028027227
191	0xbf108243	-0.56448764
192	0xbebc5d62	-0.36789995
193	0xbd2eba95	-0.042658407
194	0xbdd7ace0	-0.1053102
195	0x3df5b80e	0.11997996
196	0xbcad6c83	-0.021169906
197	0x3da4c97f	0.08046245
198	0xbd989398	-0.07450026
199	0xbd1304ae	-0.035893135
200	0x3e324d6c	0.17412347
201	0x3dd77635	0.10520593
202	0xbc48cfb0	-0.012256548
203	0x3dbc1bd8	0.09184998
204	0xbebc2ff3	-0.36755332
205	0xbe4b604f	-0.19860958
206	0xbe99ef4c	-0.30065382
207	0xbe891604	-0.2677461
208	0xbe28b039	-0.16473474
209	0x3e33e33c	0.17567152
210	0xbe3bb31d	-0.18330045
211	0xbed6e919	-0.41974714
212	0xbd93e16b	-0.072207294
213	0xbdecb120	-0.115572214
214	0x3de9553c	0.1139321
215	0xbe123f03	-0.1428185
216	0xbe6da8fe	-0.23208997
217	0xbe78f2fd	-0.24311443
218	0xbb3864cc	-0.0028136251
219	0xbe5789e4	-0.21048695
220	0xbe55b8db	-0.20871298
221	0xbdf8fae0	-0.121572256
222	0xbe4e652c	-0.20155782
223	0xbea6ed7e	-0.32603067
224	0xbc99c1c3	-0.01876915
225	0xbcd204f8	-0.025637135
226	0xbdeaf153	-0.1147181
227	0xbe035ae0	-0.12827635
228	0x3cbc94f9	0.023020254
229	0xbcd2f512	-0.025751624
230	0x3c1d5c5c	0.00960454
231	0x3da40463	0.08008649
232	0xbdfdbeee	-0.123899326
233	0xbdd59a23	-0.1042979
234	0x3e340e50	0.17583585
235	0xbeb39f32	-0.35082394
236	0xbe90d14a	-0.28284675
237	0x3e0ffb34	0.1406067
238	0x3db80b40	0.08986521
239	0x3dddac9a	0.10823937
240	0xbe3a0008	-0.18164074
241	0x3dc2f908	0.09520155
242	0xbe965e9b	-0.29369053
243	0xbe783970	-0.2424066
244	0x3da37d43	0.07982876
245	0x3e229cf8	0.15880191
246	0x3db360f4	0.08758727
247	0xbe2cdfaf	-0.16882204
248	0x3db4f976	0.088366434
249	0xbd41b306	-0.04728987
250	0xbe5763b4	-0.21034127
251	0x3db26878	0.08711332
252	0x3d84f2e1	0.06491638
253	0x3db99aaf	0.09062707
254	0x3e4fdf1a	0.2029995
255	0xbe802be3	-0.25033483
