check_points/model_tflite/model_origin_tflite.tflite (tflite, 397204 bytes, 18 tensors)

model_7/conv1d_7/BiasAdd/ReadVariableOp f4 [64]
0	0x3dbf83f9	0.09351344
1	0xbe0b4983	-0.13602261
2	0xbba717e9	-0.005099286
3	0xbe09551a	-0.1341137
4	0x00000000	0.0
5	0x3b4a20a0	0.00308422
6	0x3b48b091	0.003062282
7	0x3bc963b2	0.006145918
8	0xbbd1b170	-0.006399326
9	0x3ba5aaf6	0.0050557805
10	0xbc6f35dd	-0.014600244
11	0x3b799096	0.0038080565
12	0xb8397348	-4.42148e-05
13	0x3bf88d1c	0.007585181
14	0xbba27de7	-0.0049588564
15	0xbc952d26	-0.018210005
16	0x3c0483fc	0.008088108
17	0x3c6afcd9	0.01434251
18	0x00000000	0.0
19	0xbbfdd081	-0.007745803
20	0x3cbf2bf2	0.023336384
21	0x00000000	0.0
22	0x00000000	0.0
23	0xbbf1964e	-0.007372654
24	0x3ba7ce68	0.005121041
25	0x00000000	0.0
26	0x00000000	0.0
27	0x3b81c184	0.0039598364
28	0x00000000	0.0
29	0x3b95156f	0.004549674
30	0x3abda6ee	0.0014469305
31	0x3bf3e396	0.007442902
32	0xbbb47ad5	-0.005507807
33	0x3c81cc2e	0.01584443
34	0xbc0af68b	-0.008481632
35	0x3b5af0df	0.003340773
36	0x3b1975ea	0.002341623
37	0xbb389c8a	-0.0028169476
38	0x3b92db1c	0.0044816863
39	0x3a336e6a	0.0006844761
40	0xbba66fd9	-0.0050792512
41	0x3bded59c	0.0068003666
42	0x3b9ffe16	0.0048825843
43	0xbb583e30	-0.003299605
44	0x35619444	8.4034787e-07
45	0xbba67ebd	-0.0050810263
46	0x3ba7941f	0.005114093
47	0xbb0aa1ec	-0.0021153642
48	0x00000000	0.0
49	0x3b326618	0.0027221497
50	0x379741da	1.8031267e-05
51	0xbb8483ed	-0.004044047
52	0x3c3eb8f7	0.011640779
53	0x00000000	0.0
54	0x00000000	0.0
55	0x00000000	0.0
56	0xbb3e9d7e	-0.0029085572
57	0x3cb69e5e	0.022292312
58	0x00000000	0.0
59	0x00000000	0.0
60	0x00000000	0.0
61	0xbb968dae	-0.0045945263
62	0xbb910599	-0.004425716
63	0x00000000	0.0

model_7/conv1d_7/Conv1D f4 [64, 1, 1, 4]
0	0xbe65b554	-0.22432452
1	0xbdd0bad9	-0.10191888
2	0xbe9fca32	-0.3120895
3	0x3e4c28db	0.1993746
4	0xbda4ab3a	-0.080404714
5	0x3e4429c8	0.19156563
6	0x3e489f13	0.19591932
7	0xbd73a6bd	-0.059485186
8	0xbe5e20a6	-0.21692142
9	0xbe8b2c0d	-0.27182046
10	0x3e5e9495	0.21736367
11	0x3e6acc20	0.2292943
12	0x3e4e5972	0.20151308
13	0x3df8ff95	0.121581234
14	0xbe86918d	-0.2628292
15	0x3e39f3dd	0.18159433
16	0xbe878497	-0.26468346
17	0x3e016716	0.1263698
18	0xbe83e066	-0.2575714
19	0xbe81484b	-0.25250468
20	0xbddac87e	-0.10682772
21	0x3e17b245	0.14814098
22	0x3de9bed9	0.114133544
23	0xbdec39c5	-0.11534456
24	0x3e0385b4	0.12843972
25	0x3ddbdbc9	0.1073528
26	0xbe86868b	-0.26274523
27	0x3d9b93a6	0.07596521
28	0xbe4bc55c	-0.19899505
29	0x3cb2fcfb	0.021849146
30	0x3e1ff261	0.15619804
31	0x3d64026d	0.055666376
32	0x3daafe12	0.08349241
33	0x3e85a501	0.2610245
34	0xbe87187c	-0.26385868
35	0xbe27719b	-0.16351931
36	0xbe633895	-0.22189553
37	0x3e5631fa	0.20917502
38	0x3e263033	0.16229324
39	0xbdc7dffe	-0.0975952
40	0xbe169159	-0.14703883
41	0x3d6aa883	0.05728961
42	0x3e0c3a1f	0.13694046
43	0xbd7a507a	-0.061111905
44	0x3e1a17ce	0.15048143
45	0x3d4ddf8b	0.050262015
46	0x3e01a59f	0.12660836
47	0xbe739fb1	-0.23791386
48	0x3c22e70a	0.009942779
49	0x3e530ec3	0.206111
50	0x3c251950	0.010076836
51	0x3de49c55	0.111626305
52	0xbe51218e	-0.20422956
53	0xbe283f6f	-0.16430448
54	0x3e848efa	0.25890332
55	0x3e25ef97	0.16204678
56	0xbbb0c3f0	-0.0053944513
57	0xbdd04c71	-0.1017083
58	0xbe11dbb7	-0.14243971
59	0x3e1d5618	0.15364873
60	0x3e14def1	0.1453817
61	0xbe0546be	-0.13015267
62	0xbc3a1b98	-0.011359118
63	0x3c039629	0.008031406
64	0x3e47e719	0.1952175
65	0xbde8105c	-0.11331245
66	0xbe912781	-0.28350452
67	0x3e8caa36	0.2747361
68	0xbd5591b4	-0.052140906
69	0xbddabd63	-0.10680654
70	0x3d0437f7	0.032279935
71	0x3e45597f	0.19272421
72	0xbe3f6486	-0.1869069
73	0xbe13fa8a	-0.14451042
74	0xbdaff320	-0.08591294
75	0xbe963ec0	-0.2934475
76	0xbe5ff329	-0.21870102
77	0xbe0667e0	-0.13125563
78	0x3e24b484	0.16084486
79	0xbe18a900	-0.14908218
80	0xbe6e7084	-0.23285109
81	0xbda21310	-0.07913792
82	0x3e162382	0.14661983
83	0x3e5d87b2	0.21633795
84	0x3e5c970c	0.21541995
85	0xbe17b7ac	-0.14816159
86	0xbdd42ab2	-0.10359706
87	0xbe341cfe	-0.17589185
88	0xbe808f94	-0.2510954
89	0x3e067ee2	0.1313434
90	0xbe5718e6	-0.21005592
91	0xbe526743	-0.20547204
92	0xba9b758f	-0.0011860597
93	0x3e94cc76	0.2906224
94	0xbe077216	-0.13227114
95	0xbe7c4dc7	-0.24639045
96	0xbdf9dccc	-0.12200317
97	0x3c79a034	0.015235949
98	0x3e3d0a1d	0.18460889
99	0xbce4ab89	-0.027913826
100	0x3d0e09d8	0.034677356
101	0xbdce5c40	-0.10076189
102	0xbdc71e52	-0.0972258
103	0xbe83ba66	-0.25728148
104	0xbe72155a	-0.23640957
105	0xbcba0290	-0.0227063
106	0xbe9723ca	-0.29519492
107	0xbe7946a2	-0.2434335
108	0x3d987ec2	0.07446052
109	0x3dc2b3e3	0.09506967
110	0x3d7c96ae	0.061667137
111	0xbe206f03	-0.15667348
112	0xbe9103b6	-0.28323144
113	0x3e24a0c6	0.16076955
114	0xbe87a300	-0.26491547
115	0xbd12abd0	-0.035808384
116	0x3e65df0c	0.22448367
117	0x3dd4eb04	0.10396388
118	0xbe838e6d	-0.256946
119	0xbc7bd0e2	-0.015369626
120	0x3dfee8e9	0.12446768
121	0x3dc7ee49	0.09762246
122	0xbe0e4e47	-0.13897048
123	0xbd057c62	-0.032589324
124	0xbe3bb66a	-0.18331304
125	0x3df8dbde	0.12151311
126	0xbd77297d	-0.0603423
127	0x3e22178a	0.15829292
128	0x3d910e82	0.07082845
129	0xbe464669	-0.19362797
130	0xbe77f4e1	-0.24214508
131	0x3c1cae14	0.009562988
132	0xbea46a77	-0.32112476
133	0x3dbbfbe2	0.09178902
134	0x3e07a50d	0.13246556
135	0x3e10f294	0.14155036
136	0xbe66c9c8	-0.22537911
137	0x3e4ce577	0.20009409
138	0xbe0c5b24	-0.13706642
139	0xbcd34ec5	-0.025794396
140	0x3ca64e11	0.020300897
141	0xbd8c7deb	-0.068599544
142	0x3e110230	0.1416099
143	0xbd01a6f4	-0.03165336
144	0x3df70913	0.12062278
145	0x3e89cbac	0.26913202
146	0xbe21de5f	-0.15807484
147	0xbe313975	-0.17307074
148	0xbe1f7642	-0.15572456
149	0xbe4405c5	-0.19142826
150	0xbddd10c4	-0.107942134
151	0x3d9676ba	0.07346864
152	0xbe2d3cc4	-0.16917711
153	0x3e5c8329	0.21534409
154	0x3ddb750e	0.10715686
155	0xbdf18d00	-0.11794472
156	0xbdedf638	-0.11619228
157	0x3ddf7333	0.109106444
158	0xbd1e1607	-0.038595226
159	0x3dc86fbf	0.09786939
160	0xbe09c34a	-0.13453403
161	0x3e046392	0.12928608
162	0xbdf3d95d	-0.11906693
163	0x3dc9adfd	0.09847639
164	0x3e12bb19	0.14329185
165	0x3e2abab9	0.16672792
166	0x3d081673	0.033224534
167	0xbe90b44d	-0.2826256
168	0xbddc2336	-0.107489035
169	0x3e6063dd	0.21913095
170	0x3da0f2aa	0.078587845
171	0xbe0d1169	-0.13776173
172	0x3debae11	0.1150781
173	0x3d0252ae	0.03181713
174	0xbe921b73	-0.28536567
175	0x3b85d8ea	0.004084696
176	0xbd4c1d57	-0.04983267
177	0x3e3fbc58	0.18724191
178	0x3d88f92e	0.06688152
179	0x3d4473c8	0.04796198
180	0xbd8f0e88	-0.069851935
181	0xbe705672	-0.23470476
182	0xbe84ef10	-0.2596364
183	0x3d8dbb6a	0.06920512
184	0x3ad227a4	0.0016033542
185	0x3e181e04	0.148552
186	0x3d7df70a	0.062003173
187	0xbe259439	-0.16169824
188	0xbe399888	-0.18124592
189	0x3cce1d6a	0.02516051
190	0xbe947f11	-0.29003194
191	0x3dc57d8d	0.096430875
192	0xbdc609b2	-0.09669818
193	0xbe6de418	-0.23231542
194	0xbe866852	-0.26251465
195	0xbd627e60	-0.0552963
196	0x3b3dc026	0.002895364
197	0x3cbf6528	0.023363665
198	0x3df1a790	0.11799538
199	0xbdb5b15e	-0.08871721
200	0xbd646899	-0.055763815
201	0x3e9be3fe	0.30447382
202	0x3dc95bdb	0.09831973
203	0x3e8f6ff9	0.28015116
204	0xbe92d6dd	-0.28679553
205	0x3da800c8	0.08203274
206	0xbe31af30	-0.17351985
207	0x3dfd0087	0.12353616
208	0x3e129293	0.14313726
209	0xbd2dce20	-0.042432904
210	0x3a07ea93	0.00051847956
211	0xbcb9989f	-0.022655783
212	0x3c646d60	0.013942093
213	0xbb5db180	-0.0033827722
214	0xbe044875	-0.12918265
215	0xbe5a45c2	-0.21315673
216	0xbe8a957e	-0.27067178
217	0xbe4f7746	-0.20260343
218	0xbe190638	-0.14943779
219	0xbddc5ec2	-0.10760261
220	0xbe9749d0	-0.29548502
221	0xbe6aa1c0	-0.22913265
222	0x3e67f0c8	0.22650445
223	0xbe152588	-0.14565098
224	0xbe20e4f8	-0.15712345
225	0xbc02452a	-0.00795106
226	0x3dbc8626	0.09205274
227	0xbcf889b1	-0.030339094
228	0xbe8d5765	-0.2760574
229	0x3e6229b5	0.22086222
230	0xbdf30e7d	-0.11867998
231	0x3e4bb6e4	0.19893986
232	0xbe81a1d5	-0.2531878
233	0xbd68e2dc	-0.056856975
234	0xbceb7140	-0.028740525
235	0xbe814b69	-0.25252846
236	0x3db42dd0	0.087978005
237	0xbd810ac6	-0.06300883
238	0xbe4dd24a	-0.2009975
239	0xbe55707f	-0.20843695
240	0x3de1e830	0.110306144
241	0xbe208479	-0.15675534
242	0xbdf2d1e6	-0.11856441
243	0xbe80e2c5	-0.2517301
244	0xbd82cf86	-0.06387238
245	0x3d89bf86	0.06725983
246	0xbe4ff70d	-0.20309086
247	0x3e0d93d9	0.1382593
248	0xbe54372a	-0.20724168
249	0xbd05a800	-0.03263092
250	0x3e19ad66	0.15007553
251	0x3d954332	0.07288207
252	0x3e775664	0.24154049
253	0xbe88e7a9	-0.26739243
254	0xbe0df99d	-0.13864751
255	0xbe35baf6	-0.17747101

model_7/batch_normalization_9/batchnorm/sub f4 [128]
0	0x3ebd5ef0	0.36986494
1	0xbeb2651e	-0.3484277
2	0xbeca8af2	-0.39559132
3	0xbecd01a4	-0.40040314
4	0xbee2f3a7	-0.44326517
5	0xbea30d36	-0.31846017
6	0xbc9386da	-0.018008638
7	0x3eca8356	0.39553326
8	0x3ed3ded0	0.4138093
9	0x3eebf228	0.46083188
10	0xbefac882	-0.489811
11	0xbe82c7d8	-0.25543094
12	0xbefd8881	-0.49518207
13	0xbe55c802	-0.20877078
14	0xbecc8bde	-0.3995046
15	0xbf07a222	-0.5298177
16	0x3fa8bf7f	1.318344
17	0xbf08fffa	-0.5351559
18	0x3ec29418	0.38003612
19	0x3ca79d5e	0.02046078
20	0xbf0b73f5	-0.5447381
21	0xbef91fc2	-0.48657042
22	0xbdc7746f	-0.09739005
23	0xbee3eec9	-0.44518116
24	0xbf3daa34	-0.74087834
25	0x3f90c032	1.1308653
26	0xbd6beadc	-0.057597026
27	0x3e89fe5e	0.2695188
28	0xbee316e1	-0.44353393
29	0xbedd9d3e	-0.4328403
30	0x3ea415bc	0.32047832
31	0xbf241880	-0.64099884
32	0xbf84c5de	-1.0372884
33	0x3ed1d92f	0.4098601
34	0xbecc01ba	-0.39845067
35	0x3e494896	0.19656596
36	0x3ed7c137	0.421396
37	0xbe2f60f6	-0.17126831
38	0xbf5b536e	-0.8567418
39	0xbd6909de	-0.056894176
40	0x3f421f0e	0.75828636
41	0x3e83d34d	0.25747147
42	0xbebbc431	-0.3667312
43	0xbe47a898	-0.19497907
44	0xbf20cccd	-0.628125
45	0xbec54bf1	-0.385345
46	0xbda5bd92	-0.08092798
47	0xbe00dbe0	-0.12583876
48	0x3e897cf8	0.26853156
49	0x3e8f7d4d	0.28025284
50	0x3eb5fcb8	0.35544372
51	0xbec5428b	-0.3852733
52	0x3f03c7db	0.5147683
53	0xbe0b2755	-0.13589223
54	0xbf1e86d8	-0.61924505
55	0xbf42a573	-0.76033705
56	0xbc93d3ad	-0.01804527
57	0xbe35f1d7	-0.17768036
58	0x3f46ab86	0.77605474
59	0x3f80efd3	1.0073189
60	0xbe9c3341	-0.30507854
61	0xbe89c9c2	-0.26911741
62	0x3f736305	0.95072967
63	0x3e41d288	0.18927968
64	0x3e0b6ec3	0.13616471
65	0x3e993586	0.29923648
66	0x3ed31065	0.41223446
67	0x3e552e84	0.20818526
68	0x3ea85f1a	0.32885057
69	0x3ddb5ae6	0.10710697
70	0xbdb02760	-0.0860126
71	0xbe4e7d2e	-0.2016494
72	0xbe81e925	-0.25373188
73	0xbf057407	-0.5213017
74	0xbdf01d4d	-0.11724339
75	0xbce8d6b9	-0.0284227
76	0xbed15087	-0.4088175
77	0xbe2f6f42	-0.17132285
78	0x3f3a3cf2	0.72749245
79	0xbf288e62	-0.6584226
80	0xbd2d2635	-0.042272765
81	0xbf012972	-0.50453866
82	0x3ee412e2	0.44545656
83	0xbed3c06d	-0.41357747
84	0xbb678430	-0.0035326593
85	0xbed79bb8	-0.4211099
86	0x3e5ad96e	0.21372005
87	0x3eb83b25	0.35982624
88	0x3edc084a	0.42975074
89	0x3f29fd69	0.664023
90	0x3e741c66	0.23838958
91	0xbf006518	-0.50154257
92	0x3e0a251c	0.13490719
93	0xbd0beade	-0.034159534
94	0x3dae2df3	0.08504858
95	0x3dfa1363	0.12210729
96	0x3daeeaca	0.08540876
97	0x3ea6ecd1	0.32602552
98	0xbd7d00e6	-0.061768435
99	0x3edd959d	0.43278208
100	0x3f25cdeb	0.6476733
101	0xbf182085	-0.5942462
102	0xbe8b8e0c	-0.2725681
103	0x3e1f53b6	0.15559277
104	0x3f1d0998	0.61342764
105	0xbc860746	-0.01636089
106	0xbed935cc	-0.42423856
107	0xbe9391c7	-0.28822157
108	0xbe9c14ed	-0.30484715
109	0x3e8875c5	0.2665235
110	0x3e6e98ce	0.23300478
111	0xbea2c388	-0.31789804
112	0xbe88e4e2	-0.26737124
113	0x3f06e681	0.5269547
114	0x3ce74d38	0.028235063
115	0x3e7b8750	0.24563336
116	0xbda046f4	-0.07826033
117	0xbe129f93	-0.14318685
118	0x3d03a393	0.03213842
119	0xbe35e6c7	-0.17763816
120	0xbb8f69a0	-0.004376605
121	0xbee11d52	-0.43967682
122	0xbf0ea72c	-0.55723834
123	0xbebe5b29	-0.37178925
124	0xbeb2a57b	-0.34891877
125	0x3f070a98	0.5275054
126	0xbee72cdc	-0.45151412
127	0xbec1a259	-0.37819174

model_7/batch_normalization_9/batchnorm/mul f4 [128]
0	0x402c86b8	2.6957226
1	0x40330a29	2.7974951
2	0x4025379b	2.581519
3	0x4063f6d1	3.5619395
4	0x408af307	4.3421664
5	0x4070f077	3.7646768
6	0x4008f944	2.140214
7	0x40d5d2f5	6.6820016
8	0x3ffb5527	1.9635361
9	0x403c27d2	2.9399304
10	0x40990a44	4.782503
11	0x407d2e2a	3.9559426
12	0x406fd5b2	3.747418
13	0x403b55f3	2.927121
14	0x40133c16	2.3005424
15	0x4015c180	2.3399353
16	0x40a90598	5.281933
17	0x4119d05a	9.613367
18	0x40ed9cd4	7.425394
19	0x40369186	2.852632
20	0x40780c65	3.8757565
21	0x4024f392	2.5773664
22	0x40986224	4.76198
23	0x404de8a4	3.2173243
24	0x4089c1c8	4.304905
25	0x40ac6482	5.387269
26	0x402d5260	2.7081528
27	0x40cdff88	6.437443
28	0x4079ba15	3.9019825
29	0x40920194	4.5626926
30	0x40921051	4.5644917
31	0x403cd765	2.9506466
32	0x41105564	9.020847
33	0x409db221	4.9279943
34	0x40ca56b6	6.323085
35	0x40ff7874	7.9834538
36	0x413929c8	11.5727005
37	0x40ab1d3b	5.347318
38	0x40660f2e	3.5946765
39	0x40b8fea8	5.781086
40	0x40b9cb99	5.806103
41	0x40816003	4.04297
42	0x402c3fab	2.691386
43	0x4035bff7	2.8398416
44	0x402be53c	2.6858664
45	0x40894f17	4.2909045
46	0x40413ead	3.0194504
47	0x405830bb	3.3779743
48	0x402f034d	2.7345765
49	0x402f1e52	2.7362256
50	0x408854ef	4.260368
51	0x40def38f	6.9672313
52	0x40e86ad4	7.2630405
53	0x402f91b6	2.7432685
54	0x40395f93	2.8964584
55	0x409ba8ca	4.864354
56	0x40ca0568	6.31316
57	0x403d9b12	2.9625897
58	0x40833f94	4.101511
59	0x409a1ee5	4.8162713
60	0x40d25a83	6.573549
61	0x40fab1e2	7.834214
62	0x4087faa4	4.249346
63	0x4090600a	4.5117235
64	0x404738f2	3.1128507
65	0x405a6d38	3.4129162
66	0x40942c73	4.630426
67	0x40b9062c	5.7820034
68	0x40959bf0	4.6752853
69	0x401f968f	2.4935644
70	0x408b7a35	4.358668
71	0x402f9406	2.7434096
72	0x40639c54	3.5564165
73	0x4099b779	4.8036466
74	0x401cbdb1	2.4490778
75	0x4032128f	2.7823827
76	0x40242c90	2.5652199
77	0x40754772	3.8324857
78	0x4021391c	2.5191107
79	0x407cd07b	3.9502246
80	0x40384262	2.8790517
81	0x407f33a5	3.9875271
82	0x40460004	3.093751
83	0x40944b50	4.6341934
84	0x40541c33	3.3142211
85	0x3ff67f5c	1.9257617
86	0x4098c2bf	4.7737727
87	0x4056d232	3.3565793
88	0x4096f6fb	4.717649
89	0x4085da6f	4.1829143
90	0x4097da67	4.7454104
91	0x3fe4345e	1.7828481
92	0x408cfa08	4.4055214
93	0x41009902	8.037355
94	0x4059ce42	3.403214
95	0x404820f9	3.1270125
96	0x40faa02b	7.8320518
97	0x40858deb	4.173574
98	0x409b7212	4.8576746
99	0x40c44cb0	6.1343613
100	0x4005e53c	2.0921164
101	0x3ffe5610	1.9870014
102	0x401325b3	2.299176
103	0x40dc677a	6.8876314
104	0x40a6c9c7	5.212131
105	0x40abf1b0	5.373253
106	0x4058ca50	3.3873482
107	0x40a9a940	5.3019104
108	0x4041a765	3.025842
109	0x4039dc19	2.9040587
110	0x4042a8b6	3.0415473
111	0x40b72659	5.723431
112	0x40455732	3.083447
113	0x40239de9	2.556513
114	0x4013d767	2.310022
115	0x4091d263	4.556932
116	0x403e2258	2.9708462
117	0x4084579d	4.135695
118	0x40785235	3.8800175
119	0x4037c1c6	2.871202
120	0x405215a3	3.2825706
121	0x40ba5988	5.823429
122	0x40267893	2.6011093
123	0x40ca63c1	6.324677
124	0x40865e2b	4.198995
125	0x3fe51721	1.7897683
126	0x40775208	3.8643818
127	0x40606820	3.5063553

model_7/batch_normalization_8/batchnorm/sub f4 [64]
0	0xbd899e6a	-0.06719668
1	0xbefb353c	-0.49064052
2	0xba849dc7	-0.0010117822
3	0xbede3ed8	-0.4340732
4	0x3ac341fa	0.0014896982
5	0xbf3be84f	-0.7340135
6	0xbf56ee10	-0.83957005
7	0xbf4c26cd	-0.79746705
8	0x3c3a4188	0.011368163
9	0xbf722d47	-0.9460034
10	0xbbeebf0e	-0.007285959
11	0xbfa1d901	-1.2644349
12	0xbfed704c	-1.8549895
13	0xbf8a62b6	-1.0811374
14	0x3b7fe679	0.0039047285
15	0x3bbf769f	0.005842998
16	0xbf9db83c	-1.2321849
17	0xbfa03732	-1.2516844
18	0xbb829480	-0.0039849877
19	0x3ccbdcca	0.024885554
20	0xbfbb759a	-1.4645264
21	0xbc114ce8	-0.008868434
22	0xbb0a7a09	-0.0021129868
23	0x3c1e637c	0.009667274
24	0xbf65a6bc	-0.8970754
25	0xbb4dc46a	-0.003139759
26	0x3bc2d574	0.0059458558
27	0xbf9a93b7	-1.2076329
28	0xb8fd6ca8	-0.00012084219
29	0xbf8148bc	-1.0100322
30	0xbf4e5dc2	-0.80611813
31	0xbf543768	-0.82897043
32	0xbb065c27	-0.0020501704
33	0xbf9bc2a3	-1.2168773
34	0x3b3f9d88	0.0029238183
35	0xbf6a04ed	-0.91413766
36	0xbf849d6d	-1.0360543
37	0x3ab3d0e3	0.0013718869
38	0xbf5afd29	-0.8554254
39	0xbf65998b	-0.8968741
40	0x3b498b56	0.0030753217
41	0xbf86dfa3	-1.0536999
42	0xbf783c52	-0.9696704
43	0x3bc57e6e	0.0060270345
44	0xbff6af05	-1.9272162
45	0x3c740bf2	0.014895426
46	0xbf84f5bd	-1.0387493
47	0xbbec041f	-0.0072026397
48	0xbba43782	-0.0050115
49	0xbf6cf285	-0.92557555
50	0xbfeea3ff	-1.8643798
51	0xbab6bc19	-0.0013941556
52	0xbfa97876	-1.3239887
53	0x3bf4f5aa	0.0074755745
54	0x3b6eb0ad	0.0036421225
55	0xbab44c17	-0.0013755587
56	0x3c955ac7	0.018231763
57	0xbf9d7806	-1.2302253
58	0x3a670ace	0.00088135607
59	0x3d26c804	0.040718094
60	0xbb08b081	-0.0020857158
61	0x3c1b46c2	0.009477319
62	0xbb342f40	-0.0027493984
63	0x3c86a7a7	0.016437365

model_7/batch_normalization_8/batchnorm/mul f4 [64]
0	0x4212c0bf	36.68823
1	0x41ebd7fb	29.48046
2	0x41fcf15c	31.617851
3	0x41e7d8fe	28.980953
4	0x41fcfb72	31.622776
5	0x41de041a	27.752003
6	0x41d1a5d7	26.205976
7	0x41e10953	28.129553
8	0x41fcf049	31.617327
9	0x41e19377	28.197004
10	0x41f80708	31.003433
11	0x41c5b627	24.713942
12	0x411d96fe	9.849363
13	0x41d7f58f	26.994902
14	0x41fcfaa5	31.622385
15	0x41fb74ef	31.432096
16	0x41c51d7a	24.639393
17	0x41d4fd88	26.623795
18	0x41fcfb72	31.622776
19	0x41fcf634	31.620216
20	0x41d860a5	27.04719
21	0x41fcfb72	31.622776
22	0x41fcfb72	31.622776
23	0x41fceb3a	31.614857
24	0x41d5adf1	26.709932
25	0x41fcfb72	31.622776
26	0x41fcfb72	31.622776
27	0x41c6803a	24.81261
28	0x41fcfb72	31.622776
29	0x41d56285	26.673105
30	0x41d24e96	26.288372
31	0x41e3422a	28.407307
32	0x41faddbb	31.358267
33	0x41e859ce	29.04385
34	0x41fbbf52	31.468418
35	0x41cb7e5d	25.4367
36	0x41d4b00a	26.585957
37	0x41fcfb72	31.622776
38	0x41e315d6	28.385662
39	0x41c8cbb0	25.099457
40	0x41fcf9b4	31.621925
41	0x41cde74d	25.73794
42	0x41e3b8c5	28.46522
43	0x41fbe98e	31.48904
44	0x4134d994	11.30312
45	0x41fcf982	31.62183
46	0x41d695d6	26.823162
47	0x41fceaae	31.61459
48	0x41fcfb72	31.622776
49	0x41d49da0	26.576965
50	0x40b072a2	5.5139933
51	0x41fcfb6e	31.622768
52	0x41caff99	25.374804
53	0x41fcfb72	31.622776
54	0x41fcfb72	31.622776
55	0x41fcfb72	31.622776
56	0x41e846d3	29.034582
57	0x41fb812b	31.43807
58	0x41fcfb72	31.622776
59	0x41fcfb72	31.622776
60	0x41fcfb72	31.622776
61	0x41fcfb53	31.622717
62	0x41fa9228	31.321365
63	0x41fcfb72	31.622776

model_7/dense_12/BiasAdd/ReadVariableOp f4 [4]
0	0x3d883552	0.06650795
1	0x3d7da8fe	0.06192874
2	0x3d86bfb4	0.06579533
3	0x3d8a1fa4	0.06744316

model_7/dense_11/BiasAdd/ReadVariableOp f4 [128]
0	0x3d047c61	0.03234518
1	0xbda60f7c	-0.08108422
2	0xbdb6381d	-0.088974215
3	0xbbf59b33	-0.007495308
4	0x3d0151a4	0.031572
5	0xbdf3614b	-0.118837915
6	0xbe1f7d63	-0.15575175
7	0xbdf315a0	-0.11869359
8	0xbd48ee88	-0.049055606
9	0xbbc245e8	-0.0059287436
10	0x3db554a8	0.088540375
11	0xbc0c5d0a	-0.008567104
12	0xbce3c2d5	-0.027802864
13	0xbc8e3c89	-0.01736285
14	0xbe062650	-0.13100553
15	0xbd511b81	-0.05105162
16	0x3d99ab98	0.07503432
17	0x3b0356f8	0.002004085
18	0x3dd56a2f	0.104206435
19	0xbe06700b	-0.13128679
20	0x3dbc9f85	0.092101134
21	0xbcaa4709	-0.020785825
22	0x3d85ac21	0.065269716
23	0xbaa8d212	-0.0012879989
24	0xbcd6e167	-0.026230527
25	0xbd5626d6	-0.05228313
26	0xbddc0c02	-0.10744478
27	0xbd02f718	-0.03197393
28	0xbd646aed	-0.055766035
29	0x3d56cfa7	0.052444126
30	0xbe0ece9e	-0.13946006
31	0x3d755306	0.05989363
32	0x3d15a717	0.036536302
33	0x3b1bf26d	0.002379562
34	0xbe33c59d	-0.17555852
35	0x3ad054ed	0.001589445
36	0x3bb3c350	0.0054859295
37	0x3d039749	0.0321267
38	0x3c8b36a7	0.016993834
39	0xbd445e0b	-0.04794125
40	0x3d068042	0.03283716
41	0x3c205e3a	0.00978809
42	0xbd441bd5	-0.047878105
43	0x3d1ed75e	0.03877961
44	0xbd8560b4	-0.06512585
45	0xbcb9fa87	-0.022702469
46	0xbd6d0993	-0.05787046
47	0xbd5447b8	-0.05182621
48	0xbd45d34f	-0.048297223
49	0xbd7453b0	-0.059650123
50	0x3d1b32ad	0.037890125
51	0xbd7ef62c	-0.062246487
52	0x3bf63892	0.007514068
53	0xbe813a64	-0.2523986
54	0xbd3322ca	-0.04373435
55	0xbdd0e8c0	-0.102006435
56	0xbd182282	-0.037142284
57	0xbe40a25e	-0.18811938
58	0x3d843898	0.06456107
59	0xbd052dbf	-0.03251433
60	0xbbba766e	-0.0056903875
61	0xbdf348f1	-0.11879147
62	0x3d2812b3	0.041033458
63	0xbd23d298	-0.03999576
64	0x3c2e8d8b	0.010653864
65	0xbbe89924	-0.007098334
66	0x3c97159d	0.018442923
67	0xbd3de370	-0.04635948
68	0xbd56ff22	-0.052489407
69	0x3cffb4b8	0.031214103
70	0xbc9a14cd	-0.018808747
71	0xbcb25b62	-0.02177209
72	0x3da63193	0.08114924
73	0x3d09026d	0.03344958
74	0xbc559d48	-0.013037987
75	0x3d1679aa	0.03673712
76	0xbcdf2d05	-0.027243147
77	0xbdcf0885	-0.10109047
78	0x3d3ae542	0.045628794
79	0x3d2e25b9	0.042516444
80	0xbcce7f34	-0.02520714
81	0xbcd90037	-0.02648936
82	0x3c7d21a9	0.01544992
83	0x3cf86162	0.030319873
84	0xbdb818a3	-0.08989074
85	0xbca72ef8	-0.020408139
86	0x3dfe7632	0.12424888
87	0xbcce7992	-0.025204454
88	0xbde6d603	-0.11271288
89	0x3d1c41e3	0.038148772
90	0x3d4d25b4	0.050084785
91	0xbd25b90f	-0.04045969
92	0xbd5b4088	-0.05352834
93	0x3d8b25d8	0.067943275
94	0xbb5a430d	-0.0033304126
95	0x3cfa6d3a	0.030569661
96	0x3d8ec63a	0.069714025
97	0xbba721c6	-0.0051004617
98	0x3d8533ee	0.065040454
99	0x3cc2e849	0.023792403
100	0x3d4f7d4b	0.050656598
101	0xbd106df5	-0.035261113
102	0xbbadfe78	-0.005309876
103	0x3da145fb	0.07874676
104	0x3bb23949	0.005438958
105	0x3c2438b4	0.010023285
106	0x3d8ed3ab	0.06973966
107	0x3cae67bf	0.021289704
108	0xbd70d34b	-0.058795255
109	0xbbe1255d	-0.006870909
110	0x3c3ce0fd	0.011528251
111	0xbcf45910	-0.029827625
112	0x3cd8ff48	0.026488915
113	0x3d2e3cdf	0.04253852
114	0x3d725d79	0.059171174
115	0xbdbe80c6	-0.09301905
116	0xbd9ad4a0	-0.07560086
117	0x3e005625	0.12532862
118	0x3c6ccc9e	0.014453081
119	0xbd573a0e	-0.0525456
120	0x3d05e58f	0.032689627
121	0xbdc957c6	-0.098311946
122	0xbb8cf974	-0.004302198
123	0x3db37815	0.08763138
124	0x3cf756db	0.030192783
125	0xbd3de090	-0.046356738
126	0x3d870ae1	0.06593872
127	0xbd9d4c7b	-0.07680603

model_7/bidirectional_7/forward_lstm_7/Read_2/ReadVariableOp f4 [256]
0	0xbd47c42f	-0.04877108
1	0x3b6f41ae	0.0036507654
2	0xbc812fce	-0.015769865
3	0xbc3f4160	-0.011673301
4	0x3d572f23	0.052535187
5	0xbd867012	-0.065643445
6	0x3d3ba480	0.045811176
7	0xbd521010	-0.05128485
8	0x3d02fd27	0.031979706
9	0xbd27cd9a	-0.04096756
10	0xbdeedc61	-0.11663128
11	0xbe109f73	-0.14123325
12	0xbbea6a3b	-0.007153777
13	0xbb6d0058	-0.0036163535
14	0xbd98ecea	-0.07467063
15	0x3d36fc84	0.04467441
16	0x3d8d016b	0.06885036
17	0xbdfd04ba	-0.12354417
18	0xbe287680	-0.16451454
19	0xbcda90a0	-0.02668029
20	0xbcf0ca27	-0.029393269
21	0x3d87a62f	0.06623494
22	0xbd506933	-0.050881576
23	0x3d0b38b1	0.033989612
24	0x3d460924	0.04834856
25	0xbc195b95	-0.009360214
26	0xba8703b8	-0.0010300791
27	0xbda1df4c	-0.079039186
28	0xbd18a2db	-0.037264686
29	0xbd09d8eb	-0.033654135
30	0xba89b260	-0.001050543
31	0x3d202f83	0.03910781
32	0xbdab926f	-0.08377539
33	0x3dd48289	0.1037646
34	0x3d1e5476	0.038654767
35	0xbdfa4490	-0.122201085
36	0xbdcdc8ad	-0.100480415
37	0xbe01a096	-0.12658915
38	0xbc9bd99a	-0.019024659
39	0xbcac7f41	-0.021056773
40	0xbc5c7aec	-0.013457041
41	0x3c8b3020	0.016990721
42	0xbd51bef8	-0.051207513
43	0x3d3bee91	0.04588181
44	0xbcac674c	-0.02104535
45	0xbd1da61e	-0.0384885
46	0x3cec16ac	0.028819405
47	0x3c85f933	0.016354179
48	0x3c5440af	0.012954875
49	0x3d03c278	0.03216788
50	0x3cf4d6ee	0.029887643
51	0xba3838a7	-0.0007027485
52	0xbd8f53d5	-0.069984116
53	0x3c8e15a5	0.017344305
54	0xbc87009f	-0.016479788
55	0x3d54b78d	0.05193286
56	0xbb9066df	-0.0044067944
57	0x3c443750	0.011976078
58	0xbd4b6831	-0.04965991
59	0xbd47c5e5	-0.04877271
60	0xbda0af28	-0.078459084
61	0xbdaaf8b9	-0.08348221
62	0xbb19421d	-0.0023385354
63	0xbcf3febb	-0.02978455
64	0x3f778c69	0.96698624
65	0x3f85a54f	1.0441073
66	0x3f85e178	1.0459433
67	0x3f83685b	1.0266222
68	0x3f6afbfe	0.9179076
69	0x3f68c608	0.9092717
70	0x3f8136ca	1.0094845
71	0x3f748033	0.95508116
72	0x3f865c64	1.0496945
73	0x3f73efd4	0.95287824
74	0x3f49b258	0.78787756
75	0x3f6afde0	0.9179363
76	0x3f7a77a1	0.9783879
77	0x3f7e1cb1	0.9926253
78	0x3f829424	1.0201459
79	0x3f869347	1.0513695
80	0x3f88b630	1.0680599
81	0x3f6e0afa	0.929855
82	0x3f456c46	0.7711834
83	0x3f800006	1.0000007
84	0x3f7ea193	0.9946529
85	0x3f843c93	1.0330986
86	0x3f5eb559	0.86995465
87	0x3f89edec	1.0775733
88	0x3f86f277	1.0542744
89	0x3f829db6	1.020438
90	0x3f84dd4e	1.0380037
91	0x3f73a15a	0.9516808
92	0x3f798f6f	0.9748449
93	0x3f70a7cc	0.9400604
94	0x3f7cf118	0.9880538
95	0x3f856e01	1.0424196
96	0x3f61508d	0.88013536
97	0x3f8d1a25	1.1023604
98	0x3f80c7bf	1.0060958
99	0x3f61877c	0.8809736
100	0x3f5a7ec2	0.8534967
101	0x3f5aa46a	0.85407126
102	0x3f8a65e4	1.0812345
103	0x3f73f865	0.95300895
104	0x3f86371e	1.048557
105	0x3f8798ba	1.0593483
106	0x3f74c02d	0.95605737
107	0x3f85e894	1.0461602
108	0x3f7cb45e	0.9871272
109	0x3f807ec4	1.0038686
110	0x3f87c686	1.060746
111	0x3f813634	1.0094666
112	0x3f87cb77	1.0608968
113	0x3f8420ba	1.0322487
114	0x3f888ba2	1.0667613
115	0x3f88f1ec	1.0698829
116	0x3f6ffea5	0.9374793
117	0x3f7af010	0.98022556
118	0x3f84b050	1.0366306
119	0x3f834996	1.0256832
120	0x3f718c75	0.94354945
121	0x3f76e723	0.96446437
122	0x3f738fa5	0.9514106
123	0x3f71ee62	0.9450437
124	0x3f57189c	0.84021926
125	0x3f6a51ce	0.91531074
126	0x3f891c13	1.0711693
127	0x3f755cb0	0.95844555
128	0x3d134d0e	0.035962157
129	0xbc0a70da	-0.0084497575
130	0xbcb0ba8f	-0.021573333
131	0x3c84a9ee	0.01619431
132	0xbd46e4cf	-0.048558053
133	0xbbacf2b1	-0.0052779545
134	0x3c9aa675	0.018878201
135	0x3b24727e	0.0025092657
136	0x3ca63e4b	0.020293375
137	0xbb31cb6e	-0.002712931
138	0xbd235a60	-0.03988111
139	0xbd8ebbc7	-0.069694094
140	0x3caca46d	0.021074498
141	0x3ca9a46c	0.020708285
142	0xbd817d97	-0.063227825
143	0x3d04e592	0.032445498
144	0xbd94660e	-0.07246028
145	0x3ab19516	0.0013548459
146	0x3d40cab9	0.04706833
147	0xbdcf7f1c	-0.10131666
148	0xbd354dd9	-0.044263694
149	0x3c95b374	0.018274046
150	0xbcee59ac	-0.029095493
151	0x3d1d5830	0.03841418
152	0x3d9d497d	0.076800324
153	0xbde22e10	-0.11043942
154	0x3c0a4211	0.008438603
155	0x3d3fbed6	0.046812855
156	0xba9e7fae	-0.0012092495
157	0xbd673bca	-0.056453504
158	0x3affade1	0.0019506776
159	0x3d8bd11b	0.06826993
160	0x3da7d12f	0.081941955
161	0xbdd1e76a	-0.10249217
162	0x3c04bb9f	0.008101373
163	0xbd1b52ee	-0.037920885
164	0x3b758119	0.0037460981
165	0xbd7293b3	-0.05922289
166	0x3d7e7c64	0.062130347
167	0x3de635ac	0.11240706
168	0xbd07308e	-0.03300529
169	0x3db4ddae	0.088313445
170	0xbc129fdc	-0.008949246
171	0xbc8778c9	-0.016537087
172	0x3c591522	0.013249667
173	0x3ccc8e0e	0.02497008
174	0xbcb90db3	-0.02258954
175	0x3bce68da	0.0062991204
176	0xbd81d390	-0.063391805
177	0x3d1d215b	0.03836189
178	0xbd20fd8c	-0.0393043
179	0x3d60dc86	0.054897808
180	0xbd55c596	-0.052190386
181	0xbd5e2550	-0.054234803
182	0xbbae8221	-0.005325571
183	0x3d99ff69	0.07519419
184	0xbd719b07	-0.058985736
185	0x3cb55593	0.022135532
186	0xbaeeaea8	-0.0018210011
187	0xbd49871c	-0.049201116
188	0x3c6bbf8e	0.014388932
189	0xbce99c5d	-0.028516943
190	0xbd5623ff	-0.052280422
191	0x3d973f0e	0.073850736
192	0xbd81ee00	-0.06344223
193	0x3984afe4	0.0002530805
194	0x3c221f64	0.009895179
195	0x3aee10cc	0.0018162965
196	0x3c579f95	0.013160606
197	0xbd01c56e	-0.031682424
198	0x3d327c90	0.043575823
199	0xbdc7ab42	-0.09749462
200	0x3d0e0e51	0.034681622
201	0xbc98837f	-0.01861739
202	0xbd91375e	-0.070906386
203	0xbe2c66fd	-0.16836162
204	0xbcafe3ed	-0.021470988
205	0xbdbd9084	-0.0925608
206	0xb9d52f94	-0.00040661974
207	0x3cb295a5	0.021799872
208	0xbb914625	-0.0044334107
209	0xbe20b3f7	-0.15693651
210	0xbe133fd2	-0.14379814
211	0xbd1b35d9	-0.03789315
212	0xbd213825	-0.039360184
213	0x3e138bc2	0.14408782
214	0xbcba9d17	-0.022779984
215	0xbcb5245a	-0.02211206
216	0xbd9ba0fd	-0.075990655
217	0xbcbd058b	-0.023073932
218	0x3cc45b3e	0.023969289
219	0xbd732ee7	-0.0593709
220	0xbd9350bf	-0.071931355
221	0xbcb48929	-0.02203806
222	0xbd8710ba	-0.06594987
223	0x3ccd5893	0.02506665
224	0xbe165fed	-0.1468503
225	0x3e3d4df2	0.18486765
226	0x3c75e95e	0.015009252
227	0xbd93999c	-0.07207033
228	0xbda2d421	-0.07950617
229	0xbdf0cda2	-0.11757971
230	0x3c0cc212	0.008591192
231	0x3c45f14b	0.0120814545
232	0xbe36f9b1	-0.17868687
233	0x3b760ef2	0.003754553
234	0xbd3212e5	-0.04347505
235	0x3cf58015	0.0299683
236	0xbd0f5594	-0.034993723
237	0xbddfb8ab	-0.109238945
238	0xbc81dc00	-0.015851974
239	0x3c998a07	0.018742574
240	0x3c23115c	0.009952869
241	0x3c9ce9e9	0.019154506
242	0xbdb6ab53	-0.08919396
243	0xbd756cd8	-0.059918255
244	0xbe0180fd	-0.12646861
245	0x3d112a7d	0.03544091
246	0xbcdd0d85	-0.026983986
247	0x3d497f41	0.049193624
248	0x3d0dc62f	0.03461283
249	0x3d26182d	0.0405504
250	0xba90573d	-0.0011012327
251	0xbc41d18d	-0.011829746
252	0x3b786695	0.003790294
253	0xbd60be7e	-0.054869168
254	0xbd9d9b6d	-0.07695661
255	0xbd2525aa	-0.040319122

model_7/bidirectional_7/backward_lstm_7/Read_2/ReadVariableOp f4 [256]
0	0x3d78bcd8	0.06072697
1	0xbdc17e7e	-0.094479546
2	0x3d2130ce	0.039353184
3	0xbd56dfc8	-0.05245951
4	0xbe2dd96c	-0.16977471
5	0xbc3f3612	-0.011670606
6	0xbc264e47	-0.010150499
7	0xbca5c121	-0.020233693
8	0xbd0066c5	-0.03134801
9	0xbe069cd1	-0.13145758
10	0x3d9a37ba	0.0753016
11	0x3c433753	0.011915046
12	0xbc855a27	-0.01627834
13	0x3d29cb2f	0.041453537
14	0xbc8111f6	-0.015755635
15	0x3d89ae52	0.06722702
16	0x3cb6bec9	0.02230777
17	0xbd8f8910	-0.070085645
18	0xbe0860b4	-0.1331814
19	0x3ce84762	0.02835435
20	0x3d482fea	0.04887382
21	0x3dc28996	0.09498899
22	0xbde61257	-0.11233967
23	0x3c270da8	0.010196127
24	0xbdb0915f	-0.08621477
25	0x3b2d64fa	0.0026457892
26	0xbd885207	-0.066562705
27	0x3d9f96ba	0.07792421
28	0xbd16c33e	-0.03680729
29	0xbe601d51	-0.21886183
30	0xbda08c18	-0.07839221
31	0x3c4110c7	0.011783785
32	0xbe7fcaef	-0.24979757
33	0xbdda38f4	-0.10655394
34	0xbd71fbac	-0.059077904
35	0xbe16f821	-0.14743091
36	0x3d9810fc	0.074251145
37	0xbbb33410	-0.005468853
38	0xbcaed233	-0.021340465
39	0xbe5b9ace	-0.21445772
40	0xbd2b89dd	-0.041879524
41	0xbe173407	-0.1476594
42	0x3dccad1f	0.09993958
43	0xbddfb231	-0.10922659
44	0xbbebaf48	-0.007192526
45	0x3d0ff019	0.035141084
46	0x3d3806bf	0.04492831
47	0xbe445b7c	-0.19175524
48	0xbddc1337	-0.107458524
49	0xbd026411	-0.031833712
50	0x3da57484	0.08078864
51	0xbda32409	-0.079658575
52	0xbd185309	-0.037188563
53	0x3ab54560	0.001382988
54	0xbc9bdd0d	-0.019026304
55	0x3dff3bb9	0.12462563
56	0x3d042b9e	0.03226816
57	0xbdb0c49e	-0.08631252
58	0xbd563234	-0.05229397
59	0xbe068507	-0.13136683
60	0xbd851ba8	-0.06499416
61	0x3e050e41	0.12993719
62	0xbcd7121e	-0.026253756
63	0xbcc7b994	-0.024380483
64	0x3f88c0a5	1.068379
65	0x3f726da8	0.9469857
66	0x3f8618ff	1.0476378
67	0x3f871bde	1.0555379
68	0x3f67b000	0.9050293
69	0x3f8b3f63	1.0878719
70	0x3f821ab8	1.0164404
71	0x3f8aa474	1.0831437
72	0x3f847f09	1.0351268
73	0x3f7c6282	0.9858781
74	0x3f92e879	1.1477195
75	0x3f8aba77	1.0838155
76	0x3f84e562	1.0382502
77	0x3f7b2754	0.98106885
78	0x3f7f413f	0.9970893
79	0x3f8d8477	1.105605
80	0x3f8833ec	1.0640845
81	0x3f770996	0.96499
82	0x3f7a5c2f	0.9779691
83	0x3f8d2f9d	1.1030155
84	0x3f79243c	0.97320914
85	0x3f9183f1	1.136839
86	0x3f76e405	0.9644168
87	0x3f82ffdb	1.0234331
88	0x3f7a6ff0	0.97827053
89	0x3f865609	1.0495006
90	0x3f846f70	1.0346508
91	0x3f911979	1.1335899
92	0x3f869483	1.0514072
93	0x3f631025	0.8869651
94	0x3f837ac5	1.0271841
95	0x3f82baa8	1.0213213
96	0x3f730a27	0.94937366
97	0x3f8b217c	1.0869594
98	0x3f7c5a59	0.9857536
99	0x3f7c3f05	0.9853366
100	0x3f8e70e6	1.1128204
101	0x3f892116	1.0713222
102	0x3f852665	1.0402342
103	0x3f62117f	0.88307947
104	0x3f7b703c	0.9821813
105	0x3f7f7086	0.9978107
106	0x3f95165a	1.1647446
107	0x3f7dd4e1	0.9915295
108	0x3f82f3fa	1.0230706
109	0x3f88baa5	1.0681959
110	0x3f904f46	1.1274192
111	0x3f720fb9	0.9455524
112	0x3f88af5a	1.0678513
113	0x3f873485	1.0562903
114	0x3f8dcee3	1.1078762
115	0x3f849d57	1.0360516
116	0x3f8437d3	1.0329536
117	0x3f85bd3a	1.0448372
118	0x3f8430f5	1.032744
119	0x3f8de858	1.1086531
120	0x3f8ba01e	1.0908239
121	0x3f825443	1.0181965
122	0x3f818544	1.0118794
123	0x3f5e039c	0.8672426
124	0x3f7deb5b	0.9918725
125	0x3f945fd1	1.1591741
126	0x3f849905	1.0359198
127	0x3f8407df	1.0314902
128	0xbd96e713	-0.07368293
129	0x3cd43d73	0.025908208
130	0xbda08dd8	-0.078395545
131	0x3ca7a1a2	0.020462815
132	0x3b8af4c0	0.0042406023
133	0x3d8479da	0.06468554
134	0xbd0d08f4	-0.034432366
135	0x3db57b00	0.08861351
136	0xbd50c393	-0.050967764
137	0x3d3332cf	0.043749627
138	0x3d11cf58	0.03559813
139	0xbc030b7d	-0.0079983445
140	0xbd9a88dd	-0.07545636
141	0xbc19eb7f	-0.009394526
142	0xbd64c5bd	-0.05585264
143	0x3d94feee	0.072751865
144	0x3c9f43b7	0.019441469
145	0x3d5cede4	0.053937808
146	0x3ca95868	0.020672038
147	0x3d1dbf8f	0.038512763
148	0xbd894649	-0.06702859
149	0xbca64c97	-0.020300193
150	0x3c523e13	0.012832182
151	0x3ca9e1ca	0.020737547
152	0xbcecd002	-0.02890778
153	0xbdbf074a	-0.09327562
154	0xbc995a65	-0.018719861
155	0x3d138b0d	0.03602128
156	0x3b8c0c9a	0.004273963
157	0x3d53cb37	0.051707473
158	0xbd0c722d	-0.034288574
159	0xbd304506	-0.043034576
160	0x3d18bbfd	0.037288655
161	0xbc72b092	-0.014812605
162	0x3df97f7a	0.12182517
163	0xbda06ce9	-0.07833273
164	0x3ca45dba	0.020064224
165	0xbc8c4886	-0.017124426
166	0xbd38e80d	-0.045143176
167	0x3d50e848	0.05100277
168	0xbd93f324	-0.0722411
169	0xbccdf52d	-0.025141323
170	0x3d828fe2	0.063751
171	0xbc80a378	-0.015702948
172	0x3d915f3d	0.070982434
173	0x3d480b6e	0.048839025
174	0xbcf02b9b	-0.029317668
175	0xbbc300ef	-0.005951039
176	0x3e01d781	0.12679864
177	0x3cbc6d90	0.023001462
178	0x3d4ec33f	0.05047917
179	0x3bc9a345	0.0061534964
180	0xbd0f89a6	-0.03504338
181	0xbb479813	-0.0030455634
182	0x3dbcb3e9	0.09214003
183	0x3d07d1f4	0.03315921
184	0x3d95843a	0.07300611
185	0x3d63b36d	0.055591036
186	0xbc989e41	-0.018630149
187	0xbc71202c	-0.014717143
188	0x3d73b074	0.05949445
189	0x3c675b94	0.014120955
190	0x3cf012f0	0.029305905
191	0x3ce65d7e	0.028120752
192	0x3d2858e8	0.041100413
193	0xbd986523	-0.07441165
194	0x3c711eea	0.014716843
195	0xbdaa84a3	-0.0832608
196	0xbc8eb7c2	-0.017421607
197	0x3c52b9cf	0.012861683
198	0x3c653eaf	0.013991996
199	0x3dcd00f2	0.10009946
200	0xbc469e44	-0.012122694
201	0xbd79c7e6	-0.060981654
202	0x3d902d92	0.07039942
203	0x3c15bbd0	0.009139016
204	0xbc2b9fc9	-0.0104751075
205	0x3d374a1c	0.04474841
206	0x3d599679	0.053122018
207	0x3e05a3ed	0.13050814
208	0x3ca300fe	0.019897934
209	0xbcdbe63c	-0.026843183
210	0xbdebd5f2	-0.11515416
211	0xbd146efa	-0.036238648
212	0x3d7a69e7	0.061136153
213	0x3dcde7c1	0.10053969
214	0xbe063af8	-0.13108432
215	0x3d8bd103	0.06826975
216	0xbd5fc0db	-0.05462728
217	0x3dcb3866	0.099228665
218	0xbe31e4fd	-0.17372508
219	0x3df49e40	0.11944246
220	0xbd931133	-0.07181015
221	0xbdb9d8d1	-0.090745576
222	0x3c9c7544	0.019098885
223	0xbc18c58a	-0.009324441
224	0xbe38cba2	-0.1804643
225	0xbcb246c2	-0.021762256
226	0xbd0c8298	-0.03430423
227	0xbda7d6d5	-0.08195273
228	0x3db2a944	0.08723691
229	0x3d076009	0.03305057
230	0xbc01d0d0	-0.00792332
231	0xbe0117ac	-0.12606686
232	0xbd55695b	-0.052102428
233	0xbcf97941	-0.030453326
234	0x3d8eff61	0.069823034
235	0xbd8e03a7	-0.069342904
236	0x3d3bd2ce	0.045855336
237	0xbd548e43	-0.051893484
238	0x3d18e26d	0.03732531
239	0xbdffdaf5	-0.124929346
240	0x3d3b1dde	0.04568278
241	0x3d821ed3	0.063535355
242	0x3d81d43e	0.0633931
243	0xbd950718	-0.07276744
244	0xbd0375c3	-0.03209473
245	0xbcc25db6	-0.023726325
246	0xbbf6d371	-0.00753253
247	0x3db0a630	0.08625448
248	0x3dbf4e7b	0.09341141
249	0xbd841281	-0.06448842
250	0x38dd5cba	0.00010555373
251	0xbdc7504b	-0.097321115
252	0xbd8fc221	-0.07019449
253	0x3df96a71	0.12178505
254	0x3cd0a31e	0.025468405
255	0x3d344b56	0.04401716

model_7/dense_11/Tensordot/MatMul1 f4 [128, 128]
0	0x3cff8466	0.031191062
1	0x3daad707	0.083417945
2	0x3d6673ee	0.056262903
3	0x3d93599e	0.071948275
4	0x3c52e2cf	0.012871458
5	0xbd94861c	-0.07252142
6	0x3dadef70	0.08492935
7	0x3df40abd	0.11916111
8	0xbd8cc798	-0.06874007
9	0xbe0dbb4d	-0.13840981
10	0xbd347496	-0.044056498
11	0xbe06ff95	-0.13183434
12	0x3e13e6f8	0.14443576
13	0xbd803d8d	-0.0626174
14	0x3e04e04e	0.1297619
15	0x3e2d5f3f	0.16930865
16	0x3d33ca04	0.04389383
17	0xbe01fd92	-0.12694386
18	0x3e2435ff	0.16036223
19	0x3b9c4349	0.004768763
20	0xbdddf804	-0.10838321
21	0x3d9d5b75	0.0768346
22	0x3d89b1ce	0.06723367
23	0x3d33cc08	0.04389575
24	0x3dd220ba	0.10260148
25	0xbdfc9a38	-0.123341024
26	0xbc809c23	-0.015699452
27	0xbe2142e6	-0.15748176
28	0x3e2bc0fd	0.16772838
29	0xbb9ef465	-0.0048509114
30	0xbe05aa4f	-0.13053249
31	0x3d5ed613	0.054403376
32	0xbd851428	-0.06497985
33	0x3ded8137	0.115969114
34	0xbe2d9ceb	-0.1695439
35	0x3ddad16b	0.106844746
36	0x3dc76b99	0.097373195
37	0x3cf2ef1f	0.029655037
38	0xbdd7adb2	-0.105311766
39	0xbde3a119	-0.11114711
40	0xbd405232	-0.046953388
41	0xbdd32ede	-0.103116736
42	0xbcfc026b	-0.030762872
43	0x3da0b0d9	0.07846231
44	0xbc33776b	-0.010953764
45	0xbd208629	-0.039190445
46	0xbd93bfe4	-0.072143346
47	0xbcf5bf92	-0.029998574
48	0x3dc8ebf2	0.09810628
49	0x3d5fc3ac	0.054629967
50	0xbd60689b	-0.05478726
51	0xbc4cc021	-0.012496979
52	0x3dc6584a	0.096848086
53	0x3d98b837	0.07457011
54	0x3e1c64b5	0.15272792
55	0x3d6c44ae	0.057682686
56	0x3dec96e6	0.11552219
57	0xbe2980c6	-0.1655303
58	0x3d7c928e	0.061663203
59	0x3a831f78	0.0010003885
60	0x3d7c29c8	0.061563283
61	0xbba758fa	-0.0051070424
62	0xbd8a1aca	-0.06743391
63	0xbd9b3715	-0.075788654
64	0x3df311cf	0.11868631
65	0x3db4ec6b	0.08834156
66	0xbd049ca9	-0.032375965
67	0xbdef7ed2	-0.11694111
68	0xbc9beb98	-0.019033238
69	0x3ddd0072	0.107911006
70	0xbccc3f27	-0.024932457
71	0xbe13885a	-0.14407483
72	0x3d8c3910	0.06846821
73	0x3d77ea83	0.060526382
74	0x3d0a64ee	0.03378766
75	0xbdee4ead	-0.116361
76	0xbdf64df3	-0.120265864
77	0x3e5f3341	0.21796896
78	0x3be92515	0.007115016
79	0x3d07f2f5	0.033190686
80	0xbbd4a1c1	-0.006489009
81	0x3cf86cb8	0.030325279
82	0x3d871b91	0.06597055
83	0xbe2f343f	-0.17109774
84	0x3e224e95	0.15850289
85	0xbd865375	-0.06558887
86	0x3d7f3a44	0.062311426
87	0xbd913231	-0.070896514
88	0xbde1f750	-0.11033499
89	0x3b03b960	0.0020099506
90	0x3da3c73b	0.079969846
91	0x3aa50aa4	0.0012591672
92	0xbd66ff99	-0.0563961
93	0xbde6cf9d	-0.11270068
94	0xbe2cc1e7	-0.16870843
95	0xbe1aa656	-0.15102515
96	0x3e0f31de	0.13983867
97	0x3e03c798	0.12869108
98	0x3de11544	0.10990384
99	0xbe19563a	-0.14974299
100	0xbd9f2faf	-0.07772767
101	0xbdf78fa9	-0.12087948
102	0xbd418f64	-0.04725589
103	0x3d2e740a	0.042591132
104	0xbdd37db9	-0.10326714
105	0xbd3f1147	-0.046647336
106	0xbb761c58	-0.0037553515
107	0x3dbe4063	0.092896245
108	0xbdf2ccda	-0.118554786
109	0xbcfe56b5	-0.031047205
110	0xbe0e4037	-0.13891684
111	0xbe04881d	-0.12942548
112	0x3da1369f	0.07871746
113	0xbda411e0	-0.08011222
114	0xbe198884	-0.14993483
115	0x3d9e685d	0.077347495
116	0x3defbd85	0.1170607
117	0x3c20299a	0.009775544
118	0x3cd16c25	0.025564263
119	0x3cbd5d5f	0.023115812
120	0x3c1ec381	0.009690166
121	0xbdfc1f3b	-0.12310644
122	0x3d586b53	0.052836727
123	0xbe01cea5	-0.12676485
124	0xbd4f8472	-0.05066342
125	0x3c03bb7e	0.008040307
126	0xbd682cad	-0.05668323
127	0x3e0fd6d3	0.14046793
128	0x3c05f1e9	0.008175352
129	0x3aee9d17	0.0018204775
130	0xbc6c5afe	-0.014425991
131	0xbd8a64b3	-0.06757488
132	0xbcd3b8fb	-0.025845041
133	0x3d39bcba	0.045346
134	0x3c1140ee	0.008865578
135	0xbd627a2f	-0.055292305
136	0xbdfcf77d	-0.12351892
137	0xbc895b29	-0.016767101
138	0xbe07b777	-0.1325358
139	0xbe14efd8	-0.14544618
140	0xbdcf17e1	-0.101119764
141	0x3e11f1e0	0.14252424
142	0x3dab5627	0.08366042
143	0xbd88831d	-0.06665633
144	0x3dc18994	0.09450069
145	0xbbdf8e60	-0.0068223923
146	0x3d8d5a43	0.06901982
147	0xbcb06b3a	-0.021535505
148	0x3c6d3402	0.014477732
149	0xbd17153b	-0.03688548
150	0x3d3d8e64	0.046278372
151	0x3bdd21ee	0.0067484295
152	0x3d536d60	0.05161798
153	0x3d6a8448	0.05725506
154	0xbdb3b2de	-0.087743506
155	0xbda99dfc	-0.08282086
156	0xbccbee48	-0.024893895
157	0xbbd04913	-0.0063563674
158	0xbcbf26a8	-0.023333862
159	0x3d38d456	0.045124374
160	0xbb223355	-0.0024749835
161	0xbd06c0e3	-0.032898795
162	0x3ddeef87	0.1088553
163	0x3d3e7615	0.04649933
164	0xbda37776	-0.0798177
165	0xbe1edb37	-0.15513311
166	0xbcc43a65	-0.023953626
167	0x3c342388	0.010994799
168	0x3d40e668	0.047094733
169	0x3c60a3bd	0.013710913
170	0x3db3b9c7	0.087756686
171	0x3dad4278	0.084599435
172	0xbdf69221	-0.120395906
173	0xbd6c508b	-0.057694
174	0xbd0612c0	-0.032732725
175	0x3d124018	0.035705656
176	0xbd765c59	-0.060146663
177	0x3d8c8c35	0.0686268
178	0xbe1a8690	-0.15090394
179	0xbdf7243c	-0.12067458
180	0x3dd32d2d	0.10311351
181	0x3dc8f353	0.098120354
182	0x3c90e599	0.017687606
183	0xbd98b2d9	-0.074559875
184	0xbd86db5c	-0.06584808
185	0x3c011810	0.007879272
186	0x3d4b5cb8	0.04964897
187	0x3d005d2a	0.03133885
188	0x3d7af05b	0.061264377
189	0x3df54446	0.11975913
190	0x3d84c14e	0.064821824
191	0x3d892d62	0.06698109
192	0xbc6ad2ed	-0.014332515
193	0x38001a38	3.0541996e-05
194	0x3d8460fb	0.0646381
195	0x3e0ef348	0.13959992
196	0xbd73de0d	-0.059537936
197	0x3c81987c	0.01581978
198	0x3dc97ec9	0.098386355
199	0xbdbc8d9e	-0.09206699
200	0x3a17ef1a	0.0005795822
201	0xbd98383b	-0.074326
202	0x3d83bd1e	0.064325556
203	0xbcd2c709	-0.025729673
204	0x3c9cc182	0.01913524
205	0x3bcfa1f8	0.006336447
206	0x3dddb50f	0.1082555
207	0xbdb39f28	-0.08770591
208	0xbd25a548	-0.040440828
209	0xbd11eca0	-0.035626054
210	0xbdc9dee8	-0.09856969
211	0xbde1e68d	-0.11030302
212	0x3caaaa21	0.020833077
213	0xbe09636c	-0.13416833
214	0xbda7b2e6	-0.08188419
215	0xbca9343a	-0.020654786
216	0x3db6ccf7	0.08925813
217	0x3e3ba62b	0.18325107
218	0x3b7f0e60	0.003891848
219	0xbd65e903	-0.05613042
220	0x3e42ed63	0.19035868
221	0x3e617ca7	0.22020207
222	0x3cff85a7	0.03119166
223	0x3dc9150c	0.098184675
224	0x3d9ac01d	0.07556174
225	0x3d9e2695	0.07722203
226	0x3e0a03a9	0.13477959
227	0xbd66fc56	-0.05639299
228	0xbd9f0347	-0.07764297
229	0xbd11664e	-0.035497956
230	0xbdb36565	-0.08759574
231	0x3d8a47e9	0.06751997
232	0xbcda41db	-0.02664273
233	0xbce44f27	-0.027869774
234	0xbe133e3a	-0.14379206
235	0x3c74e0a6	0.0149461385
236	0xbe1061dc	-0.1409983
237	0xbd88498c	-0.06654653
238	0x3e1bccaa	0.15214792
239	0xbd1e4932	-0.038644023
240	0xbcd97798	-0.026546285
241	0x3d6417ba	0.05568669
242	0x3d53a691	0.051672522
243	0x3d2682ab	0.04065196
244	0xbd746431	-0.059665862
245	0xbc22e044	-0.009941164
246	0x3da0ffb0	0.078612685
247	0xbe2bd65b	-0.16780989
248	0x3dabfb41	0.08397532
249	0xbde61368	-0.1123417
250	0x3e18157a	0.14851943
251	0xbd305875	-0.04305311
252	0x3cca846a	0.024721343
253	0xbcd304eb	-0.025759181
254	0xbe232db8	-0.15935409
255	0xbd928057	-0.07153385

model_7/dense_12/MatMul f4 [4, 2560]
0	0xbd45a75d	-0.048255313
1	0xbdbc3ad2	-0.091909066
2	0x3bd59624	0.0065181423
3	0xbcb8ecb4	-0.022573806
4	0xbdc39d91	-0.09551538
5	0xbdb40899	-0.087907024
6	0xbd86e94d	-0.06587467
7	0xbc84558a	-0.01615407
8	0xbb99141c	-0.0046715867
9	0xbcafc1d8	-0.021454737
10	0xbcaf54c4	-0.021402724
11	0x3c71defc	0.014762636
12	0xbd41759b	-0.047231298
13	0x3d4be9d8	0.049783558
14	0xbde8b0fd	-0.11361883
15	0xbd88a315	-0.066717304
16	0x3d9e6faa	0.07736142
17	0xbc85210b	-0.016251108
18	0x3db030fd	0.08603094
19	0x3df990bc	0.12185809
20	0xbdca86e1	-0.09889007
21	0xbd6ab39f	-0.057300206
22	0xbe1171ed	-0.14203615
23	0xbda82cc8	-0.08211666
24	0xbd5fc108	-0.05462745
25	0xbc52d500	-0.012868166
26	0xbd5b355b	-0.05351768
27	0xbc92ea6b	-0.017934045
28	0x3d3314df	0.043721076
29	0xbd4f0a08	-0.050546676
30	0x3b91d4ec	0.004450431
31	0xbda8c285	-0.08240227
32	0xbd3272d8	-0.043566555
33	0xbd1c5432	-0.038166232
34	0xbd99e021	-0.07513452
35	0x3d760e95	0.0600725
36	0xbda3e364	-0.08002356
37	0xbd470e63	-0.048597705
38	0x3cda0a77	0.026616318
39	0xba45e12e	-0.0007548508
40	0x3d998107	0.07495313
41	0x3dc89fa7	0.09796076
42	0xbcf2a93d	-0.029621715
43	0x3d5cc042	0.05389429
44	0xbddce7e6	-0.107864186
45	0xbd9ff778	-0.07810873
46	0xbd1fcd3f	-0.039014097
47	0xbbbff982	-0.005858601
48	0x3ce17a76	0.027524214
49	0x3d750f4a	0.059829034
50	0x3de12896	0.10994069
51	0xbce14d32	-0.02750263
52	0xbd290871	-0.041267816
53	0xbc15e075	-0.009147753
54	0xb98b24d3	-0.00026539582
55	0xbdd72472	-0.10504998
56	0xbe05a363	-0.13050608
57	0x3ba2a1e3	0.004963146
58	0x3db211e1	0.086948164
59	0x3dee2642	0.11628391
60	0xbdbc2439	-0.091865964
61	0x3bd89250	0.0066092387
62	0x3d764d54	0.06013234
63	0x3d640a7b	0.055674057
64	0xbd3466b3	-0.044043254
65	0x3d050367	0.032473948
66	0x3c4f3fa2	0.012649449
67	0xbc942862	-0.018085662
68	0x3d4930bf	0.049118754
69	0xbd0955cb	-0.033529084
70	0xbd17343d	-0.036915053
71	0xbcc2df28	-0.02378805
72	0x3ce2a735	0.027667621
73	0xbd1e9d17	-0.03872403
74	0x3d8b0eea	0.06789954
75	0xbd54dab4	-0.051966384
76	0xbc3170e7	-0.010830141
77	0xbcd431d2	-0.025902662
78	0x3d1b4ea5	0.0379168
79	0x3d243e8b	0.040098708
80	0x3cd15d89	0.025557296
81	0x3da1e496	0.079049274
82	0x3d686b6f	0.05674308
83	0xbc245afd	-0.010031459
84	0xbcd48a8f	-0.025944976
85	0x3ca6074e	0.020267155
86	0x3d30dda7	0.043180134
87	0xbcd826c7	-0.026385678
88	0xbd1f243c	-0.038852915
89	0x3c8cded4	0.017196096
90	0xbd63e27b	-0.05563591
91	0xbda0287f	-0.07820224
92	0xbd7f1f6e	-0.062285833
93	0x3d496bf3	0.049175214
94	0x3ce0f43e	0.027460214
95	0xbc63b73e	-0.013898669
96	0x3d2a1467	0.041523363
97	0x3da03b5b	0.07823821
98	0x3d7e3245	0.06205966
99	0x3d830942	0.0639825
100	0x3d2b1dc6	0.04177644
101	0xbd649a06	-0.05581095
102	0xbd237203	-0.039903652
103	0x3c820f0f	0.015876321
104	0x3d1fb339	0.03898928
105	0xbd7798f3	-0.060448598
106	0xbd3c34c8	-0.045948774
107	0xbdb1a30d	-0.086736776
108	0xbd1ea057	-0.03872713
109	0x3d63ba17	0.05559739
110	0xbcb0525c	-0.021523647
111	0xbd124b8f	-0.03571659
112	0x3d9b78c6	0.07591395
113	0x3d773f35	0.060363013
114	0x3d03df2b	0.03219525
115	0x3d972966	0.07380943
116	0x3b355d0a	0.0027673864
117	0xbd76e5d7	-0.060277786
118	0xbd5196d4	-0.05116923
119	0xbc2da046	-0.010597294
120	0xbcfdf895	-0.031002322
121	0xbcab0d13	-0.020880258
122	0xbd8c4921	-0.06849886
123	0xbcfe5db4	-0.03105054
124	0x3d22ad5f	0.03971612
125	0xbd4eaede	-0.050459735
126	0xbc58795d	-0.013212529
127	0x3d741e7a	0.059599377
128	0xbd093ba0	-0.03350413
129	0xbdaafbef	-0.08348834
130	0x3cb94ac8	0.022618666
131	0xbdfda207	-0.1238442
132	0xbdb3a5a5	-0.087718286
133	0xbda1b7f0	-0.078964114
134	0xbdd48fdc	-0.103790015
135	0x3d5317d5	0.0515364
136	0xbd74e3fe	-0.059787743
137	0x3c7a600b	0.0152816875
138	0xbc9beb5c	-0.019033127
139	0xbd2b5b16	-0.041834913
140	0xbca5147a	-0.020151366
141	0x3d455d2d	0.048184562
142	0xbdd57858	-0.104233444
143	0x3c398e98	0.011325501
144	0x3d885581	0.066569336
145	0x3d8b3ec8	0.06799084
146	0x3d14f978	0.036370724
147	0x3d3b9d07	0.04580405
148	0xbd8c2650	-0.06843245
149	0xbd7ec9b9	-0.062204096
150	0xbde67bd4	-0.11254087
151	0xbd927c82	-0.07152654
152	0xbd7d5e5f	-0.061857577
153	0x3c013a53	0.007887441
154	0x3cf27ac8	0.029599562
155	0xbdb3343d	-0.08750198
156	0x3cd3bfd6	0.02584831
157	0xbd035f23	-0.03207315
158	0x3d92f2e6	0.071752355
159	0xbd86d8cb	-0.06584319
160	0xbcea8259	-0.028626608
161	0xbde1ac91	-0.110192426
162	0xbd8a4fb0	-0.067534804
163	0x3d0bdb98	0.034144968
164	0xbd8ca5d4	-0.06867567
165	0xbd392c11	-0.04520804
166	0x3b2490cf	0.0025110727
167	0x3d353ab7	0.044245448
168	0x3c61e082	0.013786437
169	0x3daf962e	0.085735664
170	0x3cd8e6d5	0.026477257
171	0x3d547d24	0.051877156
172	0x3ca32caf	0.019918768
173	0x3c8a917e	0.01691508
174	0xbcc1358a	-0.0235851
175	0x3c8f9212	0.017525706
176	0xbdc13dfc	-0.09435651
177	0x3c4e8902	0.012605907
178	0x3d8ecf95	0.06973187
179	0xbc71c146	-0.014755553
180	0xbd9236fb	-0.07139393
181	0xbd182a2c	-0.037149593
182	0xbcbdea5a	-0.023183037
183	0xbd87f300	-0.066381454
184	0xbdf0683c	-0.11738631
185	0xbd0de5ee	-0.034643106
186	0x3d8a797f	0.06761455
187	0x3db72a9a	0.089436725
188	0xbd5e40ae	-0.054260902
189	0x3d5b6ad6	0.053568684
190	0xbc91082e	-0.017704096
191	0x3d525fb5	0.051360805
192	0xbcd2ad98	-0.025717542
193	0x3d245f1f	0.040129777
194	0x3cc48422	0.023988787
195	0xbd1f77c5	-0.03893258
196	0x3d0a9859	0.033836696
197	0xbcc1d6b2	-0.023661945
198	0xbd4a76a1	-0.04942954
199	0xbcf0b374	-0.029382445
200	0x3d14de75	0.036344964
201	0xbd1ce397	-0.038302984
202	0x3da4d50b	0.08048447
203	0xbc8707e0	-0.016483247
204	0xba787b73	-0.00094788446
205	0xbd0a95d2	-0.033834286
206	0x3d41eb00	0.047343254
207	0x3ce8479a	0.028354455
208	0x3ce9d94a	0.028545994
209	0x3d0d601a	0.034515478
210	0x3d6f887d	0.058479775
211	0xbc8a7405	-0.016901026
212	0xbc8f3d58	-0.017485306
213	0x3bfe5ca4	0.0077625085
214	0x3d6fd267	0.058550265
215	0xbd79fc96	-0.0610319
216	0xbd97a650	-0.074047685
217	0xbbd3c341	-0.006462485
218	0xbd32070e	-0.04346376
219	0xbdb13366	-0.086523816
220	0xbd2389d8	-0.03992638
221	0x3d4e9f59	0.050444935
222	0xbaf7146e	-0.0018850693
223	0xbba45d6d	-0.00501602
224	0x3d20b317	0.039233293
225	0x3d9de572	0.07709779
226	0x3cb01887	0.02149607
227	0x3d52d0a0	0.05146849
228	0x3d1a8b17	0.037730303
229	0xbc8abcae	-0.016935673
230	0xbd2c9c92	-0.042141505
231	0x3d3525a8	0.044225365
232	0x3d460feb	0.048355024
233	0xbd532021	-0.051544312
234	0xbcfcf71a	-0.030879546
235	0xbd605020	-0.054763913
236	0x3cc65f9c	0.024215512
237	0x3d244250	0.040102303
238	0xbd05df57	-0.032683697
239	0xbd90ad92	-0.07064356
240	0x3c41bb99	0.011824512
241	0x3db60e1a	0.088894084
242	0x3d6bcda1	0.05756915
243	0x3d85ed24	0.065393716
244	0x3b89c9b6	0.004204954
245	0xbd58805f	-0.0528568
246	0xbcbcd70b	-0.02305176
247	0x3a14853e	0.00056656066
248	0xbd30b287	-0.043139007
249	0xbcd7f766	-0.026363086
250	0xbd705f7f	-0.058684822
251	0xbbf18c10	-0.007371433
252	0x3ccd2f76	0.025047045
253	0xbc692cc3	-0.014231863
254	0xbd5b5b58	-0.05355391
255	0x3c840b3f	0.016118644
