check_points/model_tflite/model_student_tflite.tflite (tflite, 67668 bytes, 12 tensors)

model_6/conv1d_6/BiasAdd/ReadVariableOp f4 [32]
00000000: 5f5f 1fbe 0000 0000 3200 29bc 630b 4cbc
00000010: 7148 3fbc 84da 4ebc 5ddc 9aba 83f6 8abc
00000020: 0000 0000 0000 0000 07f0 19be 0000 0000
00000030: 18b8 c1ba 0000 0000 f688 f5bb df9c 92bd
00000040: 0000 0000 2d02 d9ba a1af f1ba 0000 0000
00000050: 0000 0000 f525 8ebd de95 bab9 59a5 cfba
00000060: 239b 3cbc 0000 0000 c991 b9ba 0000 0000
00000070: 0000 0000 d109 cdbd cb64 51bc b475 9bbd
-0.15563725 0.0 -0.010314988 -0.012453887 -0.011674986 -0.01262534 -0.0011814941 -0.01696325
0.0 0.0 -0.1503297 0.0 -0.0014779596 0.0 -0.0074931337 -0.07158827
0.0 -0.0016556435 -0.0018439182 0.0 0.0 -0.069408335 -0.00035588344 -0.0015842124
-0.011511597 0.0 -0.0014157827 0.0 0.0 -0.10011638 -0.012780379 -0.075908095

model_6/conv1d_6/Conv1D f4 [32, 1, 1, 4]
00000000: 3f95 2a3e 76c5 9cbe c46c 813e a8eb f23d
00000010: 8899 533e 27c2 a2be b2d1 cebe 17af 9abe
00000020: a382 733e cfca a73e d2bb 1bbe e2c1 95be
00000030: 35a1 8cbe eda4 863e 6830 8b3e 3f99 c2bd
00000040: cd41 a83e 7977 c03d c880 78be a36d d7bc
00000050: a414 b4be f9ed 843e 6cb5 be3e 04dd 29be
00000060: 79f3 cebe 3033 e8bc 9c2e b2bd 52ed 613e
00000070: db71 853e 4923 88be e21d 793e 6937 0dbe
00000080: 1c6f 043e 58da 183e 2370 81be 42ce 9fbe
00000090: 4895 da3d 9751 c7be d048 d43c 4f67 c6be
000000a0: cbd7 453d fe82 b03c a404 6e3e eea6 e03d
000000b0: 6661 a7be 9312 89be 2003 3b3e 5466 a2bd
000000c0: 7886 ccbe 29e4 b33d e94f fb3d c6e3 9b3c
000000d0: 80f1 82bc b821 613e 627f aabe 28a6 1fbd
000000e0: 3e11 b5bd 6736 863e dfa2 c4be ac20 a93e
000000f0: 2e35 a5be eb6b 6a3e 617e 083e 9a2e 003e
00000100: 4c1d ba3e fa9c 86be b865 c3be 504c 9cbe
00000110: 403b c0bd 6af3 d7bc 2c36 873e 34c7 63be
00000120: 9087 14bd 9a04 c7be c86d 463e 86d7 103e
00000130: a024 7cbe a0d7 443d a875 bebd 5846 81be
00000140: a20c 9fbe e196 c2be dc01 943e d883 59be
00000150: 214b 5b3e 527c 643e 1c08 b2be becb 303e
00000160: 3b88 bebe 8072 43bd 16d9 36be 4d00 323e
00000170: 392f 9abe e15a 99be 4dd4 c03e 229e 063e
00000180: 6375 ad3e b275 be3c 629b 85be 5b80 5c3d
00000190: bf37 54be 13f4 99be 6496 cfbd 7edb 21be
000001a0: 9b33 74be cfa9 0b3e 1a15 f2bd f9a9 043e
000001b0: 64a6 2cbe fab7 a9be 4c38 18be 6393 58be
000001c0: f874 9dbe 1ead cfbe 3050 b93e 186e bdbe
000001d0: d402 a03c 1ddb 933e acf5 babe e243 7d3e
000001e0: 2a46 b93e a7a9 ea3c b247 273e 1bec c7be
000001f0: b0f2 933e faf1 853e 3520 2b3e 3dc2 d9be
0.16658495 -0.306194 0.25278294 0.11861354 0.20664036 -0.3178875 -0.4039436 -0.30211708
0.23780303 0.32771918 -0.15208367 -0.29249483 -0.2746674 0.26297703 0.2718537 -0.095018856
0.32862702 0.093977876 -0.24267876 -0.026297396 -0.35171998 0.2596281 0.3724779 -0.16588217
-0.4042013 -0.02834472 -0.08700296 0.22063187 0.26063427 -0.2658942 0.24327806 -0.13790669
0.1293301 0.14927042 -0.25280866 -0.3121205 0.106730044 -0.38929436 0.025913626 -0.38750693
0.0483015 0.021546837 0.23243958 0.10969339 -0.32691497 -0.26771984 0.18262911 -0.07929674
-0.39946342 0.087837525 0.12271101 0.01902951 -0.015984297 0.21985519 -0.3330031 -0.03897682
-0.08841179 0.2621338 -0.3840551 0.3303274 -0.32267135 0.2289273 0.1332946 0.12517777
0.36350477 -0.2629164 -0.38163543 -0.30526972 -0.09386301 -0.026361186 0.26408517 -0.22243959
-0.036262095 -0.38870698 0.19377816 0.14144716 -0.24623346 0.0480572 -0.09299785 -0.2524898
-0.31064326 -0.38005736 0.2890767 -0.212417 0.21415378 0.2231305 -0.34771812 0.17265221
-0.3721331 -0.047716618 -0.17856249 0.17382927 -0.30114153 -0.29952148 0.37661973 0.1314626
0.3387862 0.02324948 -0.2609511 0.053833347 -0.2072439 -0.30069026 -0.101361066 -0.15806386
-0.23847811 0.13638996 -0.11820431 0.12955464 -0.16860348 -0.33148175 -0.14865226 -0.21149974
-0.30753303 -0.40561765 0.3619399 -0.36998057 0.019532599 0.28878108 -0.36515558 0.24732926
0.36186343 0.02864535 0.16335943 -0.39047322 0.28896093 0.26161176 0.16711505 -0.42531005

model_6/dense_10/BiasAdd/ReadVariableOp f4 [4]
00000000: 7233 4f3e ec6d 4c3e 6a45 4c3e 4cd1 4e3e
0.20234469 0.19963807 0.19948354 0.20197028

model_6/bidirectional_6/forward_lstm_6/Read_2/ReadVariableOp f4 [84]
00000000: 1865 8ebd 660f e2bd 1a4a bbbd bc1f c9bd
00000010: 82ff a2bd 8866 e5bd eca4 acbd 4aab 55bd
00000020: 89f3 f4bd 55a2 12be 7cad 9bbd 5fb7 e1bd
00000030: ca1c 8abd c733 9ebd a1f9 86bd b9d5 adbd
00000040: c2f5 74bd 288a 65bd cd9b f8bd 1890 24bd
00000050: 2090 05be c071 733f 1fa9 773f b6c8 713f
00000060: d45c 743f 593f 7a3f 7b4b 723f f6a8 733f
00000070: acc9 783f fae6 6c3f 07cc 743f b01d 793f
00000080: 49ff 6d3f bd22 783f dbf3 723f 7ef1 743f
00000090: 3e5d 743f 8695 763f 2d72 793f f020 703f
000000a0: a3ed 7a3f 4f9b 743f c26d 683a 34e4 f6ba
000000b0: 11ff 04bb 01f8 f9bb 181f dcbc 53ba c83b
000000c0: f7ac 57bc dfd9 84bb 677a 6c3b 473f 2b3c
000000d0: 80a5 7b3a b1f7 023b ad33 f6bb 65b4 bebb
000000e0: 246c 63bc bf19 06bc 633b b03a d9b2 323b
000000f0: 5328 9e3b 281b 623b 5fdb 243c c1ec 92bd
00000100: a88e e4bd 54f1 acbd b438 b3bd 12b3 95bd
00000110: f035 d0bd b198 a8bd 2cf0 39bd 5e6f ffbd
00000120: 7c95 fdbd e3a7 71bd 99d8 d6bd 03e1 6abd
00000130: d424 9ebd dd90 85bd cdba b1bd 2387 66bd
00000140: 7c37 67bd 0e26 04be 7cde 2cbd 3d59 09be
-0.06952876 -0.11038093 -0.09144993 -0.09820506 -0.079588905 -0.11201197 -0.08429894 -0.052165307
-0.11960513 -0.14319737 -0.07601449 -0.110213034 -0.06743772 -0.077247195 -0.06590582 -0.0848803
-0.059804685 -0.05603996 -0.12139092 -0.04017648 -0.1304326 0.95095444 0.96742433 0.94446886
0.95454144 0.9775291 0.94646424 0.9517969 0.97182727 0.9253994 0.9562382 0.97310925
0.9296766 0.96928006 0.94903344 0.9568099 0.95454776 0.96321905 0.97439843 0.9380026
0.98018855 0.9554948 0.0008866453 -0.001883632 -0.0020293633 -0.0076284413 -0.026870295 0.006125727
-0.013163797 -0.0040542926 0.00360837 0.010452098 0.00095995516 0.0019984061 -0.0075134845 -0.0058198445
-0.013880763 -0.008184849 0.0013445433 0.0027267246 0.0048265844 0.003450105 0.010062068 -0.071740635
-0.11160022 -0.08444467 -0.0875105 -0.073095456 -0.10166538 -0.082322486 -0.04539506 -0.124724135
-0.123820275 -0.058998 -0.104905315 -0.057343494 -0.07721868 -0.06521771 -0.086782075 -0.05628122
-0.0564494 -0.12905142 -0.042204365 -0.13412948

model_6/bidirectional_6/backward_lstm_6/Read_2/ReadVariableOp f4 [84]
00000000: e125 3abd 1122 f4bd 1190 c5bc eb2d b3bd
00000010: 803d 02be 7188 abbd 4c93 51bd dcd6 5abd
00000020: db34 96bd 043b 74bd e8e3 b9bd b609 99bd
00000030: 615f e3bc 9d49 60bd 6908 9fbd 837a e3bd
00000040: 35b1 dbbd de27 6abd b7cf d0bd 559a 34bd
00000050: 5aa2 a3bd 960c 783f aa73 703f 0cfc 833f
00000060: b8ef 773f fa0c 6e3f dd97 733f 4f2f 783f
00000070: 3e4a 7b3f 3c5a 763f 5dcd 7b3f a513 763f
00000080: d0ef 6f3f ee2c 803f 115c 783f 1456 7b3f
00000090: 4743 703f a85a 763f a9fb 793f 5f89 753f
000000a0: 8f11 833f 3f47 7c3f e301 f33b b1e1 843b
000000b0: 1c81 8c3c f252 223b 97fa 1a3c 464e 863b
000000c0: ff5a bb3b 15ff c4bb 3907 fe3b a868 3f3a
000000d0: c58d 14bc 11ca 59bc d99b 033c 8534 21ba
000000e0: 9e7d c8bb fb5a c83a b11f 9e3c 99bb 113c
000000f0: 0a67 9e3c 2916 9d3c a67f 55bc 361a 3cbd
00000100: 705f f1bd 2598 78bc 13cf b2bd 6bcb f2bd
00000110: 390e 97bd bd56 3fbd 540a 4bbd 14b7 9fbd
00000120: 54a2 2abd f6cd a5bd 93e8 84bd 3d54 b5bc
00000130: 2fc3 46bd ecd8 88bd 7264 f1bd dcd9 d6bd
00000140: 21a4 52bd 8a93 b9bd 5ac9 54bd b62a 99bd
-0.04544628 -0.1192056 -0.024116548 -0.087489925 -0.12718773 -0.083756335 -0.051165864 -0.053427562
-0.073343 -0.059626594 -0.09076673 -0.07472555 -0.027755441 -0.054757703 -0.07765276 -0.11107352
-0.10727159 -0.057166927 -0.101958685 -0.044092495 -0.079899505 0.96894205 0.9392649 1.0311294
0.96850157 0.9298855 0.951536 0.9694719 0.9816016 0.96231437 0.98360234 0.96123725
0.937253 1.0013711 0.9701548 0.9817822 0.9385266 0.9623208 0.9764963 0.95912737
1.0239733 0.9854621 0.0074159964 0.004055225 0.017151408 0.0024768678 0.009459159 0.0040986864
0.0057176347 -0.0060118535 0.007752326 0.0007301667 -0.009067004 -0.013292805 0.008032762 -0.00061494886
-0.0061184904 0.0015285903 0.019302221 0.008894824 0.019336242 0.019175606 -0.013030922 -0.045923434
-0.117857814 -0.015172993 -0.087309025 -0.11855205 -0.0737576 -0.04671358 -0.049570397 -0.07798591
-0.041658714 -0.080959246 -0.064896725 -0.022134895 -0.048525985 -0.066819996 -0.117867365 -0.10490772
-0.051426057 -0.09061344 -0.051949836 -0.074788496

model_6/dense_10/MatMul f4 [4, 840]
00000000: 56c6 613d b73a 8a3c f204 d5bc 95c2 843d
00000010: e59e 5bbd 8e5d 823d 8969 9c3c cfd3 a2bc
00000020: dd6b 52bd 0275 8a3c 524f 51bd 0ce3 073d
00000030: 68cf 43bd 8ea7 d13c 4d42 c8bb 0147 6b3d
00000040: 82db 82bd 7ba4 763d e61d babb cd5b 49bd
00000050: 0ba3 4ebd 7ed9 dbbc f6c1 b8bb 089b 0fbd
00000060: 4187 683d cff1 be3c 234c 91bd e64c 583b
00000070: eab3 7d3b af1d 09bd 8285 0a3d d585 ac3c
00000080: a2fe ebbc 5067 813c a14b 8c3d 7f31 42bd
00000090: ea1d 3b3c 2d64 2abd a380 3ebc bd74 c03c
000000a0: 1cf1 e7bc be8e 063d 271f 4d3d 3d69 563c
000000b0: df12 c1bd 0e74 153d afc5 63bd dba7 683d
000000c0: 47b3 d43c 690c 483c 8751 07bd ce1d 523c
000000d0: dd1d 71bd 7553 7b3d 1361 3abd 49a8 213d
000000e0: 9cbd 27bd 142e 133d 7e5f 4cbd c980 5e3d
000000f0: 94b9 073d 76a0 36bd 7817 0bbd bb85 d4bc
00000100: 648b 34bb c099 fcbc c45d 483d f439 f53c
00000110: f6c5 e13c 294f c83c 5d1b c23c a7cd f0bc
00000120: b1fc 0d3d 7154 353d 9334 263d cae2 023d
00000130: c7d5 2dbd ea6f 88bd ea56 a33c 932a 0abd
00000140: 864a 873d ff12 b13c 76e9 00bd acde 073d
00000150: 3810 1a3d 5f0a b03c 8018 07bc 02af 213d
00000160: d8b7 57bc b563 283d 731c 68bd ab3c 88bd
00000170: 93b6 ebbc c7b5 ed3c 70f9 df3a 1c2c 97bc
00000180: 391d 25bd a116 cc3b e143 e6bb d819 1c3d
00000190: 4c12 4fbd 7b76 a93c ff2d fb3b aedd b7bc
000001a0: 1f0b f6bc 4946 e9bc 9563 ff3c 724d cfbc
000001b0: 7728 853d fcc7 0c3d 4b87 dabc 45c8 1b3d
000001c0: cdf1 df3c a72b d3bc 9968 fd3c d4e9 c13c
000001d0: 14af 563c 0daa 363d 625d ca3a dcc0 4fbd
000001e0: 78f6 773c 7d29 fbbc 4506 a4bc c96b c03c
000001f0: b36f ebbc 0fa7 dd3c 0ce3 193d b2b6 643c
00000200: 2f20 393c a250 f63c 602e 793b 90e3 3d3d
00000210: 2f4e fa3c dde0 48bd 6351 03bd d00a 3f3d
00000220: dfef 8cbc 78fc 0a3d 0c01 23bd c8b5 b6bc
00000230: a845 2abb 1832 ed3c 1041 1dbd fced 2b3d
00000240: e45a b23c 8f02 f2bb 5105 01bd f119 d0bc
00000250: 5bb8 ff3c 7896 febc caed 2b3c dab3 b03c
00000260: 129c 9bbc 7c8b 7e3c 648d 1c3d 1594 e3bc
00000270: 84e9 1c3d 3fea 423d ac54 303d 2083 c93c
00000280: 9b02 1e3d 3550 47bd 3506 043d 4b5d 15bd
00000290: 6aae b63c 38ef 8d3c 7111 0cbd 27a6 a53c
000002a0: 0bb2 da3c 9def 0a3c be97 d5bc 982a 063d
000002b0: 5035 90bd c142 3c3d 2034 7b3c b26d 95bc
000002c0: f5ab 9fbc 44a4 123d e0d6 cdbc b8c6 e5bc
000002d0: 81fc 8fbc e43b e4bc a001 c6bc 1253 ed3c
000002e0: 404e 19bd f4c3 3e3d d755 513c 84e7 c4bc
000002f0: b058 12bd 4bd2 02bd 58d9 f4bb 6dad 07bd
00000300: 785e eb3c 5308 f13c d272 c83c d1e3 9e3c
00000310: 79c6 243d 414e 03bd 79a7 f43c 6088 853c
00000320: b41a b03c e5eb 893d 6c78 31bd 0a5f fbbc
00000330: 64f0 2ebc 3cbc 0cbd 1887 9a3d ad18 d93c
00000340: a229 07bd d183 943c 840d 1b3d cf2f 303c
00000350: fe2d e73b 649f e13c 5da3 7abd 6a9e de3c
00000360: 8b42 1f3d 9b5b 6abd 06a3 b4bc 389c f33c
00000370: 7098 403b a4a5 6a3d 8208 8bbc 42b1 24bd
00000380: c979 2d3c 90d6 b63c 5949 d6bc 7b1e 8d3c
00000390: 957b 163d 3e0e bfbc ee23 eabc 0fad dfbc
000003a0: fbc2 ae3c cc30 a9bc 62ad b23a a43a 873c
000003b0: 3572 b3bb 5d37 f93b 3d67 003d fb97 c3bc
000003c0: faa8 023d f00d 8a3c 001f 80bc 888d 673d
000003d0: 7227 513d 22a1 15bd 669b 9b3d 1fad 17bd
000003e0: 106e 203d 90c1 a43c cc5d f7bc cc2c ee3c
000003f0: c726 0a3d c65a 323c 777c e93b fd20 a03c
0.05512079 0.0168737 -0.026003335 0.06482426 -0.05361833 0.063655004 0.019093292 -0.019876389
-0.051372398 0.016901497 -0.051101036 0.033175513 -0.04780522 0.025592592 -0.0061114193 0.05744076
-0.06389524 0.060215455 -0.0056798337 -0.049159814 -0.05044846 -0.026837107 -0.0056383563 -0.03505996
0.056769613 0.023308663 -0.070946 0.003300482 0.0038711973 -0.033475574 0.03381873 0.02105991
-0.028807942 0.015796334 0.068503626 -0.047410484 0.011420706 -0.04159944 -0.011627349 0.023493165
-0.028313212 0.032850973 0.050078537 0.013086614 -0.094274275 0.03648763 -0.055608448 0.056800704
0.025964392 0.01220999 -0.033036735 0.012824489 -0.05886637 0.061358888 -0.045502733 0.03946713
-0.04095231 0.035932615 -0.049895756 0.054322038 0.033135965 -0.04458662 -0.03395793 -0.025942674
-0.0027548904 -0.030835032 0.048917547 0.02993486 0.027560215 0.024451809 0.023694688 -0.029394938
0.034664813 0.044269983 0.040577482 0.031954564 -0.042440202 -0.06661971 0.019938905 -0.03373201
0.06606011 0.021615503 -0.031472646 0.03317134 0.037613124 0.02148932 -0.008245587 0.03947354
-0.01316639 0.041110713 -0.056667756 -0.066521965 -0.028773582 0.029017342 0.0017087888 -0.01845365
-0.040311072 0.0062282835 -0.0070271348 0.038110584 -0.05055456 0.020686379 0.0076653953 -0.022444572
-0.0300346 -0.028475897 0.031175414 -0.025305483 0.06501859 0.034370407 -0.02667584 0.03803279
0.02733698 -0.025777651 0.030933665 0.023671068 0.013103265 0.044595767 0.0015439207 -0.050721034
0.015134446 -0.030659432 -0.02002252 0.023488896 -0.028739786 0.027057199 0.037570044 0.013959574
0.011299177 0.030067746 0.0038022026 0.0463596 0.030554859 -0.04904257 -0.03206004 0.04664117
-0.017204223 0.03393218 -0.03979592 -0.022303477 -0.002598146 0.02895455 -0.038392127 0.041975006
0.021771856 -0.007385559 -0.03149921 -0.025402995 0.031215837 -0.031077608 0.010493705 0.021570135
-0.018995319 0.015536185 0.038220778 -0.027780572 0.038308635 0.047586676 0.0430495 0.024598658
0.038576704 -0.048660476 0.032232482 -0.036465924 0.022299964 0.017325982 -0.03419632 0.02022083
0.026696226 0.00847998 -0.026073333 0.032755464 -0.070414186 0.0459621 0.015332252 -0.018240783
-0.019491175 0.035801187 -0.025126874 -0.028048858 -0.017576458 -0.02786059 -0.024170697 0.028970275
-0.03742814 0.046573594 0.0127768135 -0.024036177 -0.03572911 -0.031938832 -0.0074721985 -0.033124376
0.02873157 0.029422915 0.024468813 0.01939574 0.04022834 -0.03205705 0.029865013 0.01630038
0.021497108 0.067344464 -0.043327734 -0.030684967 -0.010677431 -0.0343592 0.07545298 0.026501024
-0.03299869 0.018129261 0.037854686 0.010753586 0.0070550432 0.027541824 -0.06119095 0.027175147
0.03888182 -0.057216268 -0.022050392 0.029737577 0.0029387735 0.057286873 -0.01697183 -0.04020811
0.010588118 0.022319108 -0.026158022 0.017226448 0.03673895 -0.02332222 -0.028581586 -0.0273042
0.021333208 -0.020653151 0.0013631994 0.016507454 -0.005476261 0.007605477 0.031348456 -0.02387618
0.03189943 0.016852349 -0.015639782 0.05653146 0.05106301 -0.03653062 0.07597999 -0.037030336
0.039167464 0.020111829 -0.030196093 0.029074095 0.033728387 0.0108859 0.007125433 0.01954698

model_6/bidirectional_6/backward_lstm_6/Read_2/ReadVariableOp1 f4 [84]
00000000: e125 3abd 1122 f4bd 1190 c5bc eb2d b3bd
00000010: 803d 02be 7188 abbd 4c93 51bd dcd6 5abd
00000020: db34 96bd 043b 74bd e8e3 b9bd b609 99bd
00000030: 615f e3bc 9d49 60bd 6908 9fbd 837a e3bd
00000040: 35b1 dbbd de27 6abd b7cf d0bd 559a 34bd
00000050: 5aa2 a3bd 960c 783f aa73 703f 0cfc 833f
00000060: b8ef 773f fa0c 6e3f dd97 733f 4f2f 783f
00000070: 3e4a 7b3f 3c5a 763f 5dcd 7b3f a513 763f
00000080: d0ef 6f3f ee2c 803f 115c 783f 1456 7b3f
00000090: 4743 703f a85a 763f a9fb 793f 5f89 753f
000000a0: 8f11 833f 3f47 7c3f e301 f33b b1e1 843b
000000b0: 1c81 8c3c f252 223b 97fa 1a3c 464e 863b
000000c0: ff5a bb3b 15ff c4bb 3907 fe3b a868 3f3a
000000d0: c58d 14bc 11ca 59bc d99b 033c 8534 21ba
000000e0: 9e7d c8bb fb5a c83a b11f 9e3c 99bb 113c
000000f0: 0a67 9e3c 2916 9d3c a67f 55bc 361a 3cbd
00000100: 705f f1bd 2598 78bc 13cf b2bd 6bcb f2bd
00000110: 390e 97bd bd56 3fbd 540a 4bbd 14b7 9fbd
00000120: 54a2 2abd f6cd a5bd 93e8 84bd 3d54 b5bc
00000130: 2fc3 46bd ecd8 88bd 7264 f1bd dcd9 d6bd
00000140: 21a4 52bd 8a93 b9bd 5ac9 54bd b62a 99bd
-0.04544628 -0.1192056 -0.024116548 -0.087489925 -0.12718773 -0.083756335 -0.051165864 -0.053427562
-0.073343 -0.059626594 -0.09076673 -0.07472555 -0.027755441 -0.054757703 -0.07765276 -0.11107352
-0.10727159 -0.057166927 -0.101958685 -0.044092495 -0.079899505 0.96894205 0.9392649 1.0311294
0.96850157 0.9298855 0.951536 0.9694719 0.9816016 0.96231437 0.98360234 0.96123725
0.937253 1.0013711 0.9701548 0.9817822 0.9385266 0.9623208 0.9764963 0.95912737
1.0239733 0.9854621 0.0074159964 0.004055225 0.017151408 0.0024768678 0.009459159 0.0040986864
0.0057176347 -0.0060118535 0.007752326 0.0007301667 -0.009067004 -0.013292805 0.008032762 -0.00061494886
-0.0061184904 0.0015285903 0.019302221 0.008894824 0.019336242 0.019175606 -0.013030922 -0.045923434
-0.117857814 -0.015172993 -0.087309025 -0.11855205 -0.0737576 -0.04671358 -0.049570397 -0.07798591
-0.041658714 -0.080959246 -0.064896725 -0.022134895 -0.048525985 -0.066819996 -0.117867365 -0.10490772
-0.051426057 -0.09061344 -0.051949836 -0.074788496

while/MatMul_11 f4 [84, 21]
00000000: 478a 3d3d 62ec c43d ba06 363e ed13 d33d
00000010: a360 b03d 41f6 393e 1b74 d43c 6a00 9dbd
00000020: 0426 993d 25c5 c4bc aaf8 01be fa0f a33d
00000030: 7944 193d e047 97bd 09a6 313e 798a ca3d
00000040: d09c 383d 7c39 973d b03c 313d 4d71 2d3d
00000050: dd1b 24bd bead 42bd e6d0 c03c ddd3 653c
00000060: 74aa 633d ee55 3cbe 7fc4 0bbc 31d2 5bbe
00000070: 903b babe 322c 543c 0b98 e1bc b2be 81bd
00000080: a47d 88bd db9a d5bd 346c af3c 75ed bd3c
00000090: 6d81 e3bd 7f8e d93d d180 29be 7c8c 153d
000000a0: 9851 12bd 214a 9cbe 167a 3c3c 2e2c 84be
000000b0: a498 573e 3ca6 023a 4e2d 153d d1c4 c53e
000000c0: 8728 57be 08f4 ebbd 4ec9 f43d 1f0f cbbe
000000d0: 073a 26be 688d 9ebb 2bfa 59bb d1e6 77bd
000000e0: 1a1b 453e b035 60be 0ca5 7f3e 9203 0e3c
000000f0: 22df 9dbe c92a 4a3e 1f84 28bd 3f0a 7d3d
00000100: 8863 703d 493d a73e d79f ab3d 2a8d 4abe
00000110: 3c42 47bd 44b6 41be 8d48 4bbe 3ada 183e
00000120: 0fda bfbb b47d e1bd 6d4c d2bd 59a3 0e3d
00000130: 1d6e 1dbe 7886 f83d 4e40 21be 8458 703e
00000140: 436c 80bd e646 72bd 6a59 523e be68 a03d
00000150: f7c4 8cbc ef69 89be 5207 3b3e 731e 0f39
00000160: e220 0ebe 6ed1 cb3c 99a9 15be 74f6 6c3d
00000170: 60cc a53c 5761 4d3d f591 8cbd 2f11 4ebe
00000180: f625 233e 8a1b eabd 4daf 1a3d 8449 88be
00000190: a0df 9e3d 5730 8dbd 7cda 09be c131 6f3d
000001a0: fd08 35be e111 afbc cba7 623d f5e9 2a3e
000001b0: 7b59 463c d11c 89bd 7b76 2fbc a919 a43d
000001c0: d593 42bd 8e6a 0d3e 5ad5 ff3d 5765 10be
000001d0: 447d 93bd b740 25bd 61a4 0cbe 38bc 9d3d
000001e0: 844a 14be 4e74 243e 8640 4abd 03b1 36be
000001f0: 6ebc 573d 2c6e b6bd e77d a73d 55a1 7abe
00000200: 631f 053e 24a2 633e 4ec8 14be 12d2 d73d
00000210: bc61 dfbd 4435 7fbd 6b77 553e 547c e03c
00000220: afec 0cbe 06b6 e9bd 0921 1fbe 2cd6 543d
00000230: e6d8 553b 76be eabd 5024 0a3e 339f 6d3c
00000240: 9678 dfbd 4edd 2fbe bb14 24bd 05c1 de3a
00000250: 61f7 2fbe 1bf2 873e affc 94bd 2856 7e3d
00000260: 8514 ec3c 802e 653d 9baf d2bc 3048 f13d
00000270: 4513 98bd 8b33 0ebe 22da ba3b 6c7e 64bd
00000280: d6a7 833e 4171 143e 663b 99bd e4a4 063e
00000290: eb81 053e 09ee 8ebc 7767 8b3e 0254 71be
000002a0: 4f83 ac3e cf38 cbbd 965e 163d d380 afbd
000002b0: 540f 7cbe aae2 353e 4c64 1bbe 9b93 fabd
000002c0: 1baa 993e 0300 3ebe af65 e6bb 4449 f7bd
000002d0: 3cbd cdbe 6de1 78be c01a 9d3d 0942 88be
000002e0: f78c 0d3e d560 003d 9126 3abe 3b48 a63d
000002f0: e079 96be dd93 823d b934 0e3d 32f5 503d
00000300: 680d 31be 6ea0 11be 56e9 9ebd 38ba c3bd
00000310: cb9a 05be 6463 c9bc af59 46be d9c6 e6bd
00000320: ce91 03bd 4918 1b3d 1ab7 09be 375f 523b
00000330: ebb1 a63d d81b 493e c9d1 9a3e 704a f2bc
00000340: 7b81 c43d 4715 7abd 83b5 373e 8cd8 b13c
00000350: acea 923e 1e64 00be b8c7 d3bd c2fb ae3d
00000360: 901d 9abe ae0f 54be 4888 b73e c973 a9be
00000370: 319a 3dbe 4632 82be 2778 a0bb 8b4b c03d
00000380: 1636 f7bc d126 aabd 5d80 6c3e d24c be3d
00000390: 4598 b0be b707 ae3e 3195 99be 382d a13d
000003a0: 46b5 fdbc 26ee 903d cc69 30be 7d97 42bd
000003b0: 2cce d6bd d5fa b5bd 0c7f 0cbe c353 483e
000003c0: 41fc dcbd 5e20 36be ce41 1abd 654b 8dbd
000003d0: ec1b 65bd 52e7 5fbd d22e ebbc 00f2 ca3e
000003e0: 27c0 3c3e f72c 383d 9e4e 30bd 68d8 ecbd
000003f0: 822d 63bd 2205 34bd 5bc9 023e b4bc b93d
0.04627445 0.09615399 0.17776003 0.10306535 0.08612182 0.18160345 0.02593427 -0.076660946
0.07477954 -0.024019787 -0.12692514 0.07962032 0.037418816 -0.07386756 0.17348494 0.09889693
0.045071423 0.07384011 0.043270767 0.04234438 -0.040065635 -0.047528975 0.02353711 0.014027563
0.05558248 -0.18392155 -0.008530735 -0.214669 -0.36373568 0.01294999 -0.02753832 -0.063352
-0.06664589 -0.10429927 0.0214139 0.023184517 -0.111086704 0.10622882 -0.16553046 0.03651093
-0.035722345 -0.30525306 0.011503717 -0.25814956 0.21054322 0.00049838773 0.03642016 0.38626722
-0.21011554 -0.11521155 0.11952458 -0.39659974 -0.16233073 -0.0048386343 -0.0033260684 -0.060522858
0.1924862 -0.2189548 0.24965304 0.008667843 -0.308343 0.19742884 -0.041141625 0.06177735
0.05868867 0.32663944 0.083800964 -0.19780412 -0.04864715 -0.18917185 -0.19851895 0.14926997
-0.005854852 -0.11010304 -0.10268483 0.03482375 -0.15374036 0.12135023 -0.15747187 0.23471266
-0.06270649 -0.059149645 0.20541921 0.07832478 -0.017183764 -0.26838633 0.18264511 0.00013648886
-0.13879731 0.024880137 -0.14615478 0.057852224 0.020239055 0.05014166 -0.068637766 -0.20123743
0.1593245 -0.11431034 0.037764836 -0.26618588 0.07757497 -0.06893986 -0.13462251 0.05839706
-0.1767921 -0.02137083 0.0553358 0.1669081 0.012106295 -0.066949494 -0.0107094 0.08012707
-0.047504265 0.13810179 0.124918655 -0.14101158 -0.07201627 -0.04034492 -0.1373458 0.077019155
-0.1448155 0.16059992 -0.04937794 -0.17840962 0.052669935 -0.08907732 0.08178311 -0.24475606
0.13000254 0.2222982 -0.14529535 0.105381146 -0.10907313 -0.062306657 0.20846336 0.027403034
-0.13762163 -0.11411671 -0.15539946 0.051962063 0.0032630502 -0.11462109 0.13490415 0.014503288
-0.10911672 -0.17174265 -0.040058833 0.001699478 -0.17184211 0.265519 -0.07274758 0.062093884
0.028818378 0.05595255 -0.0257185 0.11781347 -0.0742555 -0.1388685 0.005702273 -0.055784628
0.25713986 0.14496328 -0.074820325 0.13148838 0.13037841 -0.017447488 0.27227375 -0.23567203
0.3369393 -0.09922945 0.036711298 -0.08569493 -0.24615222 0.17762247 -0.15174979 -0.12235185
0.30012593 -0.18554692 -0.0070311646 -0.12074521 -0.40183437 -0.24304743 0.07671118 -0.2661288
0.13823305 0.031342346 -0.18178774 0.081192456 -0.29389858 0.06375859 0.03471825 0.051015086
-0.1729027 -0.14221355 -0.07759349 -0.09557003 -0.1304733 -0.024583526 -0.19370149 -0.11268396
-0.032121472 0.037864957 -0.13448754 0.003210021 0.08139404 0.19639528 0.30238178 -0.02957651
0.09595009 -0.061055448 0.17940335 0.021709703 0.28694665 -0.12538192 -0.10340828 0.08544113
-0.3010068 -0.20709106 0.35846162 -0.3309615 -0.1851585 -0.2542898 -0.004897136 0.09389409
-0.030177157 -0.08308185 0.23095842 0.09291996 -0.34491172 0.3399026 -0.29996637 0.07869953
-0.030970227 0.07076673 -0.17227858 -0.04750775 -0.10488543 -0.08885733 -0.1372034 0.19563203
-0.10790301 -0.17785785 -0.037660412 -0.06899146 -0.05593483 -0.054663964 -0.02870885 0.39637756
0.18432675 0.044964757 -0.043043725 -0.11564714 -0.05546332 -0.043950208 0.12772124 0.090691954

while/MatMul f4 [84, 32]
00000000: 07a7 83bd 2622 463e 3e52 41be 7f88 2dbe
00000010: b7a1 e4bd b78b 80be 8f26 1bbe 0d4b b5be
00000020: 4826 40be 909e 303e bf02 70be 6813 a33c
00000030: 4831 bd3d b68e 34be d6dc 2fbd 416e c83d
00000040: 3c7f a53d d97c 883d e092 473e 5028 66bd
00000050: 04df be3d b4de 493e 9076 093e 5c46 34be
00000060: 8f5d 3fbe deb0 32be e67f 253e 2890 653d
00000070: 3631 613e 3bb5 8a3c 34e1 5cbe 1e93 7ebd
00000080: 9675 3d3e cc4d ba3d 3632 b4be 87d0 21bf
00000090: c579 423d 497e d4bd 10a4 39be 3087 cabc
000000a0: 0020 473c 3468 2b3e 2879 56be 2452 24bd
000000b0: 4664 41be 00b7 bcbb 53a7 00be 92e8 34bd
000000c0: 8577 48be 7adf 8f3d 985c 973d 40a8 253b
000000d0: f400 31be ac6b 383e 5ae3 56be 9885 0fbe
000000e0: 1a53 24be f02a 253d 7ff8 ae3d b88a bdbd
000000f0: a070 bc3c bf2d 193d 8526 e33c 2754 05be
00000100: 00d3 c4bc 2261 c0bd 61de 8e3d 8a7a 00bc
00000110: ddaf 89be 434a 6dbe 0c60 a43d 86dc 2cbd
00000120: b259 123e 7764 debd 6322 b2be 60e1 32bc
00000130: ecb0 22bd 409b 293e 7278 9ebe 9d78 8bbe
00000140: 7adf 81bd 03cb 233e 1002 673e 6536 24be
00000150: 8093 093c 388d 6bbe 7c49 dbbd 450c 40be
00000160: fc47 00be 48fc 033d f6a1 0f3e acdf 103e
00000170: e495 cb3d 1eeb 143d 97a3 c1be ec24 aebe
00000180: dc81 b6bd 2014 6bbc 7465 c7be 579c c7be
00000190: 3c43 d1bd 6dee 88be bca8 9d3d ebe0 9abd
000001a0: 908e 113e d03e a73d 4eab c73c e2b0 5b3e
000001b0: 6c32 c4bd 0805 6d3d afa6 bc3d e7de 33be
000001c0: 8a31 c2bd b92b ae3d 7ca3 2cbd a8e0 253e
000001d0: 1e0a dbbd 5dcc 8f3c 76ce 673e 10ac 20be
000001e0: fc9f cebe 78d6 523d 3fbf cd3d 58ad 183d
000001f0: e881 08be 6c17 91bd 3e4f a7bd 6700 5bbe
00000200: 5928 083e 489b 483d 799f 71be 9364 f5bc
00000210: e310 0bbe 3b89 b9be 5e2d 4c3e 28ad cfbc
00000220: cc46 893d 906c b3bc 57f1 383e a8bd 183d
00000230: 34e8 50bd 3035 52bc 4cfb 95be 712b fbbd
00000240: 0c15 aabd 490f 8e3d e4a1 cfbd 9636 3d3e
00000250: d8ba 743d fc2a ab3d d080 1e3d 4612 1a3e
00000260: d287 55be 98a0 013e aaff 4c3e 685d bf3d
00000270: f644 5b3e 21d9 4c3a 2e81 2cbe 2282 5abd
00000280: 6c9f 49be 9410 e73d eddd 33be c8c1 bebe
00000290: c987 68be 5b41 7fbc a6eb 423e e661 193d
000002a0: 309a 8dbc 989c ad3c ebe4 1e3e 2e18 31be
000002b0: a04d 2ebe 449f 8bbd 3fba f2bd 6550 b83d
000002c0: 5622 12be f2bc 57bd 888f 473e 64df 64bd
000002d0: c8b7 7e3d 9d3c 07be f86e 693d 48b7 f13d
000002e0: 689f 19bd 58f7 053d 6a0b b3bb 00ce 9abd
000002f0: 10b7 27be 15a7 7abe 1299 273e c8fd 83bd
00000300: 25b7 a5bd dac6 c4bd d366 983d bfe3 4cbe
00000310: deb3 56be e90c 05be 70a6 2fbe 8dc0 21be
00000320: 94a6 a73d 4f1e 43be 4186 913d 7881 ccbc
00000330: 6854 9c3c f8c9 5d3e a8d2 d7bb 5b57 d7bd
00000340: 50ed 36bd 6d23 47be c215 fe3c 07b4 00be
00000350: 8089 1bbb a9b2 0d3d e021 acbd b2f3 c439
00000360: a794 443d 2071 1e3c 54d7 a8bd 825f 0c3e
00000370: 7732 46be 9207 203e 2242 1bbe 1824 02be
00000380: 0a80 803e b8d9 2bbe 464d 0c3b 0387 f3bd
00000390: 3ba7 22bd 6f6d b8bd f4ce 5b3e d47a b83d
000003a0: fc63 013e 7031 ebbc 29b8 77be 8010 21be
000003b0: 323e 4d3e fcd5 12bd 53fb 49be f050 7bbd
000003c0: d4af 71bd 82a7 04be 4e70 64be 5032 5a3e
000003d0: 76b5 67be 3fd2 f8be d29f 5f3e 8cae 5e3e
000003e0: e016 cebe 94c5 cf3d 8caa db3d 4ce2 43be
000003f0: 508b a8bd c51f 753c b7ee eebc 0ce3 43be
-0.06428342 0.19348964 -0.18879029 -0.169466 -0.11163657 -0.25106594 -0.15151428 -0.35408822
-0.18764603 0.17247987 -0.23438548 0.019906715 0.09237915 -0.17632565 -0.042935215 0.09786654
0.08080909 0.06664438 0.19489622 -0.05619079 0.093198806 0.19713861 0.13424134 -0.17604965
-0.18688034 -0.17450282 0.1616207 0.05604568 0.21991429 0.01693212 -0.21570283 -0.06215202
0.18501887 0.0909687 -0.35194558 -0.6320881 0.04747941 -0.103756495 -0.18128991 -0.024722666
0.0121536255 0.16738969 -0.20944655 -0.040117398 -0.18885908 -0.00575912 -0.12563829 -0.04416711
-0.19576843 0.07025047 0.07390708 0.0025277287 -0.1728552 0.18009824 -0.20985165 -0.14015806
-0.16047326 0.04032415 0.085434906 -0.09254974 0.023002923 0.037397142 0.027728328 -0.13020383
-0.024026394 -0.093935266 0.06976009 -0.007841716 -0.26891986 -0.2317286 0.08026132 -0.042202495
0.14292029 -0.10859006 -0.3479186 -0.010917991 -0.039719507 0.1656313 -0.30951267 -0.27240458
-0.06341453 0.15995412 0.2255938 -0.16036375 0.008396983 -0.2300309 -0.107073754 -0.1875468
-0.1252746 0.032223016 0.14026627 0.14147824 0.09940699 0.036357038 -0.37820122 -0.34012544
-0.089114875 -0.01434806 -0.3894459 -0.38986465 -0.10217902 -0.26744404 0.07698199 -0.07562431
0.1421454 0.081662774 0.024373677 0.21454194 -0.0957993 0.057866126 0.0921148 -0.17565499
-0.09482105 0.08504433 -0.0421481 0.16198981 -0.10695289 0.017553503 0.22637352 -0.15690637
-0.40356433 0.051474065 0.10046243 0.03727469 -0.13330805 -0.070845455 -0.08169411 -0.21386872
0.13296641 0.048976213 -0.2359599 -0.029955184 -0.1358066 -0.3623751 0.19939181 -0.025351122
0.067029566 -0.021902353 0.18060814 0.037290245 -0.051002696 -0.012830064 -0.29293287 -0.12264145
-0.083047956 0.06936509 -0.101383 0.18477854 0.0597485 0.08357808 0.038697064 0.15046033
-0.20852593 0.12658918 0.20019403 0.09343988 0.21413025 0.0007814337 -0.16846153 -0.05334676
-0.19689721 0.11282459 -0.17565127 -0.37257218 -0.22708048 -0.015579547 0.19035205 0.03744688
-0.017285436 0.021192834 0.15517013 -0.1729438 -0.17021799 -0.06817487 -0.1185193 0.08999709
-0.1427091 -0.052670427 0.19488347 -0.055877104 0.062186986 -0.13206716 0.056990594 0.11802536
-0.037505537 0.03270659 -0.005464007 -0.07558823 -0.16378427 -0.24477799 0.16366985 -0.06444889
-0.08091573 -0.096082404 0.07441487 -0.20008753 -0.20967051 -0.12993206 -0.17153335 -0.15796109
0.08186069 -0.1905453 0.07105685 -0.02496408 0.019083217 0.21659076 -0.0065863915 -0.105147086
-0.044659913 -0.19447108 0.031016234 -0.12568675 -0.002373308 0.03459421 -0.08404899 0.000375656
0.04799333 0.009670526 -0.082441956 0.13708308 -0.19355188 0.15627888 -0.15161946 -0.12709081
0.25097686 -0.16782272 0.0021408363 -0.11890986 -0.039710265 -0.09005248 0.21465665 0.090078026
0.12635797 -0.028710097 -0.24191345 -0.1572895 0.20043257 -0.035848603 -0.19724779 -0.061356485
-0.059005573 -0.12954524 -0.22308466 0.21308255 -0.22627816 -0.48597905 0.2183831 0.21746272
-0.40251827 0.10145107 0.107258886 -0.19129294 -0.08229697 0.014961188 -0.029166562 -0.1912958

model_6/bidirectional_6/forward_lstm_6/Read_2/ReadVariableOp1 f4 [84]
00000000: 1865 8ebd 660f e2bd 1a4a bbbd bc1f c9bd
00000010: 82ff a2bd 8866 e5bd eca4 acbd 4aab 55bd
00000020: 89f3 f4bd 55a2 12be 7cad 9bbd 5fb7 e1bd
00000030: ca1c 8abd c733 9ebd a1f9 86bd b9d5 adbd
00000040: c2f5 74bd 288a 65bd cd9b f8bd 1890 24bd
00000050: 2090 05be c071 733f 1fa9 773f b6c8 713f
00000060: d45c 743f 593f 7a3f 7b4b 723f f6a8 733f
00000070: acc9 783f fae6 6c3f 07cc 743f b01d 793f
00000080: 49ff 6d3f bd22 783f dbf3 723f 7ef1 743f
00000090: 3e5d 743f 8695 763f 2d72 793f f020 703f
000000a0: a3ed 7a3f 4f9b 743f c26d 683a 34e4 f6ba
000000b0: 11ff 04bb 01f8 f9bb 181f dcbc 53ba c83b
000000c0: f7ac 57bc dfd9 84bb 677a 6c3b 473f 2b3c
000000d0: 80a5 7b3a b1f7 023b ad33 f6bb 65b4 bebb
000000e0: 246c 63bc bf19 06bc 633b b03a d9b2 323b
000000f0: 5328 9e3b 281b 623b 5fdb 243c c1ec 92bd
00000100: a88e e4bd 54f1 acbd b438 b3bd 12b3 95bd
00000110: f035 d0bd b198 a8bd 2cf0 39bd 5e6f ffbd
00000120: 7c95 fdbd e3a7 71bd 99d8 d6bd 03e1 6abd
00000130: d424 9ebd dd90 85bd cdba b1bd 2387 66bd
00000140: 7c37 67bd 0e26 04be 7cde 2cbd 3d59 09be
-0.06952876 -0.11038093 -0.09144993 -0.09820506 -0.079588905 -0.11201197 -0.08429894 -0.052165307
-0.11960513 -0.14319737 -0.07601449 -0.110213034 -0.06743772 -0.077247195 -0.06590582 -0.0848803
-0.059804685 -0.05603996 -0.12139092 -0.04017648 -0.1304326 0.95095444 0.96742433 0.94446886
0.95454144 0.9775291 0.94646424 0.9517969 0.97182727 0.9253994 0.9562382 0.97310925
0.9296766 0.96928006 0.94903344 0.9568099 0.95454776 0.96321905 0.97439843 0.9380026
0.98018855 0.9554948 0.0008866453 -0.001883632 -0.0020293633 -0.0076284413 -0.026870295 0.006125727
-0.013163797 -0.0040542926 0.00360837 0.010452098 0.00095995516 0.0019984061 -0.0075134845 -0.0058198445
-0.013880763 -0.008184849 0.0013445433 0.0027267246 0.0048265844 0.003450105 0.010062068 -0.071740635
-0.11160022 -0.08444467 -0.0875105 -0.073095456 -0.10166538 -0.082322486 -0.04539506 -0.124724135
-0.123820275 -0.058998 -0.104905315 -0.057343494 -0.07721868 -0.06521771 -0.086782075 -0.05628122
-0.0564494 -0.12905142 -0.042204365 -0.13412948

while/MatMul_14 f4 [84, 21]
00000000: 71a2 5f3e 5467 04bd c819 2fbc c189 5fbe
00000010: c5e2 3d3e f05f a0be 3471 0ebe 10d5 58be
00000020: 42e1 113e c2fc babb f60b 37bd e2a4 20bd
00000030: 216a dd3d da4b e83d 626b 83be 13d4 8abe
00000040: a30b 843e 9c96 fdbc 441f 0cbe 6d6c aebd
00000050: dd3f 863e 6014 9cba 136a 47be 0cfa 183e
00000060: a97a 5abe 71cf 333e 0e1f 7bbd 89cb e0bd
00000070: 1368 74bd 1d97 313e 82e1 40be 5d66 553e
00000080: d7ad ecbc 5766 823d 8624 253e fd03 e93b
00000090: 7b22 12be d1e7 8e3e 9db8 e83d d516 febd
000000a0: b0bc 2a3e b0eb 3f3e 14db 0cbe 480d a1bd
000000b0: adc1 07bd b78b 81bd 40b7 a6bd 2743 74bd
000000c0: 93ec 313d c4b7 bb3d f5a1 8c3d 671c bf3d
000000d0: 5b3d 31bd a823 0e3e db4c 8d3d 7fa1 193d
000000e0: ce20 853d 1756 38be e43d 1d3e 0142 2bbc
000000f0: 08a9 c0bd 2a6b 6abd 2e3b 753d 11f9 8cbe
00000100: ec47 14be 5ca4 493e a708 a1be a10e df3d
00000110: c32c 7b3c 0153 a13c 7127 f63b 1ff1 a73e
00000120: 7f4d a0be 8f79 833e be78 b7bd 6aeb 7e3e
00000130: 9f06 3c3d 1728 a5bd 24fc b7bd 064c 853e
00000140: 9a91 4f3d b68e edbd d608 8e3e c950 343e
00000150: 474e 81bd 68dc a13a a486 c13b 035f 3abe
00000160: 2a81 b13d 3a12 08be e350 edbd a1e4 df3d
00000170: 5406 d03d aea4 393d f9b9 9f3d 9608 3f3e
00000180: 119d 32bd 0d4c 67be 4f6e 303e 2da2 103e
00000190: 3e9b b1bc 84ea 32bd 2d2f b9bb 7127 a6bd
000001a0: 5580 0abe d588 36bd a4f3 52bd 46ec 0f3d
000001b0: 2d7c eabe 4a83 80bc 99cb 6ebd 7cff 5c3e
000001c0: 8b3c b83d 5d19 413e fcf2 18be 0aef dcbd
000001d0: 4a8b 1cbe c7f8 59be 5c8f f9bc 0cbc 293e
000001e0: b59a 1bbe 95af 973e 1350 37be b80f a4bd
000001f0: 256d a83d be0d 3c3e a929 3c3e b70d dc3c
00000200: 3854 e13d df0e 04be 9020 413d bd47 263d
00000210: b283 003e 4dcc 803e fa08 8b3d ace1 aebd
00000220: ed5a 0fbd 155f c53d dedc de3d 6daa c439
00000230: b9ec 693d d4b7 19bd 5954 69be 7651 96bd
00000240: ba9d 58bd d2a5 823d 6847 59bd 80cc 953d
00000250: fd21 03be f99a 933d 3d57 a4be 4df7 1c3e
00000260: acc7 153c 1b8e 3b3d 9024 cf3d 85b4 3b3e
00000270: 92ce 9a3d 54e2 de3d 2e6d 7dbd f2ab ac3d
00000280: dfd6 05bd 6e91 9c3d 4495 86bc 0a40 ba3a
00000290: c5c7 9bbc 1b0f cebd 3fa5 873e a589 f43d
000002a0: a914 5cbe d370 3dbd 8e3e c13d 20ab 86be
000002b0: 4764 6fbc 1f6d a1bd a2fc 09be e8de 0d3e
000002c0: d596 533b 7dde ccbd f39e 67bd 04c1 0cbd
000002d0: 0aa6 f93a e137 383e 1016 38be c8f4 a8be
000002e0: f820 093e 0711 c3bd e360 2fbe 4cf8 103e
000002f0: 0141 453d 2252 c3bd 1069 10bc ceb7 7fbe
00000300: dcc4 90be 5ecf c1bd 6b8f cc3c 94ae 1cbc
00000310: bc90 a6bd 6200 3d3e f298 f33d 50af 103b
00000320: efca 043e 3c98 e13d e990 11bd daca 5f3c
00000330: 23d5 42bd c890 163d a471 e53d ea49 d23d
00000340: 6a8c ecbd 32bb f6bd 67a9 bb3d 46cd 0fbe
00000350: a048 6b3d 6080 81bd 0880 023c 880a d13c
00000360: cc08 5e3d a524 af3d 0fb4 86be f78c 7cbd
00000370: 7c0b 033d 3c50 04bc 146e 963d 297e 42bd
00000380: fed1 b3bc 6a7c 523d ef91 a73e ae98 9ebb
00000390: 8668 663d 5197 14be 4bcd 803d f337 8b3d
000003a0: f549 3abe 7d00 0e3c 0b86 72bd e68d 3b3e
000003b0: 8ded cc3c e4b1 00be 4b69 d43d 6921 6bbd
000003c0: 1975 20bd 9cb1 66be c9dc b7bd 4374 613e
000003d0: 7912 313e d572 413b 907c bdbd f32d 91bd
000003e0: d87e 82be 2be5 6a3d 0e63 1b3e 5e5f 88bd
000003f0: e4f2 e9bd d4ce 11be 940d 093c 1e71 16be
0.2183931 -0.032325104 -0.010687299 -0.21829893 0.18543537 -0.31323195 -0.13910371 -0.21175027
0.14246085 -0.0057064006 -0.04468914 -0.039219745 0.10811258 0.113425925 -0.25667864 -0.27114925
0.25790128 -0.030955605 -0.13683802 -0.08516774 0.262206 -0.0011907928 -0.19474058 0.14939135
-0.21335854 0.17559601 -0.061308913 -0.10976321 -0.059669565 0.17342801 -0.18836024 0.2083983
-0.028891487 0.06367176 0.16127214 0.007111071 -0.14270966 0.27911237 0.11363337 -0.124066986
0.16673541 0.18742251 -0.13755447 -0.07863861 -0.033143688 -0.063254766 -0.08140421 -0.059634354
0.043438505 0.0916591 0.06866828 0.09331589 -0.043271404 0.1388079 0.06899425 0.03750753
0.065003976 -0.1800159 0.1535564 -0.010452748 -0.0940724 -0.057231106 0.05987089 -0.27533773
-0.14480561 0.19691604 -0.31451914 0.10891462 0.015330496 0.0196929 0.007512026 0.32801148
-0.31309125 0.2567868 -0.089585766 0.24894491 0.045904752 -0.08064287 -0.08983639 0.26034564
0.050675966 -0.115994856 0.27741116 0.17608942 -0.06313758 0.0012349011 0.005905943 -0.18200307
0.08667214 -0.13288203 -0.115876935 0.109322794 0.10157457 0.045323066 0.07799143 0.18655619
-0.04360682 -0.22587605 0.1722958 0.14124365 -0.02168047 -0.043680683 -0.0056513757 -0.081129916
-0.13525517 -0.044564087 -0.051501885 0.035137437 -0.45797864 -0.015687604 -0.058299635 0.21581835
0.08995923 0.18857332 -0.14936441 -0.107877806 -0.1528751 -0.21286307 -0.030463867 0.1657564
-0.15195735 0.29626146 -0.1790164 -0.080108106 0.08223943 0.18364617 0.18375267 0.026862008
0.110023916 -0.12896298 0.047150195 0.04059576 0.12550238 0.2515587 0.067888215 -0.08539137
-0.034998823 0.09637276 0.10881971 0.0003751101 0.057110522 -0.037528828 -0.22786082 -0.07339756
-0.052884795 0.06379284 -0.053046614 0.07314396 -0.12805934 0.07207293 -0.32097808 0.15328713
0.009141844 0.04578982 0.101143956 0.18330581 0.075589314 0.108830124 -0.0618717 0.084312335
-0.03267562 0.07644926 -0.016428597 0.0014209759 -0.019016156 -0.10061475 0.2649326 0.11940316
-0.21492256 -0.046250176 0.094357595 -0.26302433 -0.01461131 -0.07882141 -0.13475278 0.13854563
0.0032285948 -0.10003374 -0.05654807 -0.03436376 0.0019046676 0.17990066 -0.17977166 -0.32999253
0.13391483 -0.09524732 -0.17126803 0.14157218 0.048157696 -0.0953715 -0.008814111 -0.2497246
-0.28275192 -0.0946338 0.02497073 -0.009563107 -0.08133075 0.18457177 0.118944064 0.002207715
0.12968038 0.110153645 -0.035538588 0.013659203 -0.047566544 0.036759168 0.11203316 0.10268004
-0.11550219 -0.120474234 0.0916317 -0.1404315 0.057442307 -0.06323314 0.007965095 0.025517717
0.054207608 0.08551911 -0.2630925 -0.061657872 0.031993374 -0.00807577 0.073452145 -0.047483597
-0.021950718 0.05138818 0.32728526 -0.004839978 0.056252025 -0.14510848 0.062891565 0.06797781
-0.18192275 0.008667109 -0.059209865 0.18315849 0.025015617 -0.1256786 0.103716455 -0.05740491
-0.039174173 -0.2252869 -0.08977658 0.22017007 0.17292203 0.0029517908 -0.09252274 -0.07088842
-0.254874 0.057347458 0.15174505 -0.06658815 -0.11423281 -0.14239055 0.008365054 -0.14691588

while/MatMul2 f4 [84, 32]
00000000: 3a93 bf3b e6f9 5a3e 61e0 16be 0d0e 1abe
00000010: ae39 643c c4b2 92be 9c61 af3d 28cc 58be
00000020: e67f 183e 80d0 873b 1e67 3c3e f8de f2bd
00000030: 2082 833d e847 2ebd 1b58 fb3d 619a c73d
00000040: 7c70 1e3e 49b5 b1bc cf21 c73c ca41 92bd
00000050: 50ab 483d 74b2 34be 3842 b53d 3b0f 51be
00000060: 090f 8ebe f26a 583e 68a7 a53d 1028 fd3c
00000070: 307b 143d e1c8 73be 0600 95be 3d34 fd3c
00000080: cffb 47be 0254 443e bc8e d8be a59a 04be
00000090: 5cbe 09bd fe02 75be cc23 84bd 7170 59be
000000a0: 9078 55bc 4c9d 363e f533 7a3d 309e 683d
000000b0: 58fa 153d f06e 0b3e 8275 86be 156e a13c
000000c0: 5518 24be c45a 373e 7e87 333e d162 2bbe
000000d0: e041 553e c6cb 25be 90ba 27be de37 403e
000000e0: 49b6 15be 50d9 c2bc 7e28 4b3e af8d debd
000000f0: 054c ecbd d681 8b3b fd8c c9be 7cf0 a6be
00000100: 37a6 e33d e0d7 bdbd 976b 98be 1576 07bf
00000110: 0a54 e33d c848 163e 24b4 083e 26cc bb3d
00000120: e6b4 193e 3c32 fe3d 5fcf 7ebd ae04 433e
00000130: 44c3 ae3d d09d 573d 76eb 73be 4989 93bd
00000140: e8f7 a13c 39c5 bfbd fb36 0ebe 20ef 28bd
00000150: 94b5 80bd 6562 79be b6fd 633e 2a4b eebd
00000160: 7cfe 80bd 6091 64bd 7c07 f3bd c082 483e
00000170: d00c 393e 4f22 1cbb 8882 b23d 93e5 8cbd
00000180: 46a5 303e 28d5 2bbe f05d b0be 7abe 03bf
00000190: 2758 7bbe b630 51bd 1acf 21be 9aa5 77be
000001a0: b4d6 57be c061 9dbd bfd8 263e fcea 0f3e
000001b0: 82d1 3bbe 9274 213e 9884 c7be c767 933c
000001c0: 6cde 113e dcb5 d9bc 7346 92bc c01a 683e
000001d0: 905e 353d 6321 c7bc b0c0 273e a5c6 2ebe
000001e0: 98ad 8bbe 56b3 16be 2e7a 413e a6bc 1cbe
000001f0: 9e83 573e f5a0 e0bd 2ceb 11be 0f43 a9be
00000200: 0a36 cabc 2293 363e d129 9d3d 8cb8 edbe
00000210: 5e5c cabd 8a9c 91bc 2070 e93d 9472 c9bd
00000220: 58f9 5b3e 604f 5abd 9e5b 403e d059 183d
00000230: b00c e43c e887 3fbd 52de 87bc 5027 53bc
00000240: ccd5 c63d 8275 e0bc 3dc5 8dbc 6001 523c
00000250: 6053 e83d 28f4 26bd 8648 89bd a059 bdbc
00000260: 9a42 3dbe a884 0d3e 3e82 423b a827 d63d
00000270: 139d 11be a9b8 0fbe 4945 1d3c fd4d 00be
00000280: fa1b cbbd 40e5 efbb 0969 01bd 3351 0abf
00000290: 7ecb 423e 2762 2fbe a713 57be 8af7 58be
000002a0: d0e8 91bd 9878 323d ac1a 9fbe e8db 1c3e
000002b0: b055 e6bc 4ec4 45be 32b9 46be 7222 42be
000002c0: 4ef2 223e 060c a53d 084a 263e 40cd 4e3e
000002d0: a078 c63c d61c 4f3d 2cd6 3dbe b8f5 b03d
000002e0: 580b 37be 1cbc 313e bf9d 1abe da72 3e3e
000002f0: b880 463d 50b8 91be 2e89 7bbe 971a 4b3d
00000300: d9b3 7abe 6691 393e 9496 93be d95b a0be
00000310: f6f7 0f3e 6f7c f7bd 0134 c639 295d f03d
00000320: d6d0 e7bd c26d d2bd 89aa 7dbd f8dd 403d
00000330: 18b1 29be 8828 1abe 6443 2abd dafd f43c
00000340: c13c f1bd ac4d 0f3e 98a0 6a3d ae09 293e
00000350: 00ca b839 8f26 163e 68a7 373e 2cd9 ff3d
00000360: 1ea4 a0be 705e 6bbc 2454 ce3d 6875 723d
00000370: 9478 5c3e 5240 fb3d 90cc 13be 19cd 0ebe
00000380: 86ef 0abd e0c5 303e b846 ac3c 02e9 c7be
00000390: 56f4 9fbd 10f0 94bd f5f3 5ebe 084d 31bd
000003a0: 682b d8bd f89b bbbc a3b9 5fbe 017d 42be
000003b0: a8cf c73d c09e 553c 20de e1bd 5fa2 f13d
000003c0: a0ca 233e 41bb 913c 035f cbbd 909b 923d
000003d0: cccb 3e3e 9d6e ddbc b4a3 37bd 1562 f9bd
000003e0: 324a 47be 4c4d d33d 9e4c d6bb a085 1cbc
000003f0: 3d96 13be fa1a 203e 170b b0bb 5ccb 28be
0.005846408 0.21384391 -0.14734031 -0.15044422 0.0139297675 -0.28652012 0.085635394 -0.2117163
0.1489254 0.004144728 0.18398711 -0.11858934 0.06421304 -0.042549044 0.12272664 0.09746242
0.15472597 -0.021692889 0.024308113 -0.071414545 0.0489915 -0.176462 0.08850521 -0.20415966
-0.27745846 0.21134546 0.08088571 0.030902892 0.036250293 -0.23807098 -0.2910158 0.030908698
-0.19529651 0.19172671 -0.42296398 -0.12949617 -0.033628806 -0.23926923 -0.0645214 -0.21234299
-0.013029233 0.17833441 0.061084706 0.056791484 0.0366157 0.13616538 -0.26261526 0.019705812
-0.16024907 0.17905718 0.17532155 -0.16736914 0.2082591 -0.16191015 -0.16379762 0.18771312
-0.14620318 -0.023785263 0.19839665 -0.10866868 -0.11537937 0.004257421 -0.39365378 -0.3260535
0.11115687 -0.092696905 -0.29769585 -0.52914554 0.111000136 0.14676201 0.13349968 0.091697976
0.15010414 0.12411925 -0.062209483 0.19044754 0.08533338 0.052640736 -0.2382029 -0.072039194
0.019771531 -0.09363789 -0.13888161 -0.041243672 -0.06284633 -0.24353941 0.22264752 -0.1163543
-0.06298539 -0.055802703 -0.11866662 0.19581127 0.18071294 -0.002382416 0.08716303 -0.06879725
0.17250547 -0.16780531 -0.3444667 -0.5146252 -0.24545346 -0.051071845 -0.15801659 -0.24184266
-0.21077996 -0.0768466 0.1629362 0.14054483 -0.1834164 0.15767124 -0.38968349 0.01799382
0.14245003 -0.026575975 -0.017855858 0.22666454 0.044279635 -0.024307912 0.16382098 -0.17067964
-0.2728088 -0.14716849 0.18894264 -0.15306339 0.21046302 -0.109682 -0.14249867 -0.33058974
-0.024683971 0.17829564 0.076739915 -0.4642986 -0.09880899 -0.017774839 0.11398339 -0.09836307
0.21481836 -0.053298354 0.18784949 0.037195027 0.027838081 -0.04676047 -0.016585503 -0.012887791
0.09708747 -0.027399782 -0.017305965 0.012817711 0.113440275 -0.04076019 -0.06703286 -0.023114026
-0.18482438 0.13820136 0.0029679681 0.104567826 -0.14220075 -0.14035286 0.009599038 -0.1252975
-0.099174455 -0.00732103 -0.03159431 -0.5403015 0.19022939 -0.17127286 -0.2100359 -0.21188179
-0.071244836 0.04357204 -0.31075037 0.15318263 -0.02811703 -0.19313166 -0.19406584 -0.18958452
0.15912744 0.08058934 0.16239178 0.20195484 0.02422744 0.05056461 -0.18538731 0.08640617
-0.17875421 0.17356914 -0.15099238 0.185985 0.0484626 -0.28460932 -0.24564049 0.049585905
-0.24482669 0.18121871 -0.2882582 -0.31320074 0.14059433 -0.12084281 0.0003780425 0.11736519
-0.11319129 -0.10274841 -0.061930213 0.047086686 -0.16571462 -0.15054524 -0.041568175 0.029906202
-0.11779166 0.13994473 0.05728206 0.16507599 0.00035245717 0.14663146 0.17934954 0.12492594
-0.3137521 -0.014365777 0.10074642 0.059194 0.21530372 0.122681275 -0.14433503 -0.13945426
-0.033919834 0.17262983 0.021029815 -0.39044958 -0.07810275 -0.07272351 -0.2177275 -0.043286353
-0.10555154 -0.02290152 -0.21848159 -0.18992998 0.09756404 0.013038337 -0.11028695 0.11798548
0.15995264 0.017789485 -0.099302314 0.071585774 0.1863243 -0.027030284 -0.044833854 -0.12176911
-0.19461897 0.103174776 -0.006539895 -0.009553343 -0.1441278 0.1563529 -0.0053724158 -0.16483825
