check_points/model_tflite/student_model_prune_quant.tflite (tflite, 67540 bytes, 12 tensors)

model_6/conv1d_6/BiasAdd/ReadVariableOp f4 [32]
-0.16344365 0.0 -0.01947673 -0.015763147 -0.011153506 -0.029424066 -0.0011814941 -0.030435083
0.0 0.0 -0.16920446 0.0 -0.0014779596 0.0 -0.0072509423 -0.08078893
0.0 -0.0016556435 -0.0018439182 0.0 0.0 -0.09123349 -0.00035588344 -0.0015842124
-0.011281427 0.0 -0.0014157827 0.0 0.0 -0.10727369 -0.01173074 -0.09517724
00000000: c65d 27be 0000 0000 aa8d 9fbc b721 81bc
00000010: 32bd 36bc bd0a f1bc 5ddc 9aba ff52 f9bc
00000020: 0000 0000 0000 0000 ef43 2dbe 0000 0000
00000030: 18b8 c1ba 0000 0000 5099 edbb ab74 a5bd
00000040: 0000 0000 2d02 d9ba a1af f1ba 0000 0000
00000050: 0000 0000 a0d8 babd de95 bab9 59a5 cfba
00000060: bcd5 38bc 0000 0000 c991 b9ba 0000 0000
00000070: 0000 0000 4fb2 dbbd 4a32 40bc 49ec c2bd

model_6/conv1d_6/Conv1D f4 [32, 1, 1, 4]
0.16387047 -0.30855238 0.25016442 0.11618355 0.20664036 -0.3178875 -0.4039436 -0.30211708
0.24188036 0.33262587 -0.14768769 -0.28780314 -0.27368554 0.26483902 0.2731532 -0.09334268
0.32880998 0.09497953 -0.24218364 -0.025490163 -0.34767374 0.26453704 0.3768772 -0.16125207
-0.4042013 -0.02834472 -0.08700296 0.22063187 0.26305097 -0.26268402 0.24604586 -0.13496393
0.1293301 0.14927042 -0.25280866 -0.3121205 0.106730044 -0.38929436 0.025913626 -0.38750693
0.04336496 0.017343467 0.22787678 0.10520803 -0.32691497 -0.26771984 0.18262911 -0.07929674
-0.39946342 0.087837525 0.12271101 0.01902951 -0.015984297 0.21985519 -0.3330031 -0.03897682
-0.09159266 0.25989863 -0.3868219 0.32784805 -0.32466808 0.2275367 0.13171358 0.12347381
0.36350477 -0.2629164 -0.38163543 -0.30526972 -0.09386301 -0.026361186 0.26408517 -0.22243959
-0.036262095 -0.38870698 0.19377816 0.14144716 -0.24623346 0.0480572 -0.09299785 -0.2524898
-0.31064326 -0.38005736 0.2890767 -0.212417 0.21103875 0.22077999 -0.35048562 0.17004357
-0.3721331 -0.047716618 -0.17856249 0.17382927 -0.30114153 -0.29952148 0.37661973 0.1314626
0.33565325 0.021183034 -0.26370966 0.051545117 -0.2072439 -0.30069026 -0.101361066 -0.15806386
-0.23847811 0.13638996 -0.11820431 0.12955464 -0.16860348 -0.33148175 -0.14865226 -0.21149974
-0.30753303 -0.40561765 0.3619399 -0.36998057 0.019006254 0.28876236 -0.36541024 0.2470944
0.361748 0.029511511 0.16361986 -0.38982475 0.28783232 0.26136258 0.16641392 -0.42587385
00000000: a9cd 273e 94fa 9dbe 8d15 803e a4f1 ed3d
00000010: 8899 533e 27c2 a2be b2d1 cebe 17af 9abe
00000020: 7caf 773e f04d aa3e 713b 17be ef5a 93be
00000030: 8320 8cbe fb98 873e bcda 8b3e 722a bfbd
00000040: c859 a83e a184 c23d fdfe 77be bfd0 d0bc
00000050: 4b02 b2be 6671 873e 0cf6 c03e 431f 25be
00000060: 79f3 cebe 3033 e8bc 9c2e b2bd 52ed 613e
00000070: 9eae 863e 857e 86be 72f3 7b3e fc33 0abe
00000080: 1c6f 043e 58da 183e 2370 81be 42ce 9fbe
00000090: 4895 da3d 9751 c7be d048 d43c 4f67 c6be
000000a0: 759f 313d e313 8e3c 8858 693e 4f77 d73d
000000b0: 6661 a7be 9312 89be 2003 3b3e 5466 a2bd
000000c0: 7886 ccbe 29e4 b33d e94f fb3d c6e3 9b3c
000000d0: 80f1 82bc b821 613e 627f aabe 28a6 1fbd
000000e0: ef94 bbbd 6f11 853e 850d c6be b3db a73e
000000f0: e53a a6be 61ff 683e eddf 063e d6df fc3d
00000100: 4c1d ba3e fa9c 86be b865 c3be 504c 9cbe
00000110: 403b c0bd 6af3 d7bc 2c36 873e 34c7 63be
00000120: 9087 14bd 9a04 c7be c86d 463e 86d7 103e
00000130: a024 7cbe a0d7 443d a875 bebd 5846 81be
00000140: a20c 9fbe e196 c2be dc01 943e d883 59be
00000150: 8b1a 583e 2614 623e da72 b3be e71f 2e3e
00000160: 3b88 bebe 8072 43bd 16d9 36be 4d00 323e
00000170: 392f 9abe e15a 99be 4dd4 c03e 229e 063e
00000180: beda ab3e 0b88 ad3c f404 87be f920 533d
00000190: bf37 54be 13f4 99be 6496 cfbd 7edb 21be
000001a0: 9b33 74be cfa9 0b3e 1a15 f2bd f9a9 043e
000001b0: 64a6 2cbe fab7 a9be 4c38 18be 6393 58be
000001c0: f874 9dbe 1ead cfbe 3050 b93e 186e bdbe
000001d0: 01b3 9b3c a9d8 933e 0d17 bbbe 5006 7d3e
000001e0: 0937 b93e 20c2 f13c f78b 273e 1c97 c7be
000001f0: c25e 933e 51d1 853e 6968 2a3e 230c dabe

model_6/dense_10/BiasAdd/ReadVariableOp f4 [4]
0.23559149 0.23410867 0.23445792 0.23581739
00000000: e53e 713e 2fba 6f3e bd15 703e 1d7a 713e

model_6/bidirectional_6/forward_lstm_6/Read_2/ReadVariableOp f4 [84]
-0.077016816 -0.1134057 -0.11311981 -0.100976795 -0.096479766 -0.122115456 -0.108721405 -0.065075204
-0.12516235 -0.15644963 -0.10465203 -0.12333431 -0.07899921 -0.08823278 -0.1006077 -0.09156292
-0.06824408 -0.06486376 -0.13502942 -0.054787144 -0.132325 0.94668794 0.96802324 0.93595237
0.9548506 0.9680311 0.9393268 0.9362332 0.9620725 0.9212441 0.9451987 0.95381373
0.92064846 0.9604933 0.9367833 0.9329684 0.9495622 0.9565604 0.96825635 0.92742866
0.96780825 0.9544259 -0.0014536082 0.0022824388 -0.007839376 -0.007519789 -0.029074818 0.0046653817
-0.016635288 -0.0048673395 0.007203513 0.0075341985 -0.0032892458 0.0074223536 -0.008066476 -0.00547006
-0.01115362 -0.009200225 0.0043747895 0.0036502213 0.004978814 0.0041544284 0.012638113 -0.079373084
-0.11478156 -0.10346995 -0.09053842 -0.088071235 -0.11008534 -0.104913294 -0.055033185 -0.13054475
-0.13742562 -0.08734745 -0.11929409 -0.06842516 -0.08781435 -0.098209456 -0.09403691 -0.06449785
-0.06528159 -0.14258017 -0.057004463 -0.13585646
00000000: feba 9dbd 3f41 e8bd 5cab e7bd eccc cebd
00000010: 2f97 c5bd ab17 fabd 54a9 debd 2646 85bd
00000020: 8f2a 00be 5534 20be ce53 d6bd b396 fcbd
00000030: 56ca a1bd 63b3 b4bd 690b cebd 5785 bbbd
00000040: 8dc3 8bbd 4ad7 84bd 2745 0abe 7c68 60bd
00000050: 3480 07be 245a 723f 5fd0 773f 939a 6f3f
00000060: 1771 743f e3d0 773f b977 703f fbac 6f3f
00000070: 624a 763f a7d6 6b3f 8bf8 713f 232d 743f
00000080: 9eaf 6b3f e4e2 753f 08d1 6f3f 04d7 6e3f
00000090: 8216 733f 24e1 743f a6df 773f f76b 6d3f
000000a0: 48c2 773f 4155 743f ff86 beba f894 153b
000000b0: ba70 00bc 9068 f6bb 502e eebc 0fe0 983b
000000c0: ba46 88bc 347e 9fbb 720b ec3b 70e1 f63b
000000d0: 6390 57bb 3737 f33b 4129 04bc 303e b3bb
000000e0: acbd 36bc 8abc 16bc 655a 8f3b 8d38 6f3b
000000f0: 5225 a33b df21 883b 1710 4f3c 5b8e a2bd
00000100: 9812 ebbd 0ee8 d3bd 356c b9bd b15e b4bd
00000110: 6c74 e1bd c8dc d6bd 7a6a 61bd 86ad 05be
00000120: 4db9 0cbe 38e3 b2bd 7650 f4bd 7e22 8cbd
00000130: 03d8 b3bd 0a22 c9bd 6c96 c0bd 7317 84bd
00000140: 5bb2 85bd 8900 12be 837d 69bd f51d 0bbe

model_6/bidirectional_6/backward_lstm_6/Read_2/ReadVariableOp f4 [84]
-0.051476672 -0.12530395 -0.026192054 -0.08904318 -0.138206 -0.09647798 -0.06770798 -0.058417685
-0.06918743 -0.06439788 -0.09398645 -0.08149729 -0.030247828 -0.12190778 -0.08191238 -0.13011403
-0.10877719 -0.05917013 -0.12461344 -0.03527425 -0.08228892 0.9637642 0.9361663 1.0321184
0.969735 0.9223138 0.9481023 0.96186507 0.98054457 0.9693194 0.9806354 0.9630013
0.93700993 1.0030848 0.9201441 0.9839297 0.9258325 0.9632477 0.9789681 0.9373824
1.037396 0.98487014 0.008908323 0.0037456704 0.020345716 0.0042988234 0.0017068418 0.0011342269
0.0041389447 -0.006903382 0.008700432 -0.0021747337 -0.008189383 -0.009936438 0.009489544 0.0028395925
-0.0072928015 0.0019235032 0.01865139 0.010219549 0.012824866 0.019377114 -0.013396664 -0.051909856
-0.12409648 -0.016631711 -0.089722805 -0.12905526 -0.08691108 -0.06112627 -0.054296397 -0.074793495
-0.044874076 -0.08389385 -0.07222751 -0.02404104 -0.114281714 -0.07155105 -0.13590899 -0.10628898
-0.0518787 -0.11319703 -0.04480515 -0.07713619
00000000: 34d9 52bd ae4f 00be b890 d6bc 455c b6bd
00000010: e085 0dbe 3f96 c5bd 7baa 8abd 6247 6fbd
00000020: 24b2 8dbd 09e3 83bd f87b c0bd 0de8 a6bd
00000030: 4bca f7bc c9aa f9bd aec1 a7bd 9d3c 05be
00000040: 93c6 debd 615c 72bd 5535 ffbd bb7b 10bd
00000050: 1887 a8bd 40b9 763f 98a8 6f3f 751c 843f
00000060: 8e40 783f c21c 6c3f d5b6 723f ca3c 763f
00000070: f804 7b3f 5125 783f ec0a 7b3f 4187 763f
00000080: e2df 6f3f 1565 803f 908e 6b3f d1e2 7b3f
00000090: 5c03 6d3f 6797 763f a79d 7a3f 4bf8 6f3f
000000a0: 64c9 843f 7320 7c3f 37f4 113c ec79 753b
000000b0: 0fac a63c 25dd 8c3b 1bb8 df3a 57aa 943a
000000c0: fc9f 873b c435 e2bb 428c 0e3c fa85 0ebb
000000d0: c32c 06bc 71cc 22bc 087a 1b3c 7518 3a3b
000000e0: 74f8 eebb 0f1e fc3a cdca 983c e56f 273c
000000f0: 631f 523c c1bc 9e3c ae7d 5bbc 6e9f 54bd
00000100: 4c26 febd 3a3f 88bc 97c0 b7bd 1027 04be
00000110: 70fe b1bd 8a5f 7abd e665 5ebd 552d 99bd
00000120: e1cd 37bd 8ad0 abbd 04ec 93bd b7f1 c4bc
00000130: 880c eabd 5b89 92bd ba2b 0bbe 09ae d9bd
00000140: c27e 54bd d8d3 e7bd 9b85 37bd 94f9 9dbd

model_6/dense_10/MatMul f4 [4, 840]
0.04341894 0.033821575 -0.040315114 0.051461063 -0.074873924 0.07697782 0.01794927 -0.050053384
-0.03645057 0.010948329 -0.041093215 0.05191223 -0.04020942 -0.021587398 -0.02131008 0.02602021
-0.049659718 0.056374248 0.016214574 -0.032088205 -0.061381485 -0.018380595 0.029896377 -0.013737454
0.034950465 0.028532095 -0.061196323 0.01300988 0.019182362 -0.02671553 0.028999148 0.026265934
0.0009751557 0.02871408 0.056647398 -0.028080737 0.029300472 -0.028877372 0.030880354 0.007206184
-0.017235909 0.018031713 0.037453096 0.030498404 -0.07967346 0.039527494 -0.05127118 0.039363675
0.014662682 -0.023920303 -0.02146633 0.020334786 -0.049090732 0.06750322 -0.028208012 0.005941787
-0.024280094 0.027109034 -0.046278335 0.047441453 0.027391173 -0.045074556 -0.02245413 -0.020425458
0.015162884 -0.008673401 0.031868402 0.021406354 -0.011844888 0.02687254 0.019704012 -0.025102874
0.020019358 0.026885245 0.0052704257 0.024404196 -0.030815506 -0.04251558 0.02787131 -0.020276949
0.04810286 0.015844015 -0.019519836 0.01503697 0.029665383 0.029518105 -0.04233008 0.027954068
-0.015157945 0.030676644 -0.052132156 -0.048189357 -0.04029522 0.035729915 -0.01753731 0.003763153
-0.033393107 -0.041984912 0.00623707 0.03707388 -0.036228463 0.030907478 0.015995301 -0.02346597
-0.04171635 -0.025420498 0.022948083 -0.017062867 0.03558237 0.02046191 -0.027362164 0.02335885
0.026575174 -0.020353325 0.03194692 0.037083272 0.015634686 0.043561917 -0.013554519 -0.0336568
0.020175228 -0.032741897 0.028406749 0.017737996 -0.01695176 0.015913865 0.0278097 0.026851367
-0.016809795 0.036569785 -0.02277346 0.02840178 -0.0058551333 -0.03948082 -0.039844785 0.035884276
-0.034143638 0.044272065 -0.023650357 -0.035007775 0.038508613 0.02622806 -0.03998974 0.030774217
0.02217935 -0.016008848 -0.036907002 -0.02148093 0.03347044 -0.016886983 0.03553972 0.017690968
-0.038238633 0.0127135385 0.016883107 -0.026285984 0.02694733 0.032065768 0.024085185 0.023143033
0.03116751 -0.040317036 0.027474668 -0.022606444 0.028853778 0.021966137 -0.013720241 0.02684175
0.022617582 0.023515886 -0.030489642 0.028487463 -0.04623759 0.04416928 -0.0067673093 -0.020248989
-0.01614597 0.03482114 -0.031007228 0.01688733 -0.019755855 -0.037848223 -0.0187229 0.018279048
-0.029127898 0.026732756 0.020338558 -0.034784365 -0.024815204 -0.020965504 0.01194927 -0.008793821
0.029792892 0.023735574 -0.021990035 0.014485075 0.018330025 -0.029411744 0.017035509 0.030072024
0.028665392 0.03949726 -0.03719754 -0.03630564 0.003913404 -0.020210331 0.0353229 0.021757683
-0.018329913 0.02033626 0.027641851 0.03140763 -0.009147875 0.024669126 -0.034285672 0.019377418
0.004653024 -0.05591257 -0.015784033 0.028714987 -0.016335031 0.060197745 -0.021688743 -0.029825956
0.015919136 0.021679573 -0.022279158 0.018134972 0.020160364 -0.02790029 -0.025103414 -0.02251017
0.02539366 -0.023269575 0.016387286 0.030559942 -0.02450715 0.012216011 0.022491716 -0.01999104
0.03522488 0.033928577 0.011120262 0.028846897 0.042199135 -0.023153184 0.034900874 -0.023348242
0.036386367 0.02855535 -0.020998055 0.029443873 0.025451737 0.037753277 -0.013934543 0.022632277
00000000: 0fd8 313d 7e88 0a3d 7621 25bd d6c8 523d
00000010: 8057 99bd 8ca6 9d3d 590a 933c c704 4dbd
00000020: 314d 15bd 9f60 333c 5c51 28bd eba1 543d
00000030: a2b2 24bd 0ed8 b0bc 7a92 aebc 5628 d53c
00000040: fd67 4bbd afe8 663d 6dd4 843c ec6e 03bd
00000050: 276b 7bbd e792 96bc 3fe9 f43c 0f13 61bc
00000060: 3828 0f3d 24bc e93c ffa8 7abd 6427 553c
00000070: 5424 9d3c 87da dabc 9f8f ed3c a82b d73c
00000080: 97a1 7f3a ca39 eb3c 1a07 683d 9309 e6bc
00000090: 8b07 f03c 3d90 ecbc ccf8 fc3c da21 ec3b
000000a0: 5232 8dbc 3eb7 933c 6b68 193d cad7 f93c
000000b0: d72b a3bd 95e7 213d bb01 52bd ce3b 213d
000000c0: bf3b 703c 83f4 c3bc 28da afbc 2395 a63c
000000d0: 5d13 49bd 213f 8a3d 7d14 e7bc 52b3 c23b
000000e0: 0ce7 c6bc c413 de3c 5a8e 3dbd f851 423d
000000f0: 7463 e03c 19a0 38bd b9f1 b7bc 4a53 a7bc
00000100: bf6d 783c e11a 0ebc 7188 023d 615c af3c
00000110: 1011 42bc cd23 dc3c 4f6a a13c 8ba4 cdbc
00000120: a3ff a33c 723e dc3c 89b3 ac3b 4feb c73c
00000130: cd70 fcbc d124 2ebd 6052 e43c d81b a6bc
00000140: 8107 453d 4fcb 813c 10e8 9fbc a05d 763c
00000150: d104 f33c f4cf f13c 4e62 2dbd eeff e43c
00000160: 0859 78bc 964d fb3c 8788 55bd 3462 45bd
00000170: 9a0c 25bd 8859 123d 68aa 8fbc 3b9f 763b
00000180: 36c7 08bd 5ff8 2bbd 5660 cc3b c8da 173d
00000190: 4c64 14bd ae31 fd3c 9408 833c b53b c0bc
000001a0: c3de 2abd a63e d0bc 9efd bb3c 6dc7 8bbc
000001b0: d2be 113d bc9f a73c 9e26 e0bc 0f5b bf3c
000001c0: 2eb4 d93c 04bc a6bc c6da 023d a1e4 173d
000001d0: 5014 803c fb6d 323d c613 5ebc b6db 09bd
000001e0: 8546 a53c 5e1c 06bd 45b5 e83c 464f 913c
000001f0: 6bde 8abc cb5d 823c 2bd1 e33c 66f7 db3c
00000200: b2b4 89bc 33ca 153d 688f babc daaa e83c
00000210: 6bdc bfbb a4b6 21bd 4934 23bd 64fb 123d
00000220: 33da 0bbd a056 353d 65be c1bc 5064 0fbd
00000230: 35bb 1d3d 3adc d63c 48cc 23bd 361a fc3c
00000240: 78b1 b53c fd24 83bc cc2b 17bd c6f8 afbc
00000250: 4d18 093d 9256 8abc 1992 113d a6ec 903c
00000260: 1da0 1cbd 724c 503c 714e 8a3c b455 d7bc
00000270: a6c0 dc3c 6557 033d 4b4e c53c 7596 bd3c
00000280: 0253 ff3c 7a23 25bd 8e12 e13c 2631 b9bc
00000290: c25e ec3c 54f2 b33c ddca 60bc 3be3 db3c
000002a0: 8248 b93c 63a4 c03c 6ac5 f9bc 8a5e e93c
000002b0: a163 3dbd d9ea 343d 4ec0 ddbb 35e1 a5bc
000002c0: 8e44 84bc 9da0 0e3d df02 febc 4c57 8a3c
000002d0: 08d7 a1bc bd06 1bbd c460 99bc f1bd 953c
000002e0: a19d eebc a7fe da3c 0c9d a63c 0d7a 0ebd
000002f0: 4149 cbbc d9bf abbc dfc6 433c f513 10bc
00000300: 3910 f43c 1b71 c23c 7224 b4bc cf52 6d3c
00000310: d928 963c e6f0 f0bc 0d8e 8b3c 9b59 f63c
00000320: afd3 ea3c e1c7 213d 735c 18bd 39b5 14bd
00000330: 033c 803b 2390 a5bc bfae 103d 2b3d b23c
00000340: 9d28 96bc 3a98 a63c 2a71 e23c 49a5 003d
00000350: f8e0 15bc e816 ca3c 226f 0cbd 64bd 9e3c
00000360: 6578 983b 9404 65bd 844d 81bc b13b eb3c
00000370: 0bd1 85bc e991 763d 97ac b1bc 9055 f4bc
00000380: d968 823c 5c99 b13c c882 b6bc cb8f 943c
00000390: 5927 a53c 268f e4bc ada5 cdbc 3f67 b8bc
000003a0: 5d06 d03c d69f bebc a13e 863c d858 fa3c
000003b0: 38c3 c8bc aa25 483c 8c40 b83c 40c4 a3bc
000003c0: f747 103d b1f8 0a3d c231 363c 5450 ec3c
000003d0: 00d9 2c3d bfab bdbc 38f4 0e3d d044 bfbc
000003e0: df09 153d e9ec e93c 1d04 acbc 4734 f13c
000003f0: 2980 d03c 2ea3 1a3d b64d 64bc 5367 b93c

model_6/bidirectional_6/backward_lstm_6/Read_2/ReadVariableOp1 f4 [84]
-0.051476672 -0.12530395 -0.026192054 -0.08904318 -0.138206 -0.09647798 -0.06770798 -0.058417685
-0.06918743 -0.06439788 -0.09398645 -0.08149729 -0.030247828 -0.12190778 -0.08191238 -0.13011403
-0.10877719 -0.05917013 -0.12461344 -0.03527425 -0.08228892 0.9637642 0.9361663 1.0321184
0.969735 0.9223138 0.9481023 0.96186507 0.98054457 0.9693194 0.9806354 0.9630013
0.93700993 1.0030848 0.9201441 0.9839297 0.9258325 0.9632477 0.9789681 0.9373824
1.037396 0.98487014 0.008908323 0.0037456704 0.020345716 0.0042988234 0.0017068418 0.0011342269
0.0041389447 -0.006903382 0.008700432 -0.0021747337 -0.008189383 -0.009936438 0.009489544 0.0028395925
-0.0072928015 0.0019235032 0.01865139 0.010219549 0.012824866 0.019377114 -0.013396664 -0.051909856
-0.12409648 -0.016631711 -0.089722805 -0.12905526 -0.08691108 -0.06112627 -0.054296397 -0.074793495
-0.044874076 -0.08389385 -0.07222751 -0.02404104 -0.114281714 -0.07155105 -0.13590899 -0.10628898
-0.0518787 -0.11319703 -0.04480515 -0.07713619
00000000: 34d9 52bd ae4f 00be b890 d6bc 455c b6bd
00000010: e085 0dbe 3f96 c5bd 7baa 8abd 6247 6fbd
00000020: 24b2 8dbd 09e3 83bd f87b c0bd 0de8 a6bd
00000030: 4bca f7bc c9aa f9bd aec1 a7bd 9d3c 05be
00000040: 93c6 debd 615c 72bd 5535 ffbd bb7b 10bd
00000050: 1887 a8bd 40b9 763f 98a8 6f3f 751c 843f
00000060: 8e40 783f c21c 6c3f d5b6 723f ca3c 763f
00000070: f804 7b3f 5125 783f ec0a 7b3f 4187 763f
00000080: e2df 6f3f 1565 803f 908e 6b3f d1e2 7b3f
00000090: 5c03 6d3f 6797 763f a79d 7a3f 4bf8 6f3f
000000a0: 64c9 843f 7320 7c3f 37f4 113c ec79 753b
000000b0: 0fac a63c 25dd 8c3b 1bb8 df3a 57aa 943a
000000c0: fc9f 873b c435 e2bb 428c 0e3c fa85 0ebb
000000d0: c32c 06bc 71cc 22bc 087a 1b3c 7518 3a3b
000000e0: 74f8 eebb 0f1e fc3a cdca 983c e56f 273c
000000f0: 631f 523c c1bc 9e3c ae7d 5bbc 6e9f 54bd
00000100: 4c26 febd 3a3f 88bc 97c0 b7bd 1027 04be
00000110: 70fe b1bd 8a5f 7abd e665 5ebd 552d 99bd
00000120: e1cd 37bd 8ad0 abbd 04ec 93bd b7f1 c4bc
00000130: 880c eabd 5b89 92bd ba2b 0bbe 09ae d9bd
00000140: c27e 54bd d8d3 e7bd 9b85 37bd 94f9 9dbd

while/MatMul_11 f4 [84, 21]
0.06702796 0.07470875 0.1976526 0.08608013 0.067530155 0.2012638 0.006272965 -0.10167131
0.0989409 -0.04067388 -0.14832535 0.046422392 0.031105723 -0.09168824 0.18111002 0.07671896
0.074133515 0.06261256 0.02896585 0.07071432 -0.064380504 -0.016303433 -0.009178349 0.043516133
0.025709366 -0.20947014 0.021716045 -0.25413653 -0.39685193 0.045108717 -0.053450275 -0.09380557
-0.114763856 -0.13121259 -0.013369913 0.045937296 -0.14421144 0.1384819 -0.19129005 0.0145470295
0.0006915526 -0.33615318 0.042776633 -0.28711095 0.24745145 -0.024506295 0.0070800944 0.41893435
-0.2350369 -0.15111785 0.154679 -0.42650938 -0.19775565 -0.049591873 -0.01131285 -0.077631705
0.2022574 -0.24956307 0.29621962 -0.0106541095 -0.3258655 0.2431285 -0.07948103 0.09224494
0.019257298 0.359019 0.04430093 -0.22695832 -0.0117440345 -0.22974074 -0.23705699 0.18622372
-0.03261923 -0.14848912 -0.15254414 0.0008557673 -0.18252495 0.14707999 -0.19943362 0.27470306
-0.09529902 -0.0831032 0.25144145 0.04390052 0.00048277108 -0.29125595 0.20165552 -0.017960345
-0.16116373 0.043391906 -0.17045112 0.038285125 0.04125092 0.033399284 -0.0872407 -0.22839431
0.14621596 -0.12798995 0.046301104 -0.28275776 0.099978335 -0.08559343 -0.14413959 0.08507754
-0.19811265 0.008101628 0.015227372 0.1948338 -0.015626246 -0.1029997 0.021384934 0.03880493
-0.07913263 0.16834766 0.10070816 -0.17457423 -0.110344976 -0.068965964 -0.16010295 0.090901345
-0.17865705 0.19583787 -0.075713925 -0.19899045 0.09469521 -0.11930159 0.10669013 -0.2779672
0.1517674 0.19102979 -0.17226215 0.1351867 -0.15194169 -0.090441994 0.23488805 0.0054161157
-0.16527005 -0.14911774 -0.18886429 0.023433298 0.029238867 -0.1459239 0.15727751 -0.01519814
-0.13367714 -0.14244251 -0.060959548 0.030817598 -0.2034244 0.2964567 -0.10099437 0.033874154
0.062137388 0.025497165 -0.06369055 0.15060289 -0.09990298 -0.17359543 -0.03854876 -0.074836165
0.23299071 0.1594667 -0.112883285 0.17310983 0.10817273 -0.039446164 0.3145293 -0.2693618
0.36587876 -0.12676898 0.07010448 -0.11201329 -0.27062997 0.20989767 -0.17659202 -0.15732187
0.33497775 -0.21213566 -0.041449226 -0.16832495 -0.414685 -0.2630683 0.08897373 -0.29804343
0.18162851 0.014498297 -0.1968976 0.1246611 -0.33007607 0.08477171 0.012329991 0.07538818
-0.19439778 -0.16249554 -0.056500576 -0.11888892 -0.15403576 0.000520893 -0.21511257 -0.13586502
-0.06360688 0.02914935 -0.15088087 0.01338901 0.06084282 0.22671899 0.2859371 -0.04192255
0.12704945 -0.085165426 0.20772833 -0.013334535 0.3172142 -0.15497531 -0.12861985 0.114225365
-0.33468103 -0.240918 0.39140892 -0.3548316 -0.21999274 -0.29929602 -0.024757816 0.06419337
-0.016927535 -0.12098826 0.27110785 0.0709308 -0.36660826 0.38349664 -0.33150116 0.116011165
-0.07008558 0.11045348 -0.20472218 -0.08431256 -0.072036125 -0.124319136 -0.17596701 0.2369082
-0.13920617 -0.21764523 -0.08607875 -0.086141855 -0.08159013 -0.040511884 -0.062308352 0.4446225
0.16492182 0.019929182 0.0077147055 -0.15693682 -0.029145885 -0.089925386 0.15059626 0.04748635
00000000: f545 893d e700 993d 7165 4a3e c74a b03d
00000010: 404d 8a3d 1918 4e3e 728d cd3b 0c39 d0bd
00000020: 87a1 ca3d a899 26bd 9ae2 17be 6825 3e3d
00000030: 6ed1 fe3c 0bc7 bbbd e874 393e d51e 9d3d
00000040: 50d3 973d 043b 803d ca49 ed3c abd2 903d
00000050: edd9 83bd c78e 85bc c960 16bc f93d 323d
00000060: 739c d23c 577f 56be d9e5 b13c 2f1e 82be
00000070: 2d30 cbbe ebc3 383d adee 5abd 221d c0bd
00000080: 5009 ebbd 985c 06be 7b0d 5bbc bf28 3c3d
00000090: 2aac 13be 33ce 0d3e 8ae1 43be aa56 6e3c
000000a0: 4f49 353a 451c acbe 8d36 2f3d 3500 93be
000000b0: ea63 7d3e 6dc1 c8bc 2300 e83b 907e d63e
000000c0: 83ad 70be a3be 1abe 2c64 1e3e 705f dabe
000000d0: 7580 4abe d920 4bbd 8859 39bc 5ffd 9ebd
000000e0: 901c 4f3e 768d 7fbe 19aa 973e 938e 2ebc
000000f0: d8d7 a6be adf6 783e f3c6 a2bd eaea bc3d
00000100: 7bc1 9d3c 57d1 b73e e474 353d c367 68be
00000110: 0d6a 40bc 2841 6bbe 11bf 72be 6eb1 3e3e
00000120: be9b 05bd 880d 18be 8834 1cbe 9255 603a
00000130: d2e7 3abe 239c 163e 5438 4cbe e1a5 8c3e
00000140: 222c c3bd 0332 aabd efbc 803e 08d1 333d
00000150: 701c fd39 801f 95be c97e 4e3e 9321 93bc
00000160: 1b08 25be b6bb 313d bd8a 2ebe ddd0 1c3d
00000170: baf6 283d b0cd 083d 41ab b2bd 33e0 69be
00000180: a3b9 153e cc0f 03be 3aa6 3d3d a0c5 90be
00000190: 71c1 cc3d 9c4b afbd 5499 13be 223d ae3d
000001a0: 0bde 4abe b1bc 043c 3a7c 793c 8382 473e
000001b0: 9d02 80bc 82f1 d2bd 752f af3c ebf1 1e3d
000001c0: 4a10 a2bd 5463 2c3e 1440 ce3d 96c3 32be
000001d0: 8cfc e1bd 073e 8dbd 07f2 23be 7c2a ba3d
000001e0: e0f1 36be b989 483e e70f 9bbd 27c4 4bbe
000001f0: 90ef c13d 6454 f4bd 5b80 da3d b851 8ebe
00000200: ea68 1b3e 509d 433e 7d65 30be 626e 0a3e
00000210: 9a96 1bbe a739 b9bd 7e86 703e ac79 b13b
00000220: 8d3c 29be 52b2 18be a465 41be 30f7 bf3c
00000230: 5986 ef3c 136d 15be 5b0d 213e 9f01 79bc
00000240: a9e2 08be 73dc 11be b8b0 79bd 3075 fc3c
00000250: 7c4e 50be 2cc9 973e 23d6 cebd a0bf 0a3d
00000260: c683 7e3d 6edf d03c 3170 82bd a537 1a3e
00000270: ef99 ccbd 00c3 31be 4ee5 1dbd b443 99bd
00000280: 1e95 6e3e 3d4b 233e 5a2f e7bd b443 313e
00000290: aa89 dd3d 4d92 21bd fc09 a13e cae9 89be
000002a0: 7654 bb3e bacf 01be f092 8f3d 3967 e5bd
000002b0: 0390 8abe 6aef 563e 8ad4 34be fc18 21be
000002c0: 3482 ab3e 173a 59be aac6 29bd 605d 2cbe
000002d0: 9851 d4be e3b0 86be dc37 b63d 2699 98be
000002e0: d3fc 393e 448a 6d3c 869f 49be 524e ff3d
000002f0: bbff a8be ca9c ad3d bb03 4a3c 1e65 9a3d
00000300: 3610 47be 3b65 26be 266d 67bd 097c f3bd
00000310: 8dbb 1dbe 8a8c 083a 7846 5cbe 3320 0bbe
00000320: 5344 82bd 9eca ee3c 8480 1abe 945d 5b3c
00000330: 5236 793d 0629 683e 5966 923e fbb6 2bbd
00000340: 4019 023e 366b aebd bcb6 543e 1879 5abc
00000350: e669 a23e d9b1 1ebe ecb4 03be fdee e93d
00000360: 505b abbe 35b3 76be c066 c83e 7dac b5be
00000370: c745 61be 543d 99be e7d0 cabc d077 833d
00000380: 9dab 8abc b1c8 f7bd a6ce 8a3e 2b44 913d
00000390: 14b4 bbbe ac59 c43e 85ba a9be 4397 ed3d
000003a0: 0789 8fbd 6f35 e23d b1a2 51be 10ac acbd
000003b0: ad87 93bd 089b febd b230 34be 1098 723e
000003c0: 108c 0ebe 64de 5ebe 0e4a b0bd 246b b0bd
000003d0: ba18 a7bd caef 25bd 0b37 7fbd 8fa5 e33e
000003e0: 44e1 283e 8642 a33c a4cb fc3b 0cb4 20be
000003f0: 5ac3 eebc cd2a b8bd e835 1a3e 0c81 423d

while/MatMul f4 [84, 32]
-0.029021243 0.19348964 -0.18836352 -0.17999147 -0.13739373 -0.2511502 -0.15151428 -0.3961222
-0.18764603 0.17247987 -0.26736084 0.019906715 0.09237915 -0.17632565 -0.064504884 0.08461285
0.08080909 0.06664438 0.19489622 -0.05619079 0.093198806 0.19841869 0.13424134 -0.17604965
-0.18228984 -0.17450282 0.1616207 0.05604568 0.21991429 0.0041969707 -0.23240182 -0.0661873
0.1952739 0.0909687 -0.36121127 -0.6593615 -0.006746934 -0.11034978 -0.18128991 -0.08644072
0.0121536255 0.16738969 -0.20729595 -0.040117398 -0.18885908 -0.00575912 -0.13787907 -0.089816324
-0.19576843 0.07025047 0.07390708 0.0025277287 -0.1728552 0.18207553 -0.20985165 -0.14015806
-0.18950938 0.04032415 0.085434906 -0.09254974 0.023002923 0.0063829813 0.025610473 -0.18175657
-0.0031507753 -0.093935266 0.056689408 -0.015484899 -0.2841744 -0.24926421 0.08026132 -0.08075688
0.14292029 -0.10859006 -0.38480794 -0.010917991 -0.039719507 0.1656313 -0.3239496 -0.2855168
-0.06341453 0.15995412 0.2255938 -0.16036375 0.008396983 -0.25969458 -0.107073754 -0.1875468
-0.13450412 0.032223016 0.14026627 0.14147824 0.09940699 0.037820827 -0.42796978 -0.36547616
-0.101116024 -0.01434806 -0.42134988 -0.39552316 -0.16628261 -0.3275841 0.07698199 -0.10851817
0.1421454 0.081662774 0.01985514 0.21454194 -0.0957993 0.057866126 0.08744456 -0.1986896
-0.09482105 0.08504433 -0.0421481 0.16198981 -0.10695289 -0.019340536 0.22637352 -0.15690637
-0.42451003 0.051474065 0.10046243 0.03727469 -0.13330805 -0.10049069 -0.13544393 -0.22471423
0.14395387 0.048976213 -0.25579196 -0.03189527 -0.14655632 -0.39186049 0.19939181 -0.051298577
0.067029566 -0.021902353 0.18317027 0.037290245 -0.051002696 -0.012830064 -0.31317267 -0.14902873
-0.083047956 0.06936509 -0.101383 0.18477854 0.0597485 0.07347862 0.038697064 0.15046033
-0.20958698 0.12658918 0.20019403 0.09343988 0.21413025 0.009628081 -0.17391597 -0.09131397
-0.17115504 0.11282459 -0.2604909 -0.36950353 -0.23973231 -0.05787842 0.19035205 0.02735541
-0.017285436 0.021192834 0.15705362 -0.1729438 -0.17021799 -0.06817487 -0.17504205 0.024037104
-0.1427091 -0.052670427 0.19488347 -0.055877104 0.062186986 -0.1391502 0.056990594 0.11802536
-0.046142526 0.03270659 -0.005464007 -0.07558823 -0.16378427 -0.23882869 0.175552 -0.11363283
-0.083142534 -0.096082404 0.06959564 -0.24829127 -0.22713232 -0.15254828 -0.17153335 -0.18343678
0.08186069 -0.1905453 0.066495776 -0.02496408 0.019083217 0.21659076 -0.03643894 -0.12402592
-0.044659913 -0.19447108 0.031016234 -0.12568675 -0.002373308 0.034355983 -0.08404899 0.000375656
0.049007334 0.009670526 -0.082441956 0.13708308 -0.19355188 0.122091204 -0.210451 -0.24466884
0.26955956 -0.16782272 -0.045543317 -0.13924482 -0.050711375 -0.10241107 0.21465665 0.066436864
0.12635797 -0.028710097 -0.2600879 -0.1572895 0.20043257 -0.035848603 -0.22370964 -0.081423305
-0.059005573 -0.12954524 -0.22308466 0.21308255 -0.22627816 -0.5658855 0.2183831 0.21746272
-0.42332673 0.10145107 0.107258886 -0.19129294 -0.08229697 -0.0127830235 -0.029174801 -0.18738031
00000000: f5bd edbc 2622 463e 5ee2 40be af4f 38be
00000010: f1b0 0cbe c296 80be 8f26 1bbe 87d0 cabe
00000020: 4826 40be 909e 303e 85e3 88be 6813 a33c
00000030: 4831 bd3d b68e 34be 231b 84bd 8049 ad3d
00000040: 3c7f a53d d97c 883d e092 473e 5028 66bd
00000050: 04df be3d 452e 4b3e 9076 093e 5c46 34be
00000060: 30aa 3abe deb0 32be e67f 253e 2890 653d
00000070: 3631 613e be86 893b befa 6dbe 358d 87bd
00000080: e2f5 473e cc4d ba3d aff0 b8be eacb 28bf
00000090: 6215 ddbb 11ff e1bd 10a4 39be d507 b1bd
000000a0: 0020 473c 3468 2b3e 6445 54be 2452 24bd
000000b0: 4664 41be 00b7 bcbb 2c30 0dbe 9ff1 b7bd
000000c0: 8577 48be 7adf 8f3d 985c 973d 40a8 253b
000000d0: f400 31be 0272 3a3e 5ae3 56be 9885 0fbe
000000e0: bf0e 42be f02a 253d 7ff8 ae3d b88a bdbd
000000f0: a070 bc3c 5428 d13b 0ecd d13c 651e 3abe
00000100: 3d7d 4ebb 2261 c0bd 2733 683d 60b4 7dbc
00000110: 4f7f 91be 1e3f 7fbe 0c60 a43d dd63 a5bd
00000120: b259 123e 7764 debd 8c05 c5be 60e1 32bc
00000130: ecb0 22bd 409b 293e b9dc a5be 422f 92be
00000140: 7adf 81bd 03cb 233e 1002 673e 6536 24be
00000150: 8093 093c b0f6 84be 7c49 dbbd 450c 40be
00000160: 73bb 09be 48fc 033d f6a1 0f3e acdf 103e
00000170: e495 cb3d 03ea 1a3d db1e dbbe b11f bbbe
00000180: eb15 cfbd 2014 6bbc 2cbb d7be 0382 cabe
00000190: fd45 2abe 1ab9 a7be bca8 9d3d c63e debd
000001a0: 908e 113e d03e a73d 3fa7 a23c e2b0 5b3e
000001b0: 6c32 c4bd 0805 6d3d 2216 b33d 4975 4bbe
000001c0: 8a31 c2bd b92b ae3d 7ca3 2cbd a8e0 253e
000001d0: 1e0a dbbd 0b70 9ebc 76ce 673e 10ac 20be
000001e0: 6159 d9be 78d6 523d 3fbf cd3d 58ad 183d
000001f0: e881 08be 10ce cdbd d0b1 0abe 7d1b 66be
00000200: a568 133e 489b 483d 2af7 82be 9da4 02bd
00000210: dc12 16be f0a1 c8be 5e2d 4c3e 751e 52bd
00000220: cc46 893d 906c b3bc fd90 3b3e a8bd 183d
00000230: 34e8 50bd 3035 52bc 2b58 a0be fd9a 18be
00000240: 0c15 aabd 490f 8e3d e4a1 cfbd 9636 3d3e
00000250: d8ba 743d f57b 963d d080 1e3d 4612 1a3e
00000260: f89d 56be 98a0 013e aaff 4c3e 685d bf3d
00000270: f644 5b3e 19bf 1d3c 0717 32be d202 bbbd
00000280: 4443 2fbe 9410 e73d 105f 85be 912f bdbe
00000290: 637c 75be ec11 6dbd a6eb 423e 7418 e03c
000002a0: 309a 8dbc 989c ad3c aad2 203e 2e18 31be
000002b0: a04d 2ebe 449f 8bbd 393e 33be 76e9 c43c
000002c0: 5622 12be f2bc 57bd 888f 473e 64df 64bd
000002d0: c8b7 7e3d 647d 0ebe f86e 693d 48b7 f13d
000002e0: f2ff 3cbd 58f7 053d 6a0b b3bb 00ce 9abd
000002f0: 10b7 27be 828f 74be e7c3 333e 54b8 e8bd
00000300: a246 aabd dac6 c4bd 2988 8e3d 1140 7ebe
00000310: 6095 68be 9e35 1cbe 70a6 2fbe dad6 3bbe
00000320: 94a6 a73d 4f1e 43be f02e 883d 7881 ccbc
00000330: 6854 9c3c f8c9 5d3e ff40 15bd 4d01 febd
00000340: 50ed 36bd 6d23 47be c215 fe3c 07b4 00be
00000350: 8089 1bbb dcb8 0c3d e021 acbd b2f3 c439
00000360: eabb 483d 2071 1e3c 54d7 a8bd 825f 0c3e
00000370: 7732 46be f40a fa3d 7880 57be 788a 7abe
00000380: b603 8a3e b8d9 2bbe a18b 3abd 3296 0ebe
00000390: bbb6 4fbd e5bc d1bd f4ce 5b3e 0d10 883d
000003a0: fc63 013e 7031 ebbc 3e2a 85be 8010 21be
000003b0: 323e 4d3e fcd5 12bd 2414 65be 43c1 a6bd
000003c0: d4af 71bd 82a7 04be 4e70 64be 5032 5a3e
000003d0: 76b5 67be dfdd 10bf d29f 5f3e 8cae 5e3e
000003e0: 48be d8be 94c5 cf3d 8caa db3d 4ce2 43be
000003f0: 508b a8bd e36f 51bc feff eebc a0e0 3fbe

model_6/bidirectional_6/forward_lstm_6/Read_2/ReadVariableOp1 f4 [84]
-0.077016816 -0.1134057 -0.11311981 -0.100976795 -0.096479766 -0.122115456 -0.108721405 -0.065075204
-0.12516235 -0.15644963 -0.10465203 -0.12333431 -0.07899921 -0.08823278 -0.1006077 -0.09156292
-0.06824408 -0.06486376 -0.13502942 -0.054787144 -0.132325 0.94668794 0.96802324 0.93595237
0.9548506 0.9680311 0.9393268 0.9362332 0.9620725 0.9212441 0.9451987 0.95381373
0.92064846 0.9604933 0.9367833 0.9329684 0.9495622 0.9565604 0.96825635 0.92742866
0.96780825 0.9544259 -0.0014536082 0.0022824388 -0.007839376 -0.007519789 -0.029074818 0.0046653817
-0.016635288 -0.0048673395 0.007203513 0.0075341985 -0.0032892458 0.0074223536 -0.008066476 -0.00547006
-0.01115362 -0.009200225 0.0043747895 0.0036502213 0.004978814 0.0041544284 0.012638113 -0.079373084
-0.11478156 -0.10346995 -0.09053842 -0.088071235 -0.11008534 -0.104913294 -0.055033185 -0.13054475
-0.13742562 -0.08734745 -0.11929409 -0.06842516 -0.08781435 -0.098209456 -0.09403691 -0.06449785
-0.06528159 -0.14258017 -0.057004463 -0.13585646
00000000: feba 9dbd 3f41 e8bd 5cab e7bd eccc cebd
00000010: 2f97 c5bd ab17 fabd 54a9 debd 2646 85bd
00000020: 8f2a 00be 5534 20be ce53 d6bd b396 fcbd
00000030: 56ca a1bd 63b3 b4bd 690b cebd 5785 bbbd
00000040: 8dc3 8bbd 4ad7 84bd 2745 0abe 7c68 60bd
00000050: 3480 07be 245a 723f 5fd0 773f 939a 6f3f
00000060: 1771 743f e3d0 773f b977 703f fbac 6f3f
00000070: 624a 763f a7d6 6b3f 8bf8 713f 232d 743f
00000080: 9eaf 6b3f e4e2 753f 08d1 6f3f 04d7 6e3f
00000090: 8216 733f 24e1 743f a6df 773f f76b 6d3f
000000a0: 48c2 773f 4155 743f ff86 beba f894 153b
000000b0: ba70 00bc 9068 f6bb 502e eebc 0fe0 983b
000000c0: ba46 88bc 347e 9fbb 720b ec3b 70e1 f63b
000000d0: 6390 57bb 3737 f33b 4129 04bc 303e b3bb
000000e0: acbd 36bc 8abc 16bc 655a 8f3b 8d38 6f3b
000000f0: 5225 a33b df21 883b 1710 4f3c 5b8e a2bd
00000100: 9812 ebbd 0ee8 d3bd 356c b9bd b15e b4bd
00000110: 6c74 e1bd c8dc d6bd 7a6a 61bd 86ad 05be
00000120: 4db9 0cbe 38e3 b2bd 7650 f4bd 7e22 8cbd
00000130: 03d8 b3bd 0a22 c9bd 6c96 c0bd 7317 84bd
00000140: 5bb2 85bd 8900 12be 837d 69bd f51d 0bbe

while/MatMul_14 f4 [84, 21]
0.20391658 -0.038969245 -0.0017253633 -0.23327576 0.17474766 -0.32672855 -0.1422091 -0.20063554
0.15479796 -0.017904494 -0.02354485 -0.04717206 0.11351272 0.13161096 -0.29361287 -0.28849694
0.26804972 -0.03640327 -0.1536279 -0.06897626 0.27735725 -0.015297896 -0.21851626 0.1740979
-0.235653 0.19717479 -0.08043874 -0.09403715 -0.040427692 0.19234377 -0.21464641 0.24752136
-0.050448257 0.089193344 0.18097924 -0.008950369 -0.16214594 0.29189467 0.09190459 -0.14699256
0.18931644 0.20407829 -0.1553412 -0.10409513 0.0047278386 -0.0926653 -0.044636518 -0.09273363
0.06959106 0.1264823 0.09131999 0.060029242 -0.0054843174 0.11173271 0.10458564 0.066842176
0.058428157 -0.20196846 0.17219397 -0.03525655 -0.12333333 -0.030471386 0.082243934 -0.2935502
-0.16589472 0.21431944 -0.3382576 0.11022529 -0.0038614215 0.031922325 0.026263902 0.3489545
-0.33661526 0.29188493 -0.111702584 0.27083063 0.07147846 -0.12521382 -0.11491544 0.27863854
0.030654158 -0.14047933 0.30190602 0.19995323 -0.07084144 -0.026919702 0.040828865 -0.1961528
0.15864252 -0.14865093 -0.062070094 0.13521282 0.11701464 0.0027393615 0.12639694 0.14883131
0.005487875 -0.20453833 0.19948633 0.13171668 -0.010348647 -0.071382016 -0.033313386 -0.060270604
-0.13466424 -0.059955083 -0.06951508 0.059030745 -0.48077244 0.0008183437 -0.08234058 0.23778836
0.11417706 0.20850265 -0.17240174 -0.07323837 -0.18061993 -0.18576553 -0.00723241 0.14226845
-0.1742166 0.313128 -0.19762565 -0.10551427 0.10774774 0.2053576 0.17683084 0.0069193062
0.14165796 -0.14621826 0.0933804 0.015749518 0.16486564 0.28443348 0.08326423 -0.1179666
-0.0031267432 0.06741969 0.14029053 0.0195304 0.056299366 -0.05231892 -0.21242839 -0.09100894
-0.077321164 0.08390682 -0.038431164 0.058335703 -0.1499014 0.096790895 -0.34004286 0.18531194
-0.015272176 0.081705846 0.13594581 0.20301302 0.04828944 0.15449914 -0.09768776 0.11798349
-0.0067653493 0.06156592 -0.038326833 0.024745058 -0.04611774 -0.12896843 0.30021957 0.1409869
-0.22744131 -0.061307292 0.11248434 -0.28216168 -0.0067491587 -0.095822744 -0.12502728 0.15347598
0.020143518 -0.11958379 -0.02803048 -0.052426733 0.017372975 0.2026791 -0.2099918 -0.34773022
0.14469028 -0.10916061 -0.18966699 0.15869945 0.06488889 -0.09795021 -0.010758694 -0.24343292
-0.29310694 -0.085805245 0.013581078 -8.129618e-05 -0.07025089 0.19316806 0.09985315 0.020026485
0.12405954 0.12355577 -0.024622155 0.015234182 -0.056425862 0.038337752 0.11048838 0.088703215
-0.10801399 -0.11419517 0.073158145 -0.16564684 0.0864002 -0.0977169 0.046886142 -0.0013062828
0.07344007 0.11415429 -0.23961008 -0.094625324 0.06751454 -0.028547287 0.10552337 -0.019584958
-0.028031375 0.025402116 0.3435913 -0.025363289 0.026469583 -0.12445375 0.0833402 0.05817676
-0.20141761 0.032203272 -0.080711454 0.21243346 0.0020637296 -0.10239361 0.12602565 -0.037768386
-0.07168942 -0.18644792 -0.11338001 0.25066805 0.1927749 -0.0023307486 -0.10954204 -0.06038166
-0.27640963 0.031956986 0.1716646 -0.052247558 -0.12618262 -0.16752416 0.03783377 -0.17033547
00000000: 82cf 503e 379e 1fbd 9625 e2ba d7df 6ebe
00000010: 0df1 323e f748 a7be 439f 11be 6773 4dbe
00000020: 5b83 1e3e 72ac 92bc 21e1 c0bc 7d37 41bd
00000030: 5b79 e83d 06c5 063e 6d54 96be dfb5 93be
00000040: d03d 893e 981b 15bd a250 1dbe 6d43 8dbd
00000050: c501 8e3e 07a4 7abc bac2 5fbe b846 323e
00000060: 054f 71be 30e8 493e 11bd a4bd 8d96 c0bd
00000070: 8297 25bd c4f5 443e 45cc 5bbe 3d76 7d3e
00000080: d5a2 4ebd 00ab b63d 9f52 393e 92a4 12bc
00000090: 9609 26be 3873 953e 7938 bc3d 3885 16be
000000a0: 2bdc 413e e6f9 503e c311 1fbe d42f d5bd
000000b0: fceb 9a3b 4ec7 bdbd c8d4 36bd 21eb bdbd
000000c0: c285 8e3d 9384 013e fa05 bb3d 39e1 753d
000000d0: cab5 b3bb 1ed4 e43d ff30 d63d 8de4 883d
000000e0: 5d52 6f3d d2d0 4ebe 9e53 303e 2c69 10bd
000000f0: 2f96 fcbd 219f f9bc 826f a83d 364c 96be
00000100: 4ee0 29be 8e76 5b3e 1a30 adbe ccbd e13d
00000110: e70f 7dbb fcc0 023d 6527 d73c 2aaa b23e
00000120: d658 acbe f171 953e 53c4 e4bd 50aa 8a3e
00000130: 4d63 923d 0d38 00be c958 ebbd b6a9 8e3e
00000140: 6e1e fb3c d0d9 0fbe 6d93 9a3e 8ac0 4c3e
00000150: 5115 91bd b586 dcbc 2b3c 273d 48dc 48be
00000160: 2f73 223e f337 18be 363d 7ebd 3b75 0a3e
00000170: 5fa5 ef3d dc86 333b 336e 013e 3c67 183e
00000180: a2d3 b33b 7f72 51be 2546 4c3e bde0 063e
00000190: 5f8d 29bc bc30 92bd 9e73 08bd 4fde 76bd
000001a0: 6ce5 09be 7693 75bd ec5d 8ebd 39ca 713d
000001b0: ce27 f6be 1e86 563a 2ea2 a8bd cb7e 733e
000001c0: aad5 e93d b881 553e 158a 30be 00fe 95bd
000001d0: 6ef4 38be 5239 3ebe dafd ecbb d2ae 113e
000001e0: d665 32be 5052 a03e 615e 4abe de17 d8bd
000001f0: d9aa dc3d 4349 523e 2513 353e 59bb e23b
00000200: c90e 113e 3dba 15be 393e bf3d 2205 813c
00000210: 8ad2 283e 44a1 913e 7086 aa3d 7998 f1bd
00000220: 0cea 4cbb 5613 8a3d 52a8 0f3e 38fe 9f3c
00000230: 2a9a 663d 5d4c 56bd d486 59be e562 babd
00000240: 8f5a 9ebd 57d7 ab3d ff69 1dbd 6bf1 6e3d
00000250: c17f 19be 4e3a c63d 191a aebe 6ac2 3d3e
00000260: 2638 7abc 6555 a73d 6135 0b3e a5e2 4f3e
00000270: 26cb 453d 0635 1e3e 8510 c8bd 54a1 f13d
00000280: ddaf ddbb 8c2c 7c3d 99fc 1cbd 26b6 ca3c
00000290: f5e5 3cbd 4d10 04be 61b6 993e df5e 103e
000002a0: 60e6 68be 5b1d 7bbd 315e e63d 7f77 90be
000002b0: 0c28 ddbb b73e c4bd 2707 00be cf28 1d3e
000002c0: 0504 a53c 59e8 f4bd 2da0 e5bc 6abd 56bd
000002d0: c551 8e3c 1c8b 4f3e 1708 57be b209 b2be
000002e0: b029 143e 998f dfbd 1038 42be 1c82 223e
000002f0: 77e4 843d 1f9a c8bd 3c45 30bc 7b46 79be
00000300: 1d12 96be a9ba afbd 2b83 5e3c 8e7d aab8
00000310: b3df 8fbd d9cd 453e cf7f cc3d 950e a43c
00000320: ee12 fe3d cf0a fd3d 67b4 c9bc ca98 793c
00000330: ce1e 67bd 0c08 1d3d bb47 e23d 08aa b53d
00000340: 7036 ddbd 28df e9bd f0d3 953d 539f 29be
00000350: 97f2 b03d cc1f c8bd af0b 403d 9437 abba
00000360: bf67 963d b9c9 e93d 585c 75be ecca c1bd
00000370: 1045 8a3d 00dc e9bc a31c d83d a270 a0bc
00000380: 0ea2 e5bc 1918 d03c 33eb af3e acc6 cfbc
00000390: bdd6 d83c 9ce1 febd 44ae aa3d c14a 6e3d
000003a0: 6b40 4ebe 94e7 033d 0c4c a5bd 2888 593e
000003b0: a33f 073b beb3 d1bd de0c 013e 06b3 1abd
000003c0: e7d1 92bd 34ec 3ebe c733 e8bd 9057 803e
000003d0: c966 453e 79bf 18bb 9457 e0bd c252 77bd
000003e0: 9085 8dbe 54e5 023d d8c8 2f3e 8901 56bd
000003f0: 0436 01be 748b 2bbe 95f7 1a3d 6c6c 2ebe

while/MatMul2 f4 [84, 32]
0.04844739 0.21384391 -0.1658879 -0.14931352 0.015398493 -0.29886281 0.085635394 -0.21940576
0.1489254 0.004144728 0.19281477 -0.11858934 0.06421304 -0.042549044 0.12709655 0.08548597
0.15472597 -0.021692889 0.024308113 -0.071414545 0.0489915 -0.18027721 0.08850521 -0.20415966
-0.26855156 0.21134546 0.08088571 0.030902892 0.036250293 -0.23537491 -0.2938385 -0.008764356
-0.17610697 0.19172671 -0.45376688 -0.13164093 -0.062183294 -0.24866238 -0.0645214 -0.22572808
-0.013029233 0.17833441 0.06564269 0.056791484 0.0366157 0.13616538 -0.25902212 0.011428388
-0.16024907 0.17905718 0.17532155 -0.16736914 0.2082591 -0.18665406 -0.16379762 0.18771312
-0.13586068 -0.023785263 0.19839665 -0.10866868 -0.11537937 -0.01363669 -0.44000226 -0.35500425
0.09750275 -0.092696905 -0.392163 -0.70089227 0.12228482 0.15516318 0.13349968 0.053736564
0.15010414 0.12411925 -0.14777906 0.19044754 0.08533338 0.052640736 -0.27480128 -0.09231845
0.019771531 -0.09363789 -0.13888161 -0.041243672 -0.06284633 -0.24088398 0.22264752 -0.1163543
-0.06040618 -0.055802703 -0.11866662 0.19581127 0.18071294 -0.037708018 0.03934791 -0.07715377
0.1823998 -0.16780531 -0.35928625 -0.5312175 -0.26865092 -0.06312505 -0.15801659 -0.26194736
-0.21077996 -0.0768466 0.16289699 0.14054483 -0.1834164 0.15767124 -0.39907506 0.00088800816
0.14245003 -0.026575975 -0.017855858 0.22666454 0.044279635 -0.023695812 0.16382098 -0.17067964
-0.27080268 -0.14716849 0.18894264 -0.15306339 0.21046302 -0.12395998 -0.15663955 -0.3574904
-0.040011782 0.17829564 0.076017044 -0.5269264 -0.17135295 -0.09844367 0.11398339 -0.13536999
0.21481836 -0.053298354 0.2128245 0.037195027 0.027838081 -0.04676047 -0.10229322 -0.025157105
0.09708747 -0.027399782 -0.017305965 0.012817711 0.113440275 -0.02743387 -0.06703286 -0.023114026
-0.16300368 0.13820136 0.0029679681 0.104567826 -0.14220075 -0.17841853 -0.16728206 -0.18882559
-0.0921524 -0.00732103 -0.043586016 -0.5818521 0.19176222 -0.17230448 -0.2100359 -0.23230095
-0.071244836 0.04357204 -0.3871294 0.15318263 -0.02811703 -0.19313166 -0.23911066 -0.21209231
0.15912744 0.08058934 0.16239178 0.20195484 0.02422744 0.043641146 -0.18538731 0.08640617
-0.21337445 0.17356914 -0.15099238 0.185985 0.0484626 -0.31046507 -0.25613406 0.057116617
-0.23624852 0.18121871 -0.30897528 -0.30220586 0.13455929 -0.21268913 0.0003780425 -0.01810396
-0.11319129 -0.10274841 -0.12712574 0.047086686 -0.16571462 -0.15054524 -0.1666737 0.03275655
-0.11779166 0.13994473 0.05728206 0.16507599 0.00035245717 0.15955669 0.17934954 0.12492594
-0.3680728 -0.014365777 0.10074642 0.059194 0.21530372 0.09462909 -0.35431218 -0.13310146
-0.049841918 0.17262983 -0.004907873 -0.42502722 -0.09564493 -0.08172451 -0.2177275 -0.066857256
-0.10555154 -0.02290152 -0.48304817 -0.18992998 0.09756404 0.013038337 -0.14039272 0.10924196
0.15995264 0.017789485 -0.099302314 0.071585774 0.1863243 -0.039409585 -0.044833854 -0.12176911
-0.28783262 0.103174776 -0.006539895 -0.009553343 -0.1441278 0.15843938 -0.0021462715 -0.18766941
00000000: c570 463d e6f9 5a3e 85de 29be a5e5 18be
00000010: f649 7c3c 8c04 99be 9c61 af3d e7ab 60be
00000020: e67f 183e 80d0 873b 3c71 453e f8de f2bd
00000030: 2082 833d e847 2ebd 9925 023e 4513 af3d
00000040: 7c70 1e3e 49b5 b1bc cf21 c73c ca41 92bd
00000050: 50ab 483d 979a 38be 3842 b53d 3b0f 51be
00000060: 977f 89be f26a 583e 68a7 a53d 1028 fd3c
00000070: 307b 143d 1f06 71be 0072 96be 6098 0fbc
00000080: 6355 34be 0254 443e 2254 e8be e1cc 06be
00000090: e9b3 7ebd 5aa1 7ebe cc23 84bd 4325 67be
000000a0: 9078 55bc 4c9d 363e ad6f 863d 309e 683d
000000b0: 58fa 153d f06e 0b3e 8c9e 84be 223e 3b3c
000000c0: 5518 24be c45a 373e 7e87 333e d162 2bbe
000000d0: e041 553e 3e22 3fbe 90ba 27be de37 403e
000000e0: 101f 0bbe 50d9 c2bc 7e28 4b3e af8d debd
000000f0: 054c ecbd 6c6c 5fbc fa47 e1be 1ec3 b5be
00000100: 86af c73d e0d7 bdbd 97c9 c8be ad6d 33bf
00000110: 7770 fa3d 19e3 1e3e 24b4 083e df1a 5c3d
00000120: e6b4 193e 3c32 fe3d 6553 17be ae04 433e
00000130: 44c3 ae3d d09d 573d c1b2 8cbe 7511 bdbd
00000140: e8f7 a13c 39c5 bfbd fb36 0ebe 20ef 28bd
00000150: 94b5 80bd 4aaa 76be b6fd 633e 2a4b eebd
00000160: 786c 77bd 6091 64bd 7c07 f3bd c082 483e
00000170: d00c 393e b973 1abd 462b 213d cc02 9ebd
00000180: 03c7 3a3e 28d5 2bbe 5ef4 b7be dffd 07bf
00000190: 9d8c 89be b547 81bd 1acf 21be f71d 86be
000001a0: b4d6 57be c061 9dbd 78ce 263e fcea 0f3e
000001b0: 82d1 3bbe 9274 213e 9153 ccbe 38c9 683a
000001c0: 6cde 113e dcb5 d9bc 7346 92bc c01a 683e
000001d0: 905e 353d b81d c2bc b0c0 273e a5c6 2ebe
000001e0: a6a6 8abe 56b3 16be 2e7a 413e a6bc 1cbe
000001f0: 9e83 573e bbde fdbd 1e66 20be fb08 b7be
00000200: 65e3 23bd 2293 363e d3ae 9b3d a6e4 06bf
00000210: 2677 2fbe d69c c9bd 2070 e93d 6e9e 0abe
00000220: 58f9 5b3e 604f 5abd aaee 593e d059 183d
00000230: b00c e43c e887 3fbd 1c7f d1bd 4616 cebc
00000240: ccd5 c63d 8275 e0bc 3dc5 8dbc 6001 523c
00000250: 6053 e83d ffbc e0bc 8648 89bd a059 bdbc
00000260: 70ea 26be a884 0d3e 3e82 423b a827 d63d
00000270: 139d 11be 59b3 36be fd4b 2bbe 7f5b 41be
00000280: 66ba bcbd 40e5 efbb 4087 32bd 42f4 14bf
00000290: 515d 443e 9670 30be a713 57be 4de0 6dbe
000002a0: d0e8 91bd 9878 323d d335 c6be e8db 1c3e
000002b0: b055 e6bc 4ec4 45be 6dd9 74be ba2e 59be
000002c0: 4ef2 223e 060c a53d 084a 263e 40cd 4e3e
000002d0: a078 c63c 0fc1 323d 2cd6 3dbe b8f5 b03d
000002e0: d57e 5abe 1cbc 313e bf9d 1abe da72 3e3e
000002f0: b880 463d 47f5 9ebe 0124 83be 1df3 693d
00000300: 22eb 71be 6691 393e 0232 9ebe baba 9abe
00000310: e9c9 093e 2ecb 59be 0134 c639 c24e 94bc
00000320: d6d0 e7bd c26d d2bd 402d 02be f8dd 403d
00000330: 18b1 29be 8828 1abe 83ac 2abe bb2b 063d
00000340: c13c f1bd ac4d 0f3e 98a0 6a3d ae09 293e
00000350: 00ca b839 d462 233e 68a7 373e 2cd9 ff3d
00000360: 0a74 bcbe 705e 6bbc 2454 ce3d 6875 723d
00000370: 9478 5c3e e5cc c13d 6868 b5be c04b 08be
00000380: 0a27 4cbd e0c5 303e 39d2 a0bb 2b9d d9be
00000390: 7de1 c3bd 2e5f a7bd f5f3 5ebe 75ec 88bd
000003a0: 682b d8bd f89b bbbc 1752 f7be 017d 42be
000003b0: a8cf c73d c09e 553c 1cc3 0fbe 40ba df3d
000003c0: a0ca 233e 41bb 913c 035f cbbd 909b 923d
000003d0: cccb 3e3e f26b 21bd b4a3 37bd 1562 f9bd
000003e0: cc5e 93be 4c4d d33d 9e4c d6bb a085 1cbc
000003f0: 3d96 13be ef3d 223e 76a8 0cbb 692c 40be
