student_tflite_models/student_model_quant.tflite (tflite, 67664 bytes, 12 tensors)

model_2/conv1d_2/BiasAdd/ReadVariableOp f4 [32]
-0.07317604 -0.0018083325 0.09567492 -0.036578394 -0.013903377 -0.03920238 -0.03901148 0.0
0.07479721 -0.11872503 -0.144029 -0.14238504 -0.0011588706 0.0 0.0 -0.07586484
-0.03766279 -0.069025375 0.0 -0.054180548 -0.035161186 0.0 -0.04836058 0.0
0.0 -0.107148856 -0.11995307 -0.0003377763 -0.14350346 -0.008270003 -0.0010399421 -0.0897078
00000000: 52dd 95bd 9205 edba 36f1 c33d 3ad3 15bd
00000010: fdca 63bc ad92 20bd 80ca 1fbd 0000 0000
00000020: 482f 993d 1c26 f3bd 577c 13be 62cd 11be
00000030: 3fe5 97ba 0000 0000 0000 0000 065f 9bbd
00000040: 4c44 1abd 2d5d 8dbd 0000 0000 6cec 5dbd
00000050: 2d05 10bd 0000 0000 be15 46bd 0000 0000
00000060: 0000 0000 dc70 dbbd f5a9 f5bd 9117 b1b9
00000070: 92f2 12be e87e 07bc ab4e 88ba b9b8 b7bd

model_2/conv1d_2/Conv1D f4 [32, 1, 1, 4]
0.2670046 0.13505118 0.015834581 -0.2163695 -0.23635055 0.079043895 0.026240459 -0.40085325
0.16024438 -0.26014796 -0.41928157 0.08604405 -0.12074591 0.27128005 0.20261256 -0.19050002
0.25572035 -0.22516464 0.103659324 -0.17318423 0.28927377 0.34317306 -0.38661268 -0.08473796
0.09803423 -0.32323328 0.26397994 0.14783251 0.10425967 0.23822743 -0.333831 -0.26766738
0.24497011 -0.36611375 0.2297683 -0.44623363 0.11960906 0.041504376 0.17152023 0.14899285
-0.12039476 -0.19960478 0.22859113 0.27729288 0.27909043 0.097541966 -0.268004 0.112127684
-0.23870865 0.16140282 -0.15207511 0.1619335 0.10711938 0.095166564 -0.24413076 -0.27683175
0.087279975 -0.33779466 -0.36109293 -0.3383928 0.2726944 -0.033385694 -0.037868988 0.14128144
0.0006043157 -0.3780802 0.2679205 0.2794631 -0.36994934 -0.045422766 0.31016627 0.2688739
-0.12262854 -0.15475237 -0.37855306 -0.19995116 0.012156471 -0.10378372 0.31850255 0.012700299
-0.38926756 0.25830865 0.25380388 0.020598087 0.07390365 0.010839105 -0.17101415 -0.1349963
-0.082320236 -0.12684356 0.2786286 0.14406143 0.093699515 0.042807788 -0.15675005 -0.32350653
-0.2275353 0.2454722 -0.38163254 -0.36773372 0.03805204 0.057446446 0.28466955 -0.10330284
0.27745253 -0.0019497217 0.12725557 -0.1756615 0.39533147 -0.27429876 -0.32385948 -0.0014285434
0.033356436 0.14840268 0.0046673655 0.12471563 -0.0075225797 -0.050037935 -0.011969338 0.04604735
-0.18936738 -0.3156938 -0.15271321 0.19446169 0.0048960107 0.16729328 0.22222917 -0.2301428
00000000: d4b4 883e db4a 0a3e 86b7 813c f78f 5dbe
00000010: e105 72be c4e1 a13d 3bf6 d63c a33c cdbe
00000020: 1a17 243e 1d32 85be 13ac d6be dd37 b03d
00000030: a249 f7bd 38e5 8a3e ab79 4f3e 7012 43be
00000040: c7ed 823e 8f91 66be 574b d43d 3557 31be
00000050: b11b 943e 61b4 af3e 19f2 c5be 188b adbd
00000060: 2cc6 c83d d57e a5be 6128 873e 6861 173e
00000070: 1886 d53d e4f1 733e e6eb aabe b30b 89be
00000080: 72d9 7a3e 4373 bbbe 6248 6b3e bc78 e4be
00000090: 98f5 f43d 7e00 2a3d 00a3 2f3e 9591 183e
000000a0: 8791 f6bd 3265 4cbe cb13 6a3e 55f9 8d3e
000000b0: f1e4 8e3e 15c4 c73d d237 89be 33a3 e53d
000000c0: 0a70 74be c846 253e 94b9 1bbe e5d1 253e
000000d0: 6861 db3d b0e6 c23d 6afd 79be e4bc 8dbe
000000e0: d8bf b23d 6cf3 acbe 2ce1 b8be d241 adbe
000000f0: 9a9e 8b3e 70bf 08bd 831c 1bbd 15ac 103e
00000100: f16a 1e3a ba93 c1be e02c 893e ca15 8f3e
00000110: 006a bdbe 390d 3abd 1dce 9e3e d7a9 893e
00000120: ac24 fbbd 6877 1ebe b5d1 c1be ffbf 4cbe
00000130: ef2b 473c 8f8c d4bd c412 a33e ea14 503c
00000140: 144e c7be 0841 843e 95f2 813e 52bd a83c
00000150: cc5a 973d 8096 313c 551e 2fbe 783c 0abe
00000160: 8397 a8bd 47e3 01be 68a8 8e3e d784 133e
00000170: 88e5 bf3d 3857 2f3d 1683 20be a6a2 a5be
00000180: 04ff 68be 105d 7b3e 5765 c3be 9847 bcbe
00000190: 75dc 1b3d f74c 6b3d 35c0 913e 7090 d3bd
000001a0: 420e 8e3e ce8d ffba 494f 023e 9ce0 33be
000001b0: e368 ca3e e370 8cbe e9d0 a5be f63d bbba
000001c0: c2a0 083d dff6 173e b3f0 983b e96a ff3d
000001d0: f97f f6bb 94f4 4cbd 0b1b 44bc 259c 3c3d
000001e0: 86e9 41be 9ea2 a1be da60 1cbe f720 473e
000001f0: b76e a03b ee4e 2b3e 0b90 633e 8eaa 6bbe

model_2/dense_4/BiasAdd/ReadVariableOp f4 [4]
0.32586613 0.3244275 0.32530585 0.3247471
00000000: edd7 a63e 5c1b a63e 7d8e a63e 4045 a63e

model_2/bidirectional_2/forward_lstm_2/Read_2/ReadVariableOp f4 [84]
-0.14393522 -0.12752672 -0.13161859 -0.10769855 -0.13170801 -0.10472028 -0.17878541 -0.20642965
-0.14661558 -0.13862759 -0.080568306 -0.097290225 -0.10149975 -0.13995111 -0.1621593 -0.1606828
-0.118096165 -0.16344468 -0.13331959 -0.10420898 -0.12731995 0.92108417 0.8943238 0.90578973
0.91624296 0.9505361 0.9130496 0.9031013 0.89366144 0.9190343 0.8892227 0.94481415
0.9283341 0.9011026 0.9026813 0.9207789 0.9063584 0.91096133 0.8684191 0.9159598
0.9417454 0.90558565 -0.0024973177 0.0025362314 -0.004190898 0.010913917 -0.0050367224 -0.0021030973
0.00018247333 -0.013375199 0.0059964806 -0.020757291 0.005147442 0.0034186533 0.0037834698 -0.0034825278
0.008749033 0.0056072217 -0.005372887 0.007153392 -0.011995656 0.0057334173 0.0042145248 -0.13358659
-0.12697689 -0.13341056 -0.11801437 -0.11888109 -0.08854776 -0.13405043 -0.20106082 -0.12816562
-0.14028062 -0.06402519 -0.08799755 -0.09369148 -0.14074151 -0.17898823 -0.15129507 -0.12264761
-0.15721409 -0.122538425 -0.08426671 -0.110043116
00000000: c163 13be 5d96 02be 06c7 06be 0f91 dcbd
00000010: 77de 06be 9677 d6bd 8613 37be 4b62 53be
00000020: 6522 16be 64f4 0dbe ff00 a5bd 1940 c7bd
00000030: 1adf cfbd 584f 0fbe 160d 26be 088a 24be
00000040: 67dc f1bd 0b5e 27be ee84 08be 856b d5bd
00000050: 2960 02be 2ccc 6b3f 68f2 643f d6e1 673f
00000060: e68e 6a3f 5556 733f 9ebd 693f a631 673f
00000070: ffc6 643f d545 6b3f 19a4 633f 57df 713f
00000080: 4ea7 6d3f a9ae 663f 1f16 673f 2ab8 6b3f
00000090: 1b07 683f c334 693f b750 5e3f 577c 6a3f
000000a0: 3a16 713f 76d4 673f 0aaa 23bb e736 263b
000000b0: cd53 89bb 49d0 323c 170b a5bb 1ed4 09bb
000000c0: 5056 3f39 a723 5bbc 207e c43b 320b aabc
000000d0: e0ab a83b 7c0b 603b 17f4 773b 1f3b 64bb
000000e0: 1b58 0f3c c9bc b73b 0b0f b0bb 0067 ea3b
000000f0: 6e89 44bc 64df bb3b ff19 8a3b ecca 08be
00000100: 3b06 02be c79c 08be 85b1 f1bd ee77 f3bd
00000110: 8758 b5bd 8444 09be e3e2 4dbe d93d 03be
00000120: b9a5 0fbe a41f 83bd 0f38 b4bd 52e1 bfbd
00000130: 8b1e 10be b148 37be 18ed 1abe ac2e fbbd
00000140: bbfc 20be 6df5 fabd 0694 acbd 495e e1bd

model_2/bidirectional_2/backward_lstm_2/Read_2/ReadVariableOp f4 [84]
-0.069079995 -0.15849286 -0.048058752 -0.177539 -0.17794512 -0.18529792 -0.14182515 -0.19358695
-0.1368125 -0.09306721 -0.087185636 -0.12093561 -0.09807093 -0.06713531 -0.11131256 -0.13752988
-0.1270463 -0.1333243 -0.06964095 -0.20027389 -0.16295367 0.9860414 0.9131691 1.0389427
0.91029024 0.9165618 0.9172019 1.0506895 0.92746913 0.94180155 0.9598794 0.9375969
0.9715626 0.9953434 1.0216801 1.0036252 0.9830676 0.92541397 0.95672596 0.96309745
0.9131263 0.9229622 -0.013801088 0.021429181 0.0015858946 0.008950836 -0.008455265 0.015838759
-0.025599387 0.013075385 0.0009937667 -0.0061774184 0.012679125 -0.007986132 0.020311888 0.03245658
-0.0040564574 -0.0017907771 -0.011861735 0.011499066 0.015929751 -0.0068092523 -0.0011722088 -0.07149308
-0.14735402 -0.036207367 -0.16617724 -0.16338356 -0.17042795 -0.12712489 -0.15586308 -0.1284189
-0.073207155 -0.092752285 -0.11031966 -0.09669843 -0.07496333 -0.09502937 -0.13595638 -0.11610868
-0.113660276 -0.06255431 -0.15280029 -0.17338188
00000000: d079 8dbd f44b 22be 41d9 44bd c9cc 35be
00000010: 3f37 36be bdbe 3dbe 9d3a 11be a83b 46be
00000020: 9318 0cbe 059a bebd 628e b2bd 17ad f7bd
00000030: 69d9 c8bd 3d7e 89bd d7f7 e3bd a2d4 0cbe
00000040: 6d18 02be 2a86 08be ea9f 8ebd 9914 4dbe
00000050: 54dd 26be 366d 7c3f 73c5 693f 13fc 843f
00000060: c808 693f cba3 6a3f becd 6a3f fe7c 863f
00000070: 9e6e 6d3f e819 713f a8ba 753f 5a06 703f
00000080: 54b8 783f d3ce 7e3f 6ac6 823f ca76 803f
00000090: 51aa 7b3f eee7 6c3f feeb 743f 8e8d 763f
000000a0: a5c2 693f 4047 6c3f f51d 62bc 408c af3c
000000b0: cbdd cf3a 87a6 123c f487 0abc 49c0 813c
000000c0: ceb5 d1bc 243a 563c 4741 823a f16b cabb
000000d0: 1bbc 4f3c 44d8 02bc 1e65 a63c 31f1 043d
000000e0: 08ec 84bb 82b8 eaba b957 42bc 9466 3c3c
000000f0: 1c7f 823c 2620 dfbb cda4 99ba f76a 92bd
00000100: f9e3 16be 2d4e 14bd 5e2a 2abe 054e 27be
00000110: aa84 2ebe 072d 02be 929a 1fbe 3e80 03be
00000120: a2ed 95bd e9f4 bdbd 46ef e1bd d409 c6bd
00000130: 6086 99bd c29e c2bd 2638 0bbe 63ca edbd
00000140: b8c6 e8bd 791c 80bd ae77 1cbe 058b 31be

model_2/dense_4/MatMul f4 [4, 840]
-0.030539604 -0.014839445 -0.014983652 0.05555006 -0.053904224 -0.04557774 -0.048370987 -0.035029463
0.053073976 0.01803188 0.03966747 -0.023867374 -0.028904146 -0.02002684 0.05978849 -0.020080449
0.025639396 -0.017343443 -0.041122895 -0.028771713 -0.03989627 0.013248831 0.024327671 -0.020094054
-0.028044498 0.023779012 -0.0056612776 0.010085395 0.0570325 -0.011552488 0.014546016 -0.014653963
0.011550571 -0.00977415 0.024879158 0.009368401 0.016317897 0.011755554 -0.013573239 -0.009650014
0.043907467 0.027794318 -0.019953268 -0.022067472 -0.021726025 0.02295303 -0.03389325 -0.011159028
-0.04593674 -0.0044514197 0.027512811 0.020667484 0.033471834 -0.020404637 -0.01570995 -0.043940134
0.038934052 -0.02080207 0.030787595 -0.017856015 -0.028937543 -0.021387111 -0.01572825 0.015218269
0.001124042 -0.011148861 -0.032079212 0.024425983 0.063231066 0.017098764 0.03208383 -0.015406133
0.014136965 -0.016662488 0.014734623 -0.013823945 0.029396614 0.009833834 0.020287529 0.021403858
-0.008055271 -0.0019402851 0.031865597 0.021070344 -0.017454894 -0.006889742 -0.0119988695 0.02853044
-0.029113142 -0.015149379 -0.027055927 -0.022872921 0.024709735 0.015254526 0.022716366 -0.012814439
-0.01669565 -0.013945893 0.027831014 -0.013659753 0.01473604 -0.019347077 -0.022693785 -0.024772385
-0.024987547 0.008715342 -0.011344789 -0.013523987 -0.040321 0.0066405814 -0.01002748 0.013714865
0.007545909 -0.014142676 0.022199133 -0.013109873 0.019371213 -0.01262857 0.039516587 0.013930919
0.010915217 0.013710199 -0.019004382 -0.01689371 -0.0012483606 0.021155136 -0.027635865 -0.012529927
-0.009034251 0.019525815 -0.024649099 -0.024436358 -0.022374967 -0.015423132 0.030900659 0.014082559
0.017095512 -0.016447553 -0.019342972 -0.022254603 0.030102715 -0.021252237 0.01775768 -0.004959346
-0.017080115 -0.019935822 -0.015760208 0.013465664 0.024246605 -0.015727233 -0.029396478 0.0078834975
-0.025622286 0.018202486 0.011680956 -0.016146684 0.016870858 -0.014955987 0.0059084147 -0.016997876
0.04024123 0.0102847265 0.01759072 0.020205773 -0.012549158 -0.011891994 -0.0016626149 0.010721382
-0.035545554 -0.016765118 -0.00047021266 0.014448968 -0.012882534 -0.020271122 -0.025837746 -0.016073368
0.03979678 0.015815707 0.010864515 -0.023940075 -0.011339292 -0.020217165 0.026542163 -0.026221832
0.02142334 -0.015060045 -0.017726744 -0.019519495 -0.020300882 0.009415144 -0.011195936 -0.0151676135
-0.028148133 0.02657541 0.022406947 0.0061238813 0.00034694132 -0.015905159 0.017523319 -0.021985922
0.014545605 -0.018152446 0.041237537 0.015821619 0.016070405 0.024736429 -0.017932484 -0.006910184
-0.01640605 0.020983664 -0.018124519 -0.017337343 -0.012645669 0.023041038 -0.030910904 -0.016216764
-0.023712523 -0.015317592 0.0054496243 0.016679404 0.022364061 -0.015260334 -0.019957764 -0.020363687
0.020623175 -0.018823756 0.008662835 -0.02352764 -0.031319983 -0.029465549 -0.025899824 0.009549468
0.04376505 -0.016283818 -0.030674716 0.032258444 -0.011335253 0.0135638835 -0.010590827 -0.023280598
0.022615338 -0.0077799005 0.009693557 -0.01051134 0.038840443 0.017839639 0.019534314 0.013542244
-0.012927227 -0.025481805 0.033687174 0.013326584 -0.015777774 -0.018418832 -0.019359512 0.01829118
00000000: 312e fabc 2521 73bc fe7d 75bc 7688 633d
00000010: adca 5cbd b9af 3abd a820 46bd 0e7b 0fbd
00000020: 1964 593d 98b7 933c 5b7a 223d 8385 c3bc
00000030: 63c8 ecbc 540f a4bc c7e4 743d c17f a4bc
00000040: b609 d23c d613 8ebc 7b70 28bd a8b2 ebbc
00000050: 456a 23bd a011 593c d34a c73c 499c a4bc
00000060: 93bd e5bc 34cc c23c 3d82 b9bb 363d 253c
00000070: e99a 693d a646 3dbc 6a52 6e3c 2d17 70bc
00000080: 9b3e 3d3c c223 20bc 60cf cb3c ec7d 193c
00000090: 1cad 853c 5e9a 403c 4a62 5ebc 181b 1ebc
000000a0: 51d8 333d e9b0 e33c 0975 a3bc d8c6 b4bc
000000b0: c7fa b1bc fe07 bc3c a6d3 0abd 5bd4 36bc
000000c0: 2a28 3cbd 37dd 91bb 8c62 e13c db4e a93c
000000d0: c319 093d a027 a7bc 27b2 80bc 92fa 33bd
000000e0: 5079 1f3d 1a69 aabc 4436 fc3c c746 92bc
000000f0: 6d0e edbc 0634 afbc 88d8 80bc 0c56 793c
00000100: 9754 933a b6a9 36bc 7e65 03bd 0019 c83c
00000110: 4a7f 813d b512 8c3c 566a 033d 016a 7cbc
00000120: bb9e 673c c57f 88bc 7d69 713c d47d 62bc
00000130: 2bd1 f03c 171e 213c 0832 a63c 2557 af3c
00000140: 41fa 03bc 2a51 feba 8085 023d b79b ac3c
00000150: 91fd 8ebc 58c3 e1bb e896 44bc abb8 e93c
00000160: af7e eebc 1a35 78bc 64a4 ddbc fe5f bbbc
00000170: 126c ca3c 1fee 793c ac17 ba3c a7f3 51bc
00000180: 51c5 88bc 517d 64bc defd e33c 28cd 5fbc
00000190: 6e6f 713c c37d 9ebc 51e8 b9bc 75ef cabc
000001a0: afb2 ccbc cbca 0e3c 7edf 39bc b693 5dbc
000001b0: a227 25bd 3c99 d93b 4d4a 24bc 50b4 603c
000001c0: ac43 f73b afb6 67bc f5da b53c cbca 56bc
000001d0: 61b0 9e3c 10e8 4ebc 25dc 213d 823e 643c
000001e0: bdd5 323c bea0 603c 14af 9bbc ad64 8abc
000001f0: 08a0 a3ba 894d ad3c 9c64 e2bc 534a 4dbc
00000200: 6504 14bc 9af4 9f3c e8ec c9bc c22e c8bc
00000210: b54b b7bc 4eb1 7cbc 6123 fd3c 89ba 663c
00000220: e30b 8c3c 05bd 86bc 2775 9ebc 494f b6bc
00000230: f899 f63c 2c19 aebc 8e78 913c 0282 a2bb
00000240: 99eb 8bbc 7350 a3bc 8d1b 81bc 179f 5c3c
00000250: d1a0 c63c 66d6 80bc e2d0 f0bc c929 013c
00000260: d4e5 d1bc 611d 953c 7b61 3f3c 0d46 84bc
00000270: c134 8a3c f509 75bc 609b c13b 213f 8bbc
00000280: fdd3 243d 4581 283c 6a1a 903c 9486 a53c
00000290: fc9a 4dbc a3d6 42bc 19ec d9ba bca8 2f3c
000002a0: 3798 11bd 0057 89bc e086 f6b9 5dbb 6c3c
000002b0: 4411 53bc a00f a6bc aea9 d3bc 4cac 83bc
000002c0: f301 233d f18f 813c 1401 323c fa1d c4bc
000002d0: 70c8 39bc 789e a5bc f36e d93c 2bcf d6bc
000002e0: 0080 af3c 68be 76bc ad37 91bc 59e7 9fbc
000002f0: 094e a6bc fa41 1a3c 296f 37bc 9581 78bc
00000300: ea96 e6bc adb4 d93c c68e b73c d7aa c83b
00000310: ade5 b539 894b 82bc 108d 8f3c d21b b4bc
00000320: b050 6e3c 70b4 94bc b1e8 283d 579c 813c
00000330: 15a6 833c 0da4 ca3c 25e7 92bc d36e e2bb
00000340: fb65 86bc efe5 ab3c df79 94bc 0b07 8ebc
00000350: c82f 4fbc 8fc0 bc3c dd38 fdbc 05d9 84bc
00000360: c440 c2bc a3f6 7abc c392 b23b 3fa3 883c
00000370: d634 b73c 7b06 7abc 777e a3bc bfd1 a6bc
00000380: eff1 a83c 4734 9abc 90ee 0d3c 0abd c0bc
00000390: 6249 00bd bc61 f1bc de2b d4bc 5f75 1c3c
000003a0: fb42 333d a465 85bc 8b49 fbbc 6e21 043d
000003b0: 7fb7 39bc 0d3b 5e3c 2685 2dbc f4b6 bebc
000003c0: cd43 b93c 89ee febb bad1 1e3c c137 2cbc
000003d0: 2817 1f3d 6f24 923c 6d06 a03c 4ae0 5d3c
000003e0: b8cc 53bc 38bf d0bc 90fb 093d bf57 5a3c
000003f0: 6440 81bc 17e3 96bc d797 9ebc 62d7 953c

model_2/bidirectional_2/backward_lstm_2/Read_2/ReadVariableOp1 f4 [84]
-0.069079995 -0.15849286 -0.048058752 -0.177539 -0.17794512 -0.18529792 -0.14182515 -0.19358695
-0.1368125 -0.09306721 -0.087185636 -0.12093561 -0.09807093 -0.06713531 -0.11131256 -0.13752988
-0.1270463 -0.1333243 -0.06964095 -0.20027389 -0.16295367 0.9860414 0.9131691 1.0389427
0.91029024 0.9165618 0.9172019 1.0506895 0.92746913 0.94180155 0.9598794 0.9375969
0.9715626 0.9953434 1.0216801 1.0036252 0.9830676 0.92541397 0.95672596 0.96309745
0.9131263 0.9229622 -0.013801088 0.021429181 0.0015858946 0.008950836 -0.008455265 0.015838759
-0.025599387 0.013075385 0.0009937667 -0.0061774184 0.012679125 -0.007986132 0.020311888 0.03245658
-0.0040564574 -0.0017907771 -0.011861735 0.011499066 0.015929751 -0.0068092523 -0.0011722088 -0.07149308
-0.14735402 -0.036207367 -0.16617724 -0.16338356 -0.17042795 -0.12712489 -0.15586308 -0.1284189
-0.073207155 -0.092752285 -0.11031966 -0.09669843 -0.07496333 -0.09502937 -0.13595638 -0.11610868
-0.113660276 -0.06255431 -0.15280029 -0.17338188
00000000: d079 8dbd f44b 22be 41d9 44bd c9cc 35be
00000010: 3f37 36be bdbe 3dbe 9d3a 11be a83b 46be
00000020: 9318 0cbe 059a bebd 628e b2bd 17ad f7bd
00000030: 69d9 c8bd 3d7e 89bd d7f7 e3bd a2d4 0cbe
00000040: 6d18 02be 2a86 08be ea9f 8ebd 9914 4dbe
00000050: 54dd 26be 366d 7c3f 73c5 693f 13fc 843f
00000060: c808 693f cba3 6a3f becd 6a3f fe7c 863f
00000070: 9e6e 6d3f e819 713f a8ba 753f 5a06 703f
00000080: 54b8 783f d3ce 7e3f 6ac6 823f ca76 803f
00000090: 51aa 7b3f eee7 6c3f feeb 743f 8e8d 763f
000000a0: a5c2 693f 4047 6c3f f51d 62bc 408c af3c
000000b0: cbdd cf3a 87a6 123c f487 0abc 49c0 813c
000000c0: ceb5 d1bc 243a 563c 4741 823a f16b cabb
000000d0: 1bbc 4f3c 44d8 02bc 1e65 a63c 31f1 043d
000000e0: 08ec 84bb 82b8 eaba b957 42bc 9466 3c3c
000000f0: 1c7f 823c 2620 dfbb cda4 99ba f76a 92bd
00000100: f9e3 16be 2d4e 14bd 5e2a 2abe 054e 27be
00000110: aa84 2ebe 072d 02be 929a 1fbe 3e80 03be
00000120: a2ed 95bd e9f4 bdbd 46ef e1bd d409 c6bd
00000130: 6086 99bd c29e c2bd 2638 0bbe 63ca edbd
00000140: b8c6 e8bd 791c 80bd ae77 1cbe 058b 31be

while/MatMul_11 f4 [84, 21]
-0.33675998 0.097731 0.238168 0.14117658 0.021610986 0.15207553 -0.24630673 -0.19376443
0.06551426 -0.122139126 -0.08178903 -0.09630639 -0.026723938 0.13535877 0.11353698 -0.14554906
-0.14102922 0.05687587 0.09054395 -0.10825842 0.09696948 -0.16134895 0.001913052 0.20711009
0.19424623 -0.17603916 -0.023153752 -0.10385805 -0.016779024 0.06133483 -0.10763206 -0.037516758
-0.16676676 0.28419238 -0.114216365 -0.1787056 -0.2068964 0.083002985 0.039209917 0.20633397
-0.21513951 -0.18676284 -0.25362942 -0.049092367 0.0530729 -0.058182612 -0.058887895 -0.013652657
-0.21395805 0.08557535 0.09313885 0.082738414 0.04343701 -0.08246304 0.11033974 0.37907586
-0.18747273 -0.113442466 -0.0089512225 0.22338714 0.12039756 -0.035193864 -0.13806537 -0.20962246
-0.07655715 0.24582194 0.21301517 -0.07194795 0.093821175 -0.31497785 0.18730251 0.10870953
0.028637895 0.3560635 -0.25463644 0.38901085 0.14741942 -0.22955522 -0.09916339 -0.19308724
0.22391646 0.22057718 -0.11548123 -0.2440065 -0.0869721 0.14967297 -0.007536187 0.28057325
-0.072792634 0.05631369 -0.14954035 0.06878789 0.113794565 0.020833666 -0.019232657 -0.34487262
0.007074279 -0.10150435 -0.2327783 -0.09243888 -0.13349451 0.34466156 0.26283225 0.029660037
-0.20462528 0.03791021 0.19292161 0.29735702 0.012238408 0.21690021 -0.22343175 -0.31348193
-0.09032673 0.011975662 0.043166213 0.05595809 -0.009198571 0.023764 0.060776897 -0.27760008
0.052966338 -0.07344714 0.070985265 0.22977306 0.0630645 -0.059625357 -0.285153 -0.11131887
0.26686758 0.04989834 -0.17331351 0.22538722 -0.30179623 -0.11125619 0.3020162 0.038133774
0.25832143 -0.20719649 0.28194398 0.39571053 -0.28876522 -0.03080584 -0.17292872 0.153057
0.58481425 -0.1159215 -0.15576738 -0.081312016 -0.04871298 -0.094489895 0.09939939 -0.13242793
0.14009407 -0.1605239 -0.09354713 0.09591516 0.13345924 0.05598488 0.024762465 0.2596547
-0.039098796 -0.01178005 -0.038567666 0.06746255 0.14411475 0.29924196 0.17158817 -0.17455877
-0.2562706 0.10193482 0.091667555 0.06704476 0.026815921 -0.1436087 -0.017616374 0.055271566
0.13112624 -0.04349848 0.113666095 -0.23161633 -0.07614662 0.16961426 -0.015478378 -0.01665597
0.01905328 0.19027221 0.2577582 -0.09036262 -0.08983071 0.1041956 0.11353341 0.087478705
0.071056075 -0.16679065 0.034671802 -0.101608865 -0.22917295 0.002816059 -0.0363358 -0.04628951
-0.01417738 -0.0024030055 0.03202646 -0.13912377 -0.080001116 0.08538806 -0.04861993 -0.0432715
-0.19041035 -0.16763161 -0.0880598 -0.07154288 0.032597777 0.20860422 0.02725296 0.088684835
-0.23426363 -0.12379634 0.14689343 -0.15143196 0.0019374078 -0.10977685 0.121653125 0.15064317
-0.2225422 -0.06760796 -0.03353439 0.09615856 -0.018430186 0.014788716 -0.00016685898 -0.25253922
0.040038895 0.043730035 0.18052824 -0.131321 0.005600693 -0.369691 0.16171634 0.035274666
0.060210545 0.057328805 -0.08269343 0.05260729 0.28149825 -0.010177804 -0.14952396 0.14862557
0.22641774 0.20690675 0.103468135 0.0900352 -0.55077374 0.011719749 0.2395444 0.091449
00000000: ce6b acbe 3127 c83d 50e2 733e 9890 103e
00000010: 8609 b13c b0b9 1b3e d537 7cbe 2f6a 46be
00000020: 572c 863d 1424 fabd 0281 a7bd 493c c5bd
00000030: 29ec dabc 7d9b 0a3e 1386 e83d d00a 15be
00000040: f769 10be acf6 683d 1b6f b93d 97b6 ddbd
00000050: ef97 c63d a938 25be 60bf fa3a ab14 543e
00000060: 7ce8 463e 9c43 34be f0ac bdbc 88b3 d4bd
00000070: 2a74 89bc 3b3a 7b3d 336e dcbd 2cab 19bd
00000080: e8c4 2abe aa81 913e 45ea e9bd 9afe 36be
00000090: a6dc 53be 78fd a93d 949a 203d 3649 533e
000000a0: 884d 5cbe c23e 3fbe b7db 81be 1415 49bd
000000b0: f862 593d e450 6ebd 6f34 71bd 65af 5fbc
000000c0: d217 5bbe 2142 af3d 95bf be3d c272 a93d
000000d0: 02eb 313d 62e2 a8bd cdf9 e13d 3b16 c23e
000000e0: daf8 3fbe 8654 e8bd 26a8 12bc 99bf 643e
000000f0: ff92 f63d 7127 10bd 0261 0dbe 45a7 56be
00000100: ffc9 9cbd bfb8 7b3e a620 5a3e 7259 93bd
00000110: 5125 c03d c744 a1be 3bcc 3f3e 1aa3 de3d
00000120: 059a ea3c f44d b63e b55f 82be 6e2c c73e
00000130: 1ef5 163e 8610 6bbe 2d16 cbbd a9b8 45be
00000140: 5b4a 653e fcde 613e 6c81 ecbd d7dc 79be
00000150: 6e1e b2bd df43 193e 1ef2 f6bb 4ca7 8f3e
00000160: 4e14 95bd 2fa9 663d 1b21 19be aae0 8c3d
00000170: 200d e93d 5dab aa3c ce8d 9dbc 2593 b0be
00000180: 5acf e73b 83e1 cfbd 6f5d 6ebe 9850 bdbd
00000190: c9b2 08be 7b77 b03e f391 863e 9bf9 f23c
000001a0: 4a89 51be bd47 1b3d 3e8d 453e 2e3f 983e
000001b0: 9b83 483c 171b 5e3e 4bcb 64be b480 a0be
000001c0: 38fd b8bd 9135 443c 0ecf 303d 4f34 653d
000001d0: 9ab5 16bc b8ac c23c 32f1 783d 9921 8ebe
000001e0: 3bf3 583d 746b 96bd b960 913d a149 6b3e
000001f0: f627 813d b839 74bd 93ff 91be 26fb e3bd
00000200: dea2 883e 3462 4c3d 1979 31be e8cb 663e
00000210: 0985 9abe 49da e3bd dea1 9a3e 2932 1c3d
00000220: b542 843e 512b 54be f65a 903e 929a ca3e
00000230: 09d9 93be 875c fcbc 3a14 31be f9ba 1c3e
00000240: 63b6 153f 4068 edbd 7c81 1fbe ea86 a6bd
00000250: 4387 47bd eb83 c1bd e891 cb3d 309b 07be
00000260: d274 0f3e 6160 24be a395 bfbd 2b6f c43d
00000270: 8aa9 083e 6750 653d a7da ca3c 76f1 843e
00000280: 0f26 20bd 1c01 41bc 21f9 1dbd ce29 8a3d
00000290: d192 133e 3e36 993e cfb4 2f3e 89bf 32be
000002a0: e635 83be 34c3 d03d 33bc bb3d c34e 893d
000002b0: 10ad db3c 290e 13be 3750 90bc 7064 623d
000002c0: f545 063e 762b 32bd c5c9 e83d d52c 6dbe
000002d0: c2f2 9bbd 5caf 2d3e 0699 7dbc 1a72 88bc
000002e0: a015 9c3c b8d6 423e e2f8 833e 0a10 b9bd
000002f0: 2af9 b7bd 8164 d53d 3484 e83d 0928 b33d
00000300: d985 913d 2bcb 2abe 0504 0e3d 4f18 d0bd
00000310: 50ac 6abe a18d 383b d9d4 14bd 129a 3dbd
00000320: 3e48 68bc be7b 1dbb 2d2e 033d 7676 0ebe
00000330: a0d7 a3bd efdf ae3d b125 47bd 753d 31bd
00000340: eefa 42be 9fa7 2bbe b258 b4bd 1385 92bd
00000350: 3f85 053d 589c 553e 9941 df3c 65a0 b53d
00000360: cee2 6fbe ef88 fdbd 3b6b 163e fb10 1bbe
00000370: 9ef0 fd3a afd2 e0bd 4625 f93d 3442 1a3e
00000380: 1ae2 63be 0b76 8abd 5b5b 09bd c7ee c43d
00000390: e7fa 96bc 5f4c 723c def6 2eb9 d24c 81be
000003a0: d3ff 233d 441e 333d 65dc 383e 0379 06be
000003b0: 0586 b73b 2448 bdbe f898 253e 2b7c 103d
000003c0: 559f 763d 9cd1 6a3d 2c5b a9bd be7a 573d
000003d0: 8a20 903e cec0 26bc cf1c 19be 4d31 183e
000003e0: 0dda 673e 5ddf 533e 1ae7 d33d 6064 b83d
000003f0: 82ff 0cbf 3104 403c 214b 753e 9d49 bb3d

while/MatMul f4 [84, 32]
-0.10049966 -0.09781982 0.047741517 -0.14302817 0.111097224 -0.16068971 -0.4342242 -0.18175499
-0.06864718 0.18326433 0.13429773 -0.14993231 -0.05599922 0.043433875 0.033245236 -0.17954771
-0.114649095 -0.07786971 0.0026234835 -0.33398733 -0.035961203 -0.12769437 -0.21242137 0.03904584
-0.069618285 -0.24066693 0.054339327 0.06390077 -0.111542426 -0.17565297 -0.20801657 -0.16789228
-0.017388778 0.21854106 0.16199975 -0.21670231 -0.026244927 -0.015860705 -0.37091944 -0.071615934
-0.17274085 0.080792055 -0.06122186 -0.12622373 0.09559119 -0.008145392 0.22180206 0.00333959
-0.115463786 0.10401165 0.04156667 -0.2654847 0.04409176 -0.15139455 0.021232832 0.078270406
-0.15940878 0.024382448 0.14270817 0.11011773 -0.24363397 -0.062386185 -0.05263932 -0.20600101
0.08278966 -0.21200357 -0.27901176 0.19428185 -0.07945248 0.07110092 -0.19470976 -0.22179289
-0.23206791 -0.49201453 0.2060993 -0.0988685 0.19998083 0.05434984 0.20292005 -0.16186139
0.09951263 0.0112469 0.053542078 -0.18861696 -0.3528238 0.05692005 0.051183075 0.21777788
-0.061174452 -0.14123388 -0.24445906 0.08064121 -0.355095 0.15852787 -0.1174391 0.16339362
-0.3746426 -0.004687949 0.1767533 -0.39744765 -0.18859085 -0.19582392 -0.47890157 -0.1775574
-0.24436584 -0.17498216 0.22543912 -0.042859834 -0.0629749 -0.08035453 0.06733358 -0.48038012
-0.19271429 -0.125986 0.017434984 -0.1639789 0.010893389 0.036931127 -0.2640631 0.07992306
0.20057458 -0.32993984 -0.23608008 -0.14338988 -0.09927809 -0.18177123 -0.08058877 -0.26560074
-0.14568885 0.17823574 -0.16672312 -0.4083157 -0.17210938 -0.27484375 -0.1341047 0.22390473
-0.2752599 -0.40485087 0.04577263 0.09734526 0.16864339 0.0255391 0.09362462 -0.01853711
-0.17493258 -0.28668398 0.15348843 -0.12240679 -0.27939862 0.041626275 -0.33303443 0.03499821
0.016524628 0.08280862 -0.03314344 0.04802355 -0.55145276 0.016287616 -0.11866357 -0.17241393
-0.14396395 0.0849742 -0.13983856 -0.21648622 0.15911847 -0.019246103 -0.34967083 0.12393686
-0.22853479 -0.2103327 -0.07374525 -0.08468972 -0.09370297 0.039444476 0.05900997 0.099445
0.04692258 0.042023435 -0.095459476 -0.034174696 0.08323335 -0.120980375 0.049425803 0.22191578
-0.12606393 0.10925704 -0.047705207 0.031219989 -0.16362819 -0.12853144 -0.18748473 -0.20538743
-0.29896376 0.05150479 -0.23933607 -0.22074316 0.008838208 -0.39058563 -0.21748027 -0.1787245
-0.07270508 -0.7164347 -0.00023673534 0.141902 0.11119115 0.114923716 -0.036674544 -0.5170931
-0.40943342 -0.25826532 -0.17718141 -0.11229335 -0.20815799 -0.2106893 -0.07898726 -0.15018304
-0.058050916 -0.22043023 -0.26536253 0.184118 -0.15902369 -0.14458488 0.17097512 -0.12549226
-0.0820835 0.0026659397 -0.23331027 -0.15453616 0.18325315 -0.13967766 -0.06634214 0.13974825
0.06322658 0.118324354 0.06695182 -0.055721067 -0.19787186 0.1999026 0.20118529 -0.032396983
-0.31488258 -0.020831864 0.07809594 0.03877698 0.10199072 0.0037490577 -0.24643952 -0.18216753
0.15815595 -0.07614875 -0.12620701 -0.07299863 -0.21217063 0.029792596 0.071287185 -0.16320592
00000000: c4d2 cdbd c255 c8bd 9c8c 433d fa75 12be
00000010: f186 e33d d88b 24be a252 debe fb1d 3abe
00000020: e596 8cbd a5a9 3b3e 5885 093e db87 19be
00000030: 705f 65bd b8e7 313d 282c 083d 5bdb 37be
00000040: 25cd eabd 287a 9fbd c0ee 2b3b 6300 abbe
00000050: 0e4c 13bd 50c2 02be fd84 59be 88ee 1f3d
00000060: 0894 8ebd 6471 76be ea92 5e3d 68de 823d
00000070: 5b70 e4bd 5fde 33be 4c02 55be f4eb 2bbe
00000080: e972 8ebc 3ac9 5f3e 43e3 253e 36e7 5dbe
00000090: 9aff d6bc 4fee 81bc 27e9 bdbe 60ab 92bd
000000a0: fae2 30be 4e76 a53d c6c3 7abd cb40 01be
000000b0: 50c5 c33d 4074 05bc 1420 633e 06dd 5a3b
000000c0: 4778 ecbd 0f04 d53d d041 2a3d 9ced 87be
000000d0: 9099 343d 2c07 1bbe 7af0 ad3c 3c4c a03d
000000e0: 0e3c 23be b3bd c73c 1722 123e 6885 e13d
000000f0: 2f7b 79be a888 7fbd 549c 57bd eef1 52be
00000100: a08d a93d 7717 59be a1da 8ebe d2f1 463e
00000110: fbb7 a2bd 5c9d 913d ff61 47be ad1d 63be
00000120: 36a3 6dbe 54e9 fbbe b20b 533e 917b cabd
00000130: c6c7 4c3e f09d 5e3d 46ca 4f3e febe 25be
00000140: 47cd cb3d eb44 383c f04e 5b3d ce24 41be
00000150: 52a5 b4be 0025 693d 58a5 513d 2a01 5f3e
00000160: 1092 7abd 9d9f 10be 7a53 7abe 3827 a53d
00000170: 03cf b5be 2155 223e e983 f0bd a850 273e
00000180: 28d1 bfbe 5e9d 99bb d1fe 343e 427e cbbe
00000190: f61d 41be 1186 48be 9632 f5be 9bd1 35be
000001a0: 0a3b 7abe 862e 33be 83d9 663e cb8d 2fbd
000001b0: fcf8 80bd ea90 a4bd 30e6 893d 62f4 f5be
000001c0: e556 45be 7902 01be d0d3 8e3c 16ea 27be
000001d0: 2f7a 323c 1845 173d 4733 87be b4ae a33d
000001e0: 6c63 4d3e e0ed a8be fabe 71be ccd4 12be
000001f0: 5052 cbbd 3d22 3abe ba0b a5bd d2fc 87be
00000200: 752f 15be 6e83 363e 77b9 2abe c10e d1be
00000210: 713d 30be 52b8 8cbe be52 09be 4847 653e
00000220: deee 8cbe 9d48 cfbe 157c 3b3d f45c c73d
00000230: dab0 2c3e 6037 d13c 44be bf3d 23db 97bc
00000240: 8721 33be 3ec8 92be 122c 1d3e 69b0 fabd
00000250: 560d 8fbe 5080 2a3d 7d83 aabe 485a 0f3d
00000260: a85e 873c 9197 a93d 6ac1 07bd 58b4 443d
00000270: 022c 0dbf 9b6d 853c e305 f3bd 478d 30be
00000280: 496b 13be f406 ae3d d731 0fbe 90ae 5dbe
00000290: f4ef 223e 01aa 9dbc 0e08 b3be 9cd2 fd3d
000002a0: 0605 6abe 7561 57be c007 97bd ce71 adbd
000002b0: 58e7 bfbd 8890 213d 70b4 713d d2a9 cb3d
000002c0: e431 403d c420 2c3d 4280 c3bd c4fa 0bbd
000002d0: 3f76 aa3d 8fc4 f7bd b672 4a3d e43d 633e
000002e0: e716 01be 28c2 df3d 8966 43bd 10c1 ff3c
000002f0: 268e 27be bf9d 03be fffb 3fbe 1551 52be
00000300: c711 99be b0f6 523d 8414 75be 7f0a 62be
00000310: 22ce 103c d7fa c7be 26b3 5ebe 8e03 37be
00000320: 67e6 94bd 4468 37bf 293c 78b9 c24e 113e
00000330: 30b8 e33d 205d eb3d 0c38 16bd 3760 04bf
00000340: 42a1 d1be 5a3b 84be 0b6f 35be 0efa e5bd
00000350: 5e27 55be f0be 57be 13c4 a1bd 95c9 19be
00000360: ccc6 6dbd 76b8 61be 99dd 87be 6e89 3c3e
00000370: 1bd7 22be 0f0e 14be 1a14 2f3e 0b81 00be
00000380: 651b a8bd 0cb7 2e3b e3e8 6ebe ba3e 1ebe
00000390: b7a6 3b3e a907 0fbe 63de 87bd 2a1a 0f3e
000003a0: f07c 813d 0a54 f23d 091e 893d c63b 64bd
000003b0: ec9e 4abe 44b3 4c3e 8403 4e3e b3b2 04bd
000003c0: 4a38 a1be 96a7 aabc c4f0 9f3d 9cd4 1e3d
000003d0: 83e0 d03d c0b2 753b a45a 7cbe 208a 3abe
000003e0: a2f3 213e e0f3 9bbd 693c 01be 4e80 95bd
000003f0: 4243 59be 9a0f f43c 04ff 913d 741f 27be

model_2/bidirectional_2/forward_lstm_2/Read_2/ReadVariableOp1 f4 [84]
-0.14393522 -0.12752672 -0.13161859 -0.10769855 -0.13170801 -0.10472028 -0.17878541 -0.20642965
-0.14661558 -0.13862759 -0.080568306 -0.097290225 -0.10149975 -0.13995111 -0.1621593 -0.1606828
-0.118096165 -0.16344468 -0.13331959 -0.10420898 -0.12731995 0.92108417 0.8943238 0.90578973
0.91624296 0.9505361 0.9130496 0.9031013 0.89366144 0.9190343 0.8892227 0.94481415
0.9283341 0.9011026 0.9026813 0.9207789 0.9063584 0.91096133 0.8684191 0.9159598
0.9417454 0.90558565 -0.0024973177 0.0025362314 -0.004190898 0.010913917 -0.0050367224 -0.0021030973
0.00018247333 -0.013375199 0.0059964806 -0.020757291 0.005147442 0.0034186533 0.0037834698 -0.0034825278
0.008749033 0.0056072217 -0.005372887 0.007153392 -0.011995656 0.0057334173 0.0042145248 -0.13358659
-0.12697689 -0.13341056 -0.11801437 -0.11888109 -0.08854776 -0.13405043 -0.20106082 -0.12816562
-0.14028062 -0.06402519 -0.08799755 -0.09369148 -0.14074151 -0.17898823 -0.15129507 -0.12264761
-0.15721409 -0.122538425 -0.08426671 -0.110043116
00000000: c163 13be 5d96 02be 06c7 06be 0f91 dcbd
00000010: 77de 06be 9677 d6bd 8613 37be 4b62 53be
00000020: 6522 16be 64f4 0dbe ff00 a5bd 1940 c7bd
00000030: 1adf cfbd 584f 0fbe 160d 26be 088a 24be
00000040: 67dc f1bd 0b5e 27be ee84 08be 856b d5bd
00000050: 2960 02be 2ccc 6b3f 68f2 643f d6e1 673f
00000060: e68e 6a3f 5556 733f 9ebd 693f a631 673f
00000070: ffc6 643f d545 6b3f 19a4 633f 57df 713f
00000080: 4ea7 6d3f a9ae 663f 1f16 673f 2ab8 6b3f
00000090: 1b07 683f c334 693f b750 5e3f 577c 6a3f
000000a0: 3a16 713f 76d4 673f 0aaa 23bb e736 263b
000000b0: cd53 89bb 49d0 323c 170b a5bb 1ed4 09bb
000000c0: 5056 3f39 a723 5bbc 207e c43b 320b aabc
000000d0: e0ab a83b 7c0b 603b 17f4 773b 1f3b 64bb
000000e0: 1b58 0f3c c9bc b73b 0b0f b0bb 0067 ea3b
000000f0: 6e89 44bc 64df bb3b ff19 8a3b ecca 08be
00000100: 3b06 02be c79c 08be 85b1 f1bd ee77 f3bd
00000110: 8758 b5bd 8444 09be e3e2 4dbe d93d 03be
00000120: b9a5 0fbe a41f 83bd 0f38 b4bd 52e1 bfbd
00000130: 8b1e 10be b148 37be 18ed 1abe ac2e fbbd
00000140: bbfc 20be 6df5 fabd 0694 acbd 495e e1bd

while/MatMul_14 f4 [84, 21]
0.17617175 0.20820388 0.11177976 -0.16101524 0.19278423 -0.0052231997 0.24569061 -0.023887645
0.023031682 -0.11524419 -0.14363328 0.037390143 -0.17281869 0.16338144 -0.1100392 0.16726102
0.011794323 -0.011269072 -0.012821815 0.0656081 0.14446172 0.011719171 0.22430898 0.32254818
-0.21640864 -0.031780228 0.040165048 0.054395866 -0.07263208 0.04997979 -0.35464188 -0.061909456
0.05482303 0.1959075 0.08865479 -0.16835108 0.12279449 -0.23475324 0.22313684 -0.14888223
0.032770127 0.019306002 -0.16127056 0.11223698 0.04056132 -0.29710543 0.022571102 0.22007357
-0.026002029 -0.09972644 -0.027023852 -0.08616788 -0.24464756 0.08187196 0.32321107 -0.019084677
-0.26598144 0.066227 -0.15715754 0.0199597 0.12128448 0.20997599 0.11840121 0.11560427
0.04540626 -0.13325065 -0.18485095 0.08222486 0.26022696 0.077510245 0.12968521 -0.062161118
-0.061457273 -0.28054565 0.26558903 0.15175405 0.15231135 -0.13965566 -0.071281776 -0.1802063
0.19878484 0.028134404 0.017941117 0.11238261 -0.04613588 0.0058130594 0.102747895 -0.089391544
0.27003103 0.07220942 0.046136927 -0.15176903 -0.2080692 -0.14321443 -0.16042651 -0.18328296
-0.008502188 -0.057805736 0.011879444 0.18899226 -0.1582965 0.101126716 -0.08815182 0.14919968
0.15056299 0.09230453 -0.08157597 0.1879271 -0.20203462 0.102639586 -0.101644926 0.10907883
0.041906476 0.006499143 0.019097876 -0.22910418 0.08889118 0.06379393 -0.03918246 0.19084798
-0.12109249 -0.1881141 0.47488442 -0.02016366 0.20735745 0.15621051 0.1910619 0.10568217
0.24047305 -0.20005798 0.15896218 0.1040302 0.21536142 0.10612683 -0.01609409 -0.066409476
-0.20937876 0.0067945784 -0.037176087 0.08702804 0.047570907 0.12224978 -0.0003645575 0.1676256
0.13184007 0.049046107 0.11102586 0.02796184 0.20492324 -0.06613093 -0.23893806 0.19484615
0.21749052 0.03528029 0.106030524 0.08715014 -0.13347964 -0.13013251 0.0039603137 0.17904659
0.08251684 -0.022976654 -0.19593306 0.001951 0.23987514 0.0053191315 -0.021511797 -0.041968938
-0.0476178 0.1343786 -0.07173479 -0.25933397 -0.13152172 -0.084976375 -0.17829677 0.028185165
-0.0077630766 -0.014377438 -0.27425447 0.18270615 -0.04185153 -0.07520496 0.036201145 0.16493452
0.03647152 0.04350294 -0.0501429 -0.14390148 0.012391429 0.11463617 0.03566099 0.2572496
-0.07566394 -0.18641295 0.084488526 0.17178391 -0.02269585 -0.4092591 -0.3486167 -0.10048477
0.19970767 0.31781265 0.29013106 -0.12374868 0.24149947 -0.34641048 0.24223877 0.0260403
0.22018184 0.26388747 -0.051345497 -0.08089218 -0.14133197 -0.045578025 0.2029125 0.010262353
0.019804098 -0.29464772 -0.20291434 -0.06350814 -0.26195604 0.1884536 0.16056111 0.2634388
-0.15211007 0.19570819 -0.09446654 0.04470962 0.059706867 0.057072766 -0.00015057476 -0.09352675
-0.04491987 0.13515963 -0.17328015 0.13922995 -0.112893395 0.016964346 -0.019666772 -0.047164332
-0.02921279 -0.18563505 0.078226626 -0.008830578 0.08556511 0.1143201 -0.11166082 0.048076518
0.043020424 0.20529425 0.1733416 0.13333616 0.059034582 0.19798824 0.025655903 -0.20744506
00000000: 5e66 343e 6633 553e c9ec e43d 2ee1 24be
00000010: 3b69 453e 6027 abbb 5296 7b3e 06b0 c3bc
00000020: f0ac bc3c 2505 ecbd 9a14 13be 6826 193d
00000030: 62f7 30be 774d 273e 3b5c e1bd 7946 2b3e
00000040: fa3c 413c eaa1 38bc 9712 52bc 8a5d 863d
00000050: c6ed 133e c401 403c 41b1 653e 0925 a53e
00000060: 3a9a 5dbe fc2b 02bd 1b84 243d 33ce 5e3d
00000070: 21c0 94bd 9cb7 4c3d 9f93 b5be c594 7dbd
00000080: 1d8e 603d fa9b 483e a490 b53d 3a64 2cbe
00000090: ad7b fb3d 2763 70be fc7d 643e 9574 18be
000000a0: f839 063d 9f27 9e3c 1c24 25be 80dc e53d
000000b0: a023 263d 341e 98be 08e7 b83c f75a 613e
000000c0: 3502 d5bc 603d ccbd 2061 ddbc c978 b0bd
000000d0: e484 7abe 7cac a73d ec7b a53e 7857 9cbc
000000e0: b82e 88be 05a2 873d e8ed 20be 8682 a33c
000000f0: ff63 f83d f203 573e 557c f23d eec1 ec3d
00000100: eafb 393d dc72 08be 9149 3dbe 8265 a83d
00000110: 783c 853e b1bd 9e3d 33cc 043e a89c 7ebd
00000120: 9fba 7bbd aea3 8fbe 49fb 873e 6a65 1b3e
00000130: 82f7 1b3e e501 0fbe 2efc 91bd 0088 38be
00000140: 418e 4b3e 1f7a e63c 40f9 923c db28 e63d
00000150: faf8 3cbd 7a7b be3b 7d6d d23d ea12 b7bd
00000160: 8241 8a3e 88e2 933d 13fa 3c3d 5769 1bbe
00000170: 1810 55be cea6 12be d946 24be 87ae 3bbe
00000180: c34c 0bbc b5c5 6cbd 00a2 423c 3087 413e
00000190: 7a18 22be 861b cf3d f188 b4bd cdc7 183e
000001a0: 2f2d 1a3e 280a bd3d 4d11 a7bd f66f 403e
000001b0: 2ae2 4ebe b434 d23d 372b d0bd b964 df3d
000001c0: 20a6 2b3d c3f6 d43b 2673 9c3c 499a 6abe
000001d0: 940c b63d 64a6 823d ca7d 20bd a76d 433e
000001e0: 57ff f7bd fca0 40be 0d24 f33e 432e a5bc
000001f0: 8355 543e a6f5 1f3e bba5 433e e56f d83d
00000200: 913e 763e 00dc 4cbe fbc6 223e c90d d53d
00000210: b487 5c3e 0659 d93d c1d7 83bc b101 88bd
00000220: 6367 56be 0ea5 de3b f445 18bd c23b b23d
00000230: b6d9 423d 185e fa3d 1422 bfb9 0ca6 2b3e
00000240: 1501 073e 92e4 483d 8761 e33d 3b10 e53c
00000250: 66d7 513e a76f 87bd 2eac 74be c085 473e
00000260: d6b5 5e3e 1182 103d 8826 d93d c67b b23d
00000270: e3ae 08be 7541 05be 85c5 813b fd57 373e
00000280: 97fe a83d 8939 bcbc ada2 48be b2b8 ff3a
00000290: d4a1 753e 1c4c ae3b 8239 b0bc 9fe7 2bbd
000002a0: e20a 43bd 8b9a 093e b1e9 92bd 6cc7 84be
000002b0: a1ad 06be 1808 aebd 6e93 36be 93e4 e63c
000002c0: 6861 febb 598f 6bbc 156b 8cbe 5217 3b3e
000002d0: 836c 2bbd 0f05 9abd a747 143d 98e4 283e
000002e0: 2963 153d 2430 323d a462 4dbd e95a 13be
000002f0: 6c05 4b3c 5ec6 ea3d 4211 123d 38b6 833e
00000300: b2f5 9abd 09e3 3ebe 5208 ad3d 1fe8 2f3e
00000310: a6ec b9bc 698a d1be e37d b2be f6ca cdbd
00000320: 2b80 4c3e 57b8 a23e 0f8c 943e f36f fdbd
00000330: a34b 773e b75c b1be 710d 783e 7852 d53c
00000340: 5977 613e 421c 873e a84f 52bd cdaa a5bd
00000350: 54b9 10be 06b0 3abd 4bc8 4f3e 6e23 283c
00000360: 343c a23c 11dc 96be c7c8 4fbe 8e10 82bd
00000370: 1a1f 86be fbf9 403e 226a 243e 73e1 863e
00000380: bec2 1bbe ba67 483e ac77 c1bd 6f21 373d
00000390: 308f 743d 22c5 693d 9be3 1db9 f48a bfbd
000003a0: e6fd 37bd 4967 0a3e 5a70 31be 4c92 0e3e
000003b0: a734 e7bd d0f8 8a3c 361c a1bc 632f 41bd
000003c0: a94f efbc 1d17 3ebe 4835 a03d 21ae 10bc
000003d0: c33c af3d a820 ea3d 6eae e4bd e2eb 443d
000003e0: 2f36 303d a838 523e 7680 313e 4689 083e
000003f0: 3fce 713d 6ebd 4a3e 542c d23c 7a6c 54be

while/MatMul2 f4 [84, 32]
-0.059703846 -0.17239007 -0.044470258 -0.253572 0.18114865 -0.23091134 0.072795555 -0.093854204
-0.2921705 0.16862439 0.09630449 -0.10998776 0.049422026 0.22028425 -0.22501041 -0.018265864
-0.2579202 0.018584246 -0.037199527 -0.37087435 -0.04469977 -0.2146045 -0.16037633 -0.19921714
-0.12155666 -0.12870708 -0.2281451 0.061670452 0.15622441 0.18066345 -0.0939454 -0.12753947
-0.14975695 -0.22052516 0.105685405 -0.03299024 0.016762223 -0.2034813 -0.17027286 0.068394035
-0.26182014 0.03149494 -0.030887583 -0.11139311 0.1421485 -0.11690782 0.10948333 -0.09506293
-0.31603163 0.012397112 0.00046773255 -0.22379015 -0.08709006 -0.2013464 -0.18889342 0.10607058
0.16334155 -0.046081446 -0.01827632 0.17982453 -0.0047529754 0.036450084 -0.13934037 -0.0022531399
0.06731992 -0.19598538 -0.15821338 0.056111146 0.2241715 -0.10202065 -0.30143276 -0.16911155
-0.37096372 -0.36442173 -0.18256779 -0.23599318 0.09565464 -0.06944732 -0.031673834 0.069649294
-0.04971722 -0.091401465 -0.14014456 -0.2312166 0.13795376 0.1199542 -0.008245452 0.17973971
0.19102243 -0.009072052 -0.31001174 -0.17454539 -0.013607141 0.077327594 -0.16872506 0.07764868
-0.014527259 -0.14245728 0.08461863 -0.117148556 -0.086568534 -0.14290807 -0.2890401 -0.22517177
-0.006623771 -0.19099538 -0.0049723377 0.004134952 -0.16811341 0.15549645 -0.069736555 -0.22566202
-0.031339817 -0.10769049 0.1902312 -0.33571088 -0.0479108 0.10814169 0.0764242 0.02614972
0.1432173 -0.23056988 0.048865292 0.06868613 -0.043648142 -0.1878846 -0.16401625 -0.10329261
-0.15055121 0.06616637 0.20048957 -0.36001548 -0.18867819 0.13470559 -0.31986195 0.20396575
-0.22223496 -0.0004612215 0.027632946 -0.004894828 -0.15849158 0.011117309 -0.020856544 -0.3916632
-0.1418863 -0.17935368 -0.063602254 6.2212785e-06 0.15663539 0.17878675 -0.14900729 -0.023480847
0.09779945 -0.5957106 0.18650642 0.03269431 -0.28611487 0.001953561 -0.19805367 -0.14623006
-0.061835635 -0.043521658 0.4355932 -0.2403427 0.101344846 -0.019540388 -0.07920082 -0.091377705
-0.030246712 -0.16416644 0.16119106 -0.09951026 -0.16211581 0.2111817 -0.014878839 -0.22173214
-0.15307388 -0.04896201 0.21062943 -0.05025926 -0.048609182 -0.109723546 0.12354241 -0.028033718
-0.04169947 -0.13765728 0.18094674 0.052093714 0.010274669 -0.047185626 0.023245573 -0.042975962
-0.23639286 0.16492888 -0.19141263 0.15520382 -0.11465779 -0.21729891 -0.4209567 -0.08600086
0.037231725 0.2492538 -0.029559314 0.11707411 -0.18697941 -0.20258474 -0.19573541 -0.24381575
0.04844604 -0.3182683 0.17607644 -0.24797054 -0.2882306 0.15504405 -0.24824962 0.10718289
-0.15551531 -0.034055717 0.07087517 -0.065320596 -0.19413292 -0.19810319 0.19644764 0.12666427
-0.1106642 -0.08192001 -0.06665828 -0.053101 0.1318146 -0.13841984 -0.10564262 -0.0031594932
-0.22672057 -0.42037362 -0.24028884 0.036202572 0.0889101 0.10513759 -0.17464104 0.07950113
-0.23468463 0.027652267 -0.12985018 -0.18358245 -0.25913435 -0.1547732 0.0065302025 0.15474415
-0.059228435 -0.37618423 -0.07707387 -0.020990416 -0.15362062 -0.21299018 -0.16763707 -0.1432359
00000000: 058c 74bd 0687 30be 7226 36bd 30d4 81be
00000010: 087f 393e 0674 6cbe d615 953d a236 c0bd
00000020: 5f97 95be dfab 2c3e 4a3b c53d 4341 e1bd
00000030: c06e 4a3d 3292 613e 2169 66be 4ba2 95bc
00000040: 1e0e 84be fd3d 983c 885e 18bd 3ee3 bdbe
00000050: 1b17 37bd 48c1 5bbe b139 24be 94ff 4bbe
00000060: b3f2 f8bd cacb 03be de9e 69be 289a 7c3d
00000070: 4bf9 1f3e d7ff 383e 7266 c0bd b599 02be
00000080: e359 19be 59d1 61be 9771 d83d c620 07bd
00000090: ee50 893c 675d 50be 025c 2ebe 2c12 8c3d
000000a0: 4a0d 86be d700 013d f507 fdbc 1222 e4bd
000000b0: 608f 113e 5e6d efbd cc38 e03d 5ab0 c2bd
000000c0: e6ce a1be 421d 4b3c 003a f539 3f29 65be
000000d0: 465c b2bd c02d 4ebe 476d 41be 883b d93d
000000e0: 0243 273e e6bf 3cbd 39b8 95bc ec23 383e
000000f0: d9be 9bbb af4c 153d 3eaf 0ebe 6aa9 13bb
00000100: 07df 893d 64b0 48be b002 22be cdd4 653d
00000110: 378d 653e 34f0 d0bd 6555 9abe 942b 2dbe
00000120: f5ee bdbe 7c95 babe 0df3 3abe 32a8 71be
00000130: 94e6 c33d 663a 8ebd 6cbc 01bd 4aa4 8e3d
00000140: 49a4 4bbd b130 bbbd 0e82 0fbe 0bc4 6cbe
00000150: c043 0d3e 8caa f53d ef17 07bc b00d 383e
00000160: 629b 433e f2a2 14bc dcb9 9ebe 07bc 32be
00000170: 7cf0 5ebc ee5d 9e3d 43c6 2cbe 4506 9f3d
00000180: be03 6ebc 52e0 11be 884c ad3d 95eb efbd
00000190: d84a b1bd 7e56 12be 10fd 93be 6e93 66be
000001a0: 380c d9bb 4b94 43be feee a2bb 7e7e 873b
000001b0: ec25 2cbe 763a 1f3e 0ad2 8ebd f213 67be
000001c0: 2e5e 00bd d58c dcbd f8cb 423e 4ce2 abbe
000001d0: 1d3e 44bd 6479 dd3d 4a84 9c3d f037 d63c
000001e0: 8ea7 123e 831a 6cbe f926 483d 50ab 8c3d
000001f0: 65c8 32bd d264 40be e0f3 27be 138b d3bd
00000200: 192a 1abe 3c82 873d 234d 4d3e f353 b8be
00000210: db34 41be 43f0 093e f2c4 a3be 66dc 503e
00000220: 9091 63be 1ad0 f1b9 7d5e e23c cb64 a0bb
00000230: 9e4b 22be 6025 363c 58db aabc 1488 c8be
00000240: a44a 11be 7ea8 37be e641 82bd 60c0 d036
00000250: 0765 203e e013 373e 5e95 18be e85a c0bc
00000260: 144b c83d 7d80 18bf 8afb 3e3e 78ea 053d
00000270: a67d 92be 5107 003b 95ce 4abe 55bd 15be
00000280: 5d47 7dbd c443 32bd 1206 df3e 661c 76be
00000290: e38d cf3d 2a13 a0bc 0a34 a2bd 3c24 bbbd
000002a0: f4c7 f7bc 3f1b 28be 450f 253e 09cc cbbd
000002b0: b001 26be 0440 583e 60c6 73bc c00d 63be
000002c0: 66bf 1cbe 638c 48bd 3eaf 573e a7dc 4dbd
000002d0: 6c1a 47bd bdb6 e0bd ce03 fd3d f8a6 e5bc
000002e0: 10cd 2abd 08f6 0cbe 1a4a 393e 3860 553d
000002f0: 1657 283c b745 41bd 806d be3c 9007 30bd
00000300: f810 72be 1ee3 283e ac01 44be c0ed 1e3e
00000310: b4d1 eabd 9b83 5ebe a387 d7be 3821 b0bd
00000320: 4b80 183d 633c 7f3e 6026 f2bc 8dc4 ef3d
00000330: 8877 3fbe 6072 4fbe dd6e 48be d6aa 79be
00000340: 5b6f 463d 10f4 a2be 624d 343e fdeb 7dbe
00000350: f692 93be dec3 1e3e 2635 7ebe b482 db3d
00000360: 683f 1fbe 027e 0bbd 0027 913d cec6 85bd
00000370: c8ca 46be 90db 4abe 9229 493e 47b4 013e
00000380: e9a3 e2bd aec5 a7bd 2384 88bd 6f80 59bd
00000390: 68fa 063e eebd 0dbe 285b d8bd 800f 4fbb
000003a0: 7029 68be 363b d7be 470e 76be 2649 143d
000003b0: 8016 b63d 6052 d73d 1ad5 32be 7dd1 a23d
000003c0: 2b51 70be 0287 e23c 72f7 04be 0afd 3bbe
000003d0: 42ad 84be de7c 1ebe 4ffb d53b 4075 1e3e
000003e0: 8499 72bd 389b c0be e8d8 9dbd 18f4 abbc
000003f0: b94e 1dbe 191a 5abe 0da9 2bbe 6fac 12be
