student_tflite_models/student_model_quant.tflite (tflite, 67664 bytes, 12 tensors)

model_2/conv1d_2/BiasAdd/ReadVariableOp f4 [32]
0	0xbabfd82b	-0.0014636567
1	0xbc9f638d	-0.01945665
2	0xbdf2b2bf	-0.11850499
3	0xbd10182e	-0.03517931
4	0x00000000	0.0
5	0xbb2c7266	-0.0026313304
6	0x00000000	0.0
7	0x00000000	0.0
8	0x00000000	0.0
9	0xbde71058	-0.11282414
10	0xbb33573b	-0.0027365226
11	0xbca19f30	-0.019729227
12	0xb9a67034	-0.00031745585
13	0xbcb0d25c	-0.021584682
14	0xbaaf3ca2	-0.001336951
15	0xbbdda670	-0.0067642257
16	0x00000000	0.0
17	0xbe20ad76	-0.1569117
18	0xbd5f3218	-0.054491132
19	0x3dda4059	0.106568046
20	0xbe0b0770	-0.13577056
21	0xbcbcfc60	-0.02306956
22	0xbe22b16d	-0.15887995
23	0xbd90adb2	-0.0706438
24	0xbd838c88	-0.064232886
25	0xbc99b24a	-0.018761773
26	0xbaa8e71d	-0.001288626
27	0xbdc464c8	-0.09589535
28	0xbe20a592	-0.1568816
29	0xbe0a02ff	-0.13477705
30	0xbdaf1df0	-0.08550632
31	0xbb17a689	-0.0023140034

model_2/conv1d_2/Conv1D f4 [32, 1, 1, 4]
0	0xbea41b19	-0.32051924
1	0xbcd8d708	-0.026469722
2	0x3e314b35	0.17313845
3	0xbec5bf8c	-0.386227
4	0xbec36fa3	-0.3817111
5	0x3ecc00e5	0.39844432
6	0xbe215238	-0.1575402
7	0x3e8788c7	0.2647154
8	0xbc685456	-0.0141802635
9	0xbd8954a2	-0.067055956
10	0x3e9d0fee	0.30676216
11	0x3d4571b2	0.04820413
12	0x3e2f65fd	0.17128749
13	0x3cde0bae	0.027105179
14	0xbe64a585	-0.22328766
15	0x3e3e5a8f	0.18589233
16	0xbe9092cc	-0.28236997
17	0xbe467b25	-0.19382913
18	0xbda0d4e8	-0.07853109
19	0xbec5680a	-0.38555938
20	0xbe8a728c	-0.27040517
21	0x3e2a5fad	0.1663806
22	0x3d87c565	0.06629447
23	0xbe943eeb	-0.28954253
24	0x3e8c4780	0.273983
25	0x3d170450	0.036869347
26	0xbe9301ec	-0.28712404
27	0xbe4771e8	-0.19477046
28	0xbea03cbd	-0.3129634
29	0xbd8c88bc	-0.068620175
30	0xbe86f308	-0.26357293
31	0xbdcf5278	-0.101231515
32	0xbe90f88a	-0.2831462
33	0xbeab85bf	-0.33500478
34	0xbc6e1300	-0.014530897
35	0xbe1fc0bc	-0.15600866
36	0x3e28c928	0.16482985
37	0xbe0aaa15	-0.13541444
38	0x3e8ecdb2	0.27891308
39	0xbda73acd	-0.08165512
40	0x3e184406	0.14869699
41	0xbebd2121	-0.36939338
42	0xbe091258	-0.13385904
43	0xbd2992ff	-0.041399952
44	0xbeb95add	-0.36202136
45	0x3e8edaf1	0.27901414
46	0x3dda0a4e	0.10646497
47	0x3ddb1f47	0.10699325
48	0xbe6edd53	-0.23326616
49	0xbce1809c	-0.027527146
50	0xbe1c1ea2	-0.1524606
51	0x3e999a38	0.30000472
52	0xbda48ddf	-0.08034872
53	0xbe100dba	-0.14067736
54	0x3e141ada	0.14463368
55	0x3e7201ba	0.23633471
56	0xbeb0a574	-0.3450123
57	0x3e1d3e2c	0.15355748
58	0xbeb2a350	-0.34890223
59	0x3dfb2a0b	0.122638784
60	0x3e056ef9	0.13030614
61	0xbd2ba837	-0.04190847
62	0xbec902af	-0.3925986
63	0x3d06288a	0.032753505
64	0xbd67cf60	-0.056594253
65	0xbeac9b23	-0.3371211
66	0x3d99d648	0.07511574
67	0xbea84bdf	-0.32870385
68	0x3cbf61d6	0.023362081
69	0x3c14d999	0.009085082
70	0x3e6b76ab	0.22994487
71	0x3e0fe6a1	0.14052822
72	0xbe5f5d23	-0.21812873
73	0x3e407338	0.18793952
74	0x3dc98f99	0.09841842
75	0x3db4618c	0.08807668
76	0xbead6e82	-0.33873373
77	0x3e759891	0.2398398
78	0xbe8ed1a2	-0.27894312
79	0xbea0d5fc	-0.31413257
80	0x3e9ee41a	0.31033403
81	0xb8c93f8a	-9.596262e-05
82	0x3e235985	0.15952118
83	0xbe73074e	-0.23733255
84	0x3d584fb0	0.05281037
85	0xbe90fa67	-0.28316042
86	0x3eb80c4f	0.3594689
87	0x3ce9a792	0.028522287
88	0xbdcc09cc	-0.09962806
89	0x3e6deab3	0.23234062
90	0x3de7a973	0.11311617
91	0xbb23202a	-0.0024890997
92	0x3e93008a	0.2871135
93	0xbec08c75	-0.3760716
94	0x3e9adb77	0.30245563
95	0x3de5400a	0.11193855
96	0xbe081783	-0.13290219
97	0xbd07beed	-0.033141065
98	0x3e81514a	0.2525733
99	0x3e26df46	0.1629611
100	0x3d5c457f	0.053777214
101	0x3ea52afa	0.3225935
102	0xbe913284	-0.28358853
103	0x3d02a845	0.031898756
104	0xbe2b811c	-0.1674847
105	0xbea05b89	-0.31319836
106	0xbd5d83b8	-0.054080695
107	0x3e22f66e	0.15914318
108	0x3e91ad7a	0.28452665
109	0xbddaa50a	-0.1067601
110	0x3e204a3e	0.15653321
111	0xbe1bf999	-0.15231933
112	0x3e9b15a9	0.30289963
113	0x3e87edd0	0.26548624
114	0xbea6fb41	-0.32613567
115	0xbd22e9dd	-0.03977381
116	0x3e4aba76	0.19797692
117	0x3d4dbcb9	0.050228808
118	0xbe162f4c	-0.1466648
119	0x3e3d7d20	0.18504763
120	0x3e84f5f0	0.25968885
121	0x3deb068d	0.11475859
122	0xbe8ab588	-0.27091622
123	0x3e1a389d	0.15060659
124	0xbc3e3224	-0.011608634
125	0xbdad4da8	-0.084620774
126	0x3ddf6399	0.109076686
127	0xbeb1baeb	-0.3471292

model_2/dense_4/BiasAdd/ReadVariableOp f4 [4]
0	0x3ea0094b	0.3125709
1	0x3e9fb7ed	0.31195012
2	0x3ea03b4f	0.3129525
3	0x3e9fd083	0.3121377

model_2/bidirectional_2/forward_lstm_2/Read_2/ReadVariableOp f4 [84]
0	0xbe2759f0	-0.16342902
1	0xbdb5bc08	-0.08873755
2	0xbdf83ac2	-0.12120582
3	0xbd8254dd	-0.06363843
4	0xbe12a1ee	-0.14319584
5	0xbdab38c6	-0.08360438
6	0xbdf7167c	-0.120648354
7	0xbe22a232	-0.15882185
8	0xbdaf4845	-0.08558706
9	0xbd9b67e8	-0.07588178
10	0xbd9bb419	-0.0760271
11	0xbdfd3d7c	-0.12365243
12	0xbdde6d5d	-0.10860703
13	0xbda90a83	-0.08253958
14	0xbe0a7f53	-0.13525133
15	0xbe02e483	-0.12782483
16	0xbe6ff9aa	-0.23435083
17	0xbe1b465f	-0.15163563
18	0xbe13ccc2	-0.14433578
19	0xbe1409d8	-0.1445688
20	0xbe0ca8d4	-0.13736278
21	0x3f68dffb	0.9096677
22	0x3f6b6e86	0.9196552
23	0x3f698c5f	0.91229814
24	0x3f7863d0	0.970273
25	0x3f66cfbc	0.9016073
26	0x3f70e9b0	0.9410658
27	0x3f6f88b4	0.9356797
28	0x3f649312	0.8928691
29	0x3f72a6ef	0.9478597
30	0x3f6c9c5e	0.924261
31	0x3f7079a1	0.9393559
32	0x3f6c3166	0.92262876
33	0x3f70fc30	0.9413481
34	0x3f6d651c	0.92732406
35	0x3f6aa5df	0.9165935
36	0x3f5d4679	0.8643566
37	0x3f65a8b8	0.8971057
38	0x3f5e309b	0.86792916
39	0x3f692a3b	0.91080064
40	0x3f6816ef	0.90659994
41	0x3f699a02	0.9125062
42	0x3b34db71	0.0027596618
43	0xbb5ff0ae	-0.0034170556
44	0xbb645b4f	-0.0034844463
45	0xbc1f9620	-0.009740382
46	0x3b1bd6a4	0.0023779059
47	0xbb9a5e50	-0.00471095
48	0xbc1ea88c	-0.009683739
49	0xbb9bd8bf	-0.0047560628
50	0x3ad51061	0.0016255492
51	0x3bf01a59	0.0073273596
52	0xbbfaa61a	-0.0076491954
53	0xbc0fa137	-0.008766464
54	0x3b7b3b03	0.0038334734
55	0xbb32db00	-0.0027291179
56	0x3c06c672	0.008226024
57	0x3b72952d	0.0037015185
58	0xbc515e13	-0.012778777
59	0x3b7783af	0.0037767699
60	0xbbd516d6	-0.0065029664
61	0x3c219a28	0.009863414
62	0xbc8d4acd	-0.017247582
63	0xbe1dc953	-0.1540883
64	0xbdb47621	-0.08811594
65	0xbdd851f5	-0.10562507
66	0xbd83c9e3	-0.06434991
67	0xbe0a5d98	-0.13512266
68	0xbda89171	-0.08230866
69	0xbe017230	-0.12641215
70	0xbe1501e0	-0.14551497
71	0xbdbc6b84	-0.092001945
72	0xbd9c66ad	-0.07636771
73	0xbd9529d0	-0.07283366
74	0xbddaf859	-0.106919
75	0xbdd557f1	-0.10417164
76	0xbd891ce8	-0.066949666
77	0xbdc9be47	-0.09850746
78	0xbe0b850a	-0.13624969
79	0xbe5dde68	-0.21666873
80	0xbe2e198b	-0.17001931
81	0xbe045080	-0.12921333
82	0xbe02b7b7	-0.12765394
83	0xbe10b473	-0.14131336

model_2/bidirectional_2/backward_lstm_2/Read_2/ReadVariableOp f4 [84]
0	0xbdcaf4ff	-0.099100105
1	0xbe1f8118	-0.15576589
2	0xbdddae37	-0.108242445
3	0xbde28e4d	-0.11062298
4	0xbdf9cbf4	-0.12197104
5	0xbe42d2bc	-0.19025701
6	0xbe4b6e71	-0.19866349
7	0xbe09cbe4	-0.13456684
8	0xbe15d9c8	-0.14633858
9	0xbd81867a	-0.063244775
10	0xbe008977	-0.12552439
11	0xbdd0ac04	-0.101890594
12	0xbe652916	-0.22378954
13	0xbe07e5eb	-0.132713
14	0xbdb5008e	-0.088379964
15	0xbd6a61d9	-0.05722222
16	0xbcd99361	-0.026559534
17	0xbe18753f	-0.14888476
18	0xbdff4ae8	-0.12465459
19	0xbd89bbe6	-0.06725292
20	0xbdbaed65	-0.09127311
21	0x3f709659	0.9397941
22	0x3f643ade	0.89152324
23	0x3f733cc3	0.9501459
24	0x3f6f26b7	0.9341845
25	0x3f712e7c	0.94211555
26	0x3f71096a	0.9415499
27	0x3f6d2f26	0.9265007
28	0x3f786d88	0.9704213
29	0x3f760110	0.9609537
30	0x3f85cb02	1.0452578
31	0x3f7622e5	0.96146995
32	0x3f7a9d0f	0.978959
33	0x3f6e6623	0.931246
34	0x3f7189d5	0.9435094
35	0x3f725f76	0.9467691
36	0x3f7a8433	0.9785797
37	0x3f87f37e	1.0621183
38	0x3f6a9f6d	0.91649514
39	0x3f721f63	0.9457914
40	0x3f7c1085	0.98462707
41	0x3f7a6b7d	0.97820264
42	0xbc686903	-0.014185193
43	0xb965044f	-0.00021840747
44	0x3adcd584	0.0016848301
45	0x3b1db0b1	0.0024061615
46	0xbc8280a0	-0.015930474
47	0xbcb632f2	-0.02224109
48	0xbc1f2975	-0.009714474
49	0xbb8626a4	-0.004093962
50	0xbc4443ba	-0.011979038
51	0x3c465e72	0.012107478
52	0xbb5f46d0	-0.0034069307
53	0xbb2fc621	-0.0026820975
54	0xbc06ad7a	-0.008220071
55	0x3bb15d75	0.0054127523
56	0xbb73421a	-0.0037118257
57	0xbbbfc602	-0.005852462
58	0x3cd08244	0.02545274
59	0xb97af95d	-0.00023934753
60	0xbc86f2d0	-0.016473204
61	0x3c32d7e9	0.010915735
62	0xbc6a0c34	-0.014285136
63	0xbdb4dc8f	-0.08831131
64	0xbe0c5235	-0.13703234
65	0xbdc336a5	-0.09531907
66	0xbdd20e75	-0.10256664
67	0xbe03c787	-0.12869082
68	0xbe36724d	-0.1781704
69	0xbe4eabe1	-0.20182754
70	0xbe05ccdd	-0.1306643
71	0xbe1f4fc1	-0.15557767
72	0xbd13626b	-0.03598253
73	0xbdf4a792	-0.11946024
74	0xbda559ea	-0.0807379
75	0xbe4ba677	-0.1988772
76	0xbe08bc2d	-0.13353033
77	0xbd9c79dc	-0.0764043
78	0xbd73e8fd	-0.059548367
79	0xbd1f5f8d	-0.038909484
80	0xbe0b292b	-0.13589923
81	0xbdee862a	-0.116466835
82	0xbd899b6a	-0.06719096
83	0xbdcf0462	-0.10108258

model_2/dense_4/MatMul f4 [4, 840]
0	0x3ccbe9b5	0.024891714
1	0xbcf7ad67	-0.030234052
2	0x3d194cb8	0.03742668
3	0xbd0f9f06	-0.035063766
4	0xbd1bc585	-0.038030166
5	0xbd96cbf5	-0.073631205
6	0x3c23f3f2	0.010006892
7	0xbcdef11a	-0.027214576
8	0xbcf7c637	-0.030245883
9	0x3c6b4b98	0.014361285
10	0xbcc3ea7e	-0.023915526
11	0xbb588ad7	-0.003304174
12	0xbc925c73	-0.017866349
13	0xbcd7405d	-0.026275808
14	0x3c9857f4	0.018596627
15	0xbd22c4ea	-0.039738573
16	0xbd90acc3	-0.07064202
17	0xbcbf1a8d	-0.02332809
18	0xbd34da05	-0.044153232
19	0x3cb76f49	0.022391932
20	0x3c6173cf	0.013760521
21	0xbc892cb9	-0.016744958
22	0xbd26b74f	-0.04070216
23	0x3c90e632	0.01768789
24	0x3cb8ffee	0.022582974
25	0x3c80afab	0.015708765
26	0x3c4c26ae	0.012460394
27	0xbc761f97	-0.01502218
28	0x3c98385e	0.018581565
29	0x3c62222b	0.013802092
30	0xbc4064c4	-0.011742774
31	0xbc3a6090	-0.011375561
32	0xbcb22d24	-0.02175004
33	0xbd0fb631	-0.03508586
34	0xbca33f91	-0.019927772
35	0xbc3c5a4a	-0.011496136
36	0x3c23efb6	0.010005882
37	0xbb20aeb9	-0.0024518205
38	0x3ca9353f	0.020655273
39	0xbc8784c2	-0.016542796
40	0xbbfc955a	-0.007708234
41	0x3bbf0711	0.0058297
42	0x3c832003	0.016006475
43	0xbcfe8a38	-0.031071767
44	0x3ccd92a9	0.025094347
45	0xbd0b7487	-0.034046676
46	0xbc9bb601	-0.019007685
47	0xbd11d2e9	-0.03560153
48	0xbb2aefbc	-0.0026082834
49	0xbd040b50	-0.03223735
50	0xbcb5223f	-0.022111056
51	0x3c9ea14c	0.019364022
52	0xbcd61fea	-0.026138265
53	0xbcfc290d	-0.030781293
54	0xbcabd621	-0.020976128
55	0xbcf643d0	-0.030061632
56	0x3d001c39	0.031276915
57	0xbd05bfed	-0.032653738
58	0x3b9e20dc	0.0048256945
59	0xbd2536d2	-0.040335484
60	0xbd0795b6	-0.03310176
61	0x3c5c0e7f	0.0134311905
62	0x3ca1d6a3	0.019755667
63	0xbd2004f3	-0.03906722
64	0xbca879a4	-0.020565815
65	0x3cc0ceeb	0.023536166
66	0x3ae2e451	0.0017310475
67	0x3c95f085	0.018303165
68	0x3c319cb5	0.0108405845
69	0xbcd4fb19	-0.025998639
70	0x3c89f131	0.016838642
71	0x3c5bc24c	0.013413023
72	0xbbeee684	-0.007290663
73	0xbca04b2c	-0.019567095
74	0xbcb0b517	-0.021570725
75	0xbd23d59e	-0.039998643
76	0xbc25be77	-0.010116211
77	0xbb4c7c18	-0.0031201895
78	0x3ca4590a	0.020061988
79	0xbc13d378	-0.009022586
80	0x3cdef7f3	0.02721784
81	0xbc6cba18	-0.014448665
82	0xbca9994e	-0.020702984
83	0x3c486b7c	0.0122326575
84	0x3cdb64a3	0.026781386
85	0xbc9bd443	-0.019022113
86	0x3c0b02f3	0.00848459
87	0xbcb2dd2d	-0.02183398
88	0xbccbd7e2	-0.024883214
89	0xbd074d92	-0.03303296
90	0xbcb5f3dc	-0.022211008
91	0xbc9f183f	-0.019420741
92	0xbcf6e199	-0.03013687
93	0x3cb27cc5	0.02178801
94	0xbc6900c5	-0.014221375
95	0xbca0c239	-0.019623863
96	0xbcce6b08	-0.02519752
97	0xbc8775a9	-0.016535597
98	0x3d6950db	0.056961875
99	0xbcbb5518	-0.022867724
100	0x3c893f14	0.01675371
101	0xbcba88a1	-0.022770228
102	0xbca838aa	-0.020534832
103	0xbc04748f	-0.00808443
104	0x3cd59ce5	0.02607579
105	0xbd0898fa	-0.033349015
106	0x3d02b243	0.031908285
107	0x3c8dae1d	0.017294938
108	0x3cd044cc	0.02542343
109	0x3c8c529a	0.017129231
110	0x3c809010	0.015693694
111	0xbca09b0c	-0.019605182
112	0x3c42a693	0.011880535
113	0x3ca2ec12	0.019887958
114	0xbbddf27c	-0.006773291
115	0xbc860b10	-0.016362697
116	0xbc5bfea2	-0.013427408
117	0xbd514e5e	-0.051100127
118	0xbcc5afa1	-0.024131598
119	0xbcab09d5	-0.020878712
120	0x3c9b2cef	0.018942324
121	0xbb8340f2	-0.004005545
122	0x3c8b5f0c	0.017013095
123	0xbcb983e7	-0.022645904
124	0xbc839f69	-0.016067224
125	0x3c7b9c09	0.015357026
126	0x3ca877eb	0.020564994
127	0xbcc9f57f	-0.024653194
128	0x3c839a47	0.016064776
129	0xbc785a32	-0.015158223
130	0xbcfece85	-0.031104336
131	0xbcc6a3d5	-0.024248043
132	0xbd25be27	-0.040464547
133	0xbc6dc829	-0.014513054
134	0xbc8efaff	-0.017453669
135	0x3cafbe1a	0.021452952
136	0xbc82128c	-0.015877984
137	0xbcc9abcd	-0.024618054
138	0xbced91b9	-0.02900015
139	0xbc9420bb	-0.018082013
140	0x3c429c0d	0.011878026
141	0xbd1c49cd	-0.03815632
142	0x3cd0083b	0.02539455
143	0xbd2194da	-0.039448597
144	0xbcbceed0	-0.023063093
145	0x3ce3a6af	0.027789442
146	0x3ccc04dd	0.024904663
147	0xbcc03cd1	-0.0234665
148	0x3b84eec5	0.004056784
149	0x3cc392bd	0.023873681
150	0x3d3034cd	0.043019105
151	0x3cc4c864	0.024021335
152	0x3c8c0855	0.017093817
153	0xbcf0605d	-0.029342825
154	0x3c48f7d3	0.012266117
155	0x3c6f0f86	0.014591103
156	0xbbe98054	-0.0071258936
157	0xbcd1b1e5	-0.025597522
158	0xbcaebebf	-0.02133119
159	0xbd05ea9b	-0.03269444
160	0xbc57df6f	-0.013175829
161	0xbcb50c21	-0.02210051
162	0x3c5a9758	0.013341747
163	0xbc19574e	-0.009359194
164	0x3cbfd3f9	0.023416506
165	0xbcad7c29	-0.021177368
166	0xbc9029a8	-0.017597988
167	0x3bcad631	0.0061900844
168	0x3cb0483b	0.021518817
169	0xbcc83439	-0.024438964
170	0x3c9d97a1	0.019237341
171	0xbcddf776	-0.027095538
172	0xbcff9cb8	-0.031202659
173	0xbcf4e3bc	-0.029893748
174	0xbceda4b9	-0.02900921
175	0xbca9b650	-0.020716816
176	0xbc8b5c2f	-0.01701173
177	0x3ccf298d	0.025288368
178	0xbc81415d	-0.015778238
179	0xbca2b46c	-0.019861422
180	0xbc812574	-0.01576493
181	0xbc8ff1b3	-0.017571306
182	0x3d607dc8	0.054807454
183	0xbcc3eee1	-0.023917617
184	0x3cf2d1f5	0.029641131
185	0x3b00de97	0.0019663924
186	0xbca8f1d9	-0.020623134
187	0x3c4864eb	0.012231092
188	0x3cb503b8	0.0220965
189	0xbce3698a	-0.027760286
190	0x3b860161	0.00408952
191	0x3cc057d4	0.02347938
192	0x3c90f583	0.017695194
193	0x3c8a5e4a	0.016890664
194	0x3c9b32e4	0.018945165
195	0xbccbfdec	-0.024901353
196	0x3c9edc33	0.019392109
197	0x3c91adbc	0.017783038
198	0xbc24602a	-0.010032693
199	0xbc89bd7a	-0.016813982
200	0xbca2a3c8	-0.019853488
201	0xbce7d465	-0.02829952
202	0xbca2f654	-0.019892849
203	0xbc44c5d4	-0.0120100565
204	0x3c9e23bd	0.01930415
205	0xbbd69e8a	-0.006549661
206	0x3c9ccc89	0.019140499
207	0xbcc8e6ea	-0.02452417
208	0xbc94bf23	-0.018157547
209	0x3c86f905	0.016476164
210	0x3c8c9a1e	0.017163333
211	0xbce1b86c	-0.02755376
212	0x3cb81f28	0.022475794
213	0xbc3844ae	-0.011246843
214	0xbcd66ce7	-0.026174976
215	0xbcd9ba41	-0.02657807
216	0xbce39bc5	-0.027784238
217	0xbc93aa93	-0.018025672
218	0xbce11091	-0.02747372
219	0x3c97cd34	0.018530466
220	0xbcae407c	-0.021270983
221	0xbc8bccaf	-0.017065374
222	0xbd08aaa2	-0.033365853
223	0xbcbee6a3	-0.023303336
224	0x3be69b96	0.0070375903
225	0xbcc82300	-0.024430752
226	0x3ca82677	0.020526154
227	0xbacf62a5	-0.0015822245
228	0xbce8ffc3	-0.02844227
229	0x3d05b395	0.032641966
230	0x3cc70b6b	0.024297437
231	0xbce363f3	-0.02775762
232	0x3a34c856	0.00068963075
233	0x3caff095	0.021477023
234	0x3d369800	0.044578552
235	0x3c896389	0.016771095
236	0x3c3e8a90	0.011629716
237	0xbcda892e	-0.02667674
238	0x3c89a2c2	0.016801242
239	0x3ca65e5f	0.020308672
240	0xbae8a732	-0.0017750023
241	0xbcc96018	-0.024581954
242	0xbca9c05e	-0.02072161
243	0xbbd8d068	-0.006616641
244	0xbc826d30	-0.015921205
245	0xbbcc850b	-0.006241446
246	0x3c8d038e	0.01721361
247	0xbbaee9d5	-0.0053379335
248	0x3c8dadb7	0.017294748
249	0xbcea2763	-0.028583234
250	0xbc3a3ab7	-0.011366538
251	0x3c80e121	0.01573235
252	0x3cbcf972	0.023068164
253	0xbc88e9c3	-0.016713029
254	0x3ccbaca8	0.024862602
255	0xbcd84e14	-0.026404418

model_2/bidirectional_2/backward_lstm_2/Read_2/ReadVariableOp1 f4 [84]
0	0xbdcaf4ff	-0.099100105
1	0xbe1f8118	-0.15576589
2	0xbdddae37	-0.108242445
3	0xbde28e4d	-0.11062298
4	0xbdf9cbf4	-0.12197104
5	0xbe42d2bc	-0.19025701
6	0xbe4b6e71	-0.19866349
7	0xbe09cbe4	-0.13456684
8	0xbe15d9c8	-0.14633858
9	0xbd81867a	-0.063244775
10	0xbe008977	-0.12552439
11	0xbdd0ac04	-0.101890594
12	0xbe652916	-0.22378954
13	0xbe07e5eb	-0.132713
14	0xbdb5008e	-0.088379964
15	0xbd6a61d9	-0.05722222
16	0xbcd99361	-0.026559534
17	0xbe18753f	-0.14888476
18	0xbdff4ae8	-0.12465459
19	0xbd89bbe6	-0.06725292
20	0xbdbaed65	-0.09127311
21	0x3f709659	0.9397941
22	0x3f643ade	0.89152324
23	0x3f733cc3	0.9501459
24	0x3f6f26b7	0.9341845
25	0x3f712e7c	0.94211555
26	0x3f71096a	0.9415499
27	0x3f6d2f26	0.9265007
28	0x3f786d88	0.9704213
29	0x3f760110	0.9609537
30	0x3f85cb02	1.0452578
31	0x3f7622e5	0.96146995
32	0x3f7a9d0f	0.978959
33	0x3f6e6623	0.931246
34	0x3f7189d5	0.9435094
35	0x3f725f76	0.9467691
36	0x3f7a8433	0.9785797
37	0x3f87f37e	1.0621183
38	0x3f6a9f6d	0.91649514
39	0x3f721f63	0.9457914
40	0x3f7c1085	0.98462707
41	0x3f7a6b7d	0.97820264
42	0xbc686903	-0.014185193
43	0xb965044f	-0.00021840747
44	0x3adcd584	0.0016848301
45	0x3b1db0b1	0.0024061615
46	0xbc8280a0	-0.015930474
47	0xbcb632f2	-0.02224109
48	0xbc1f2975	-0.009714474
49	0xbb8626a4	-0.004093962
50	0xbc4443ba	-0.011979038
51	0x3c465e72	0.012107478
52	0xbb5f46d0	-0.0034069307
53	0xbb2fc621	-0.0026820975
54	0xbc06ad7a	-0.008220071
55	0x3bb15d75	0.0054127523
56	0xbb73421a	-0.0037118257
57	0xbbbfc602	-0.005852462
58	0x3cd08244	0.02545274
59	0xb97af95d	-0.00023934753
60	0xbc86f2d0	-0.016473204
61	0x3c32d7e9	0.010915735
62	0xbc6a0c34	-0.014285136
63	0xbdb4dc8f	-0.08831131
64	0xbe0c5235	-0.13703234
65	0xbdc336a5	-0.09531907
66	0xbdd20e75	-0.10256664
67	0xbe03c787	-0.12869082
68	0xbe36724d	-0.1781704
69	0xbe4eabe1	-0.20182754
70	0xbe05ccdd	-0.1306643
71	0xbe1f4fc1	-0.15557767
72	0xbd13626b	-0.03598253
73	0xbdf4a792	-0.11946024
74	0xbda559ea	-0.0807379
75	0xbe4ba677	-0.1988772
76	0xbe08bc2d	-0.13353033
77	0xbd9c79dc	-0.0764043
78	0xbd73e8fd	-0.059548367
79	0xbd1f5f8d	-0.038909484
80	0xbe0b292b	-0.13589923
81	0xbdee862a	-0.116466835
82	0xbd899b6a	-0.06719096
83	0xbdcf0462	-0.10108258

while/MatMul_11 f4 [84, 21]
0	0x3dd5762a	0.10422929
1	0x3dff813d	0.12475822
2	0x3e32ddc2	0.17467406
3	0xbdc7fd9a	-0.097651675
4	0xbdff4b5a	-0.12465544
5	0xbd07fe96	-0.033201776
6	0xbd6aac9e	-0.057293527
7	0x3e06d872	0.13168505
8	0xbe3686fc	-0.1782493
9	0x3e131474	0.14363271
10	0xbc7cecbb	-0.0154373
11	0xbdbd86e4	-0.09254244
12	0xbdae24d8	-0.08503121
13	0x3df77b1f	0.1208403
14	0x3d8d959d	0.06913302
15	0xbe128bfb	-0.14311211
16	0x3e5a7d43	0.21336846
17	0xbdeeb9f6	-0.11656563
18	0xbdd8739d	-0.105689265
19	0xbc245228	-0.010029353
20	0xbe558e3c	-0.2085504
21	0xbe8abc6c	-0.2709688
22	0x3d41a84c	0.04727964
23	0xbe3ab19e	-0.18231818
24	0xbe194b0f	-0.14970039
25	0x3d7695b1	0.06020135
26	0xbd61e4fd	-0.05515002
27	0xbd9131f9	-0.0708961
28	0xbd28c39a	-0.041202165
29	0x3db59fb6	0.08868353
30	0x3e3eb21a	0.18622628
31	0x3df59bee	0.11992632
32	0x3dd84722	0.105604425
33	0x3dd8ad4b	0.10579928
34	0x3cc8a63c	0.02449333
35	0x3d8f7ff5	0.07006828
36	0xbd51cc9c	-0.05122052
37	0x3e7824e0	0.24232817
38	0xbe90ee76	-0.2830693
39	0x3e031f4b	0.12804906
40	0x3d4d43a4	0.050113335
41	0xbd2b72ab	-0.041857403
42	0x3b0a48e4	0.0021100575
43	0x3e5621a2	0.20911267
44	0xbe25ab04	-0.16178519
45	0xbd4e6206	-0.05038645
46	0xbe7183c0	-0.23585415
47	0xbe00b74b	-0.1256992
48	0x3d867960	0.06566119
49	0xbdbb25e1	-0.09138084
50	0xbe48676d	-0.19570704
51	0x3e40e887	0.18838702
52	0x3dce89ca	0.10084875
53	0x3edff1e3	0.43739232
54	0x3caaee08	0.020865455
55	0x3de4166c	0.11137089
56	0xbd80866c	-0.06275639
57	0xbe8e489a	-0.27789766
58	0x3e3cf92c	0.18454427
59	0xbe553f13	-0.20824842
60	0x3de91491	0.11380876
61	0xbd2f234a	-0.042758264
62	0xbeb47d2a	-0.35251743
63	0xbd3d6532	-0.046239085
64	0x3e1f623d	0.15564819
65	0x3c8a8871	0.016910763
66	0x3dae4276	0.0850877
67	0xbda2750b	-0.079324804
68	0x3adbfe6a	0.0016784195
69	0x3dbf64fa	0.093454316
70	0xbe071ec9	-0.13195337
71	0xbda0c546	-0.07850127
72	0x3de84900	0.11342049
73	0x3dc8fc92	0.09813799
74	0x3dfa2c66	0.122154996
75	0x3de86b35	0.11348573
76	0x3e3edb3a	0.18638316
77	0x3dbe05ae	0.09278427
78	0x3cc0415d	0.023468668
79	0x3e03a081	0.12854196
80	0x3c7b485a	0.015337074
81	0xbc3a82b3	-0.0113837
82	0x3def60b2	0.11688365
83	0x3e0d5cd7	0.13804947
84	0xbd464582	-0.04840613
85	0x3daae9a0	0.08345342
86	0xbdca3752	-0.09873833
87	0xbe8316a1	-0.25603202
88	0xbefd2b46	-0.49447078
89	0xbe91febb	-0.28514656
90	0x3e342fd1	0.17596366
91	0xbdad8b64	-0.08473852
92	0xbe8d77e7	-0.2763054
93	0x3ec29b5e	0.3800916
94	0x3e412719	0.18862571
95	0xbbb43b9c	-0.00550027
96	0xbd12547d	-0.035725106
97	0x3e09b21f	0.13446854
98	0x3ea1682a	0.31524783
99	0xbe358a4f	-0.17728542
100	0x3ec2e995	0.38068834
101	0xbe1c3e81	-0.15258218
102	0x3e952cfd	0.29135886
103	0x3ee4433f	0.44582555
104	0xbe7ddda7	-0.24791585
105	0xbc664de0	-0.014056653
106	0x3db55890	0.088547826
107	0xbe1318f8	-0.14364994
108	0xbe6f9f78	-0.23400676
109	0xbe1fba8f	-0.1559851
110	0xbe2ccedb	-0.16875784
111	0x3d8b0ca6	0.06789522
112	0xbdf702dc	-0.12061092
113	0xbdf86ca9	-0.121301
114	0x3eea960f	0.4581761
115	0x3e60c3e5	0.21949728
116	0x3de8f4db	0.113748275
117	0xbdb401dc	-0.08789417
118	0x3e8fccdd	0.28085986
119	0x3bfff0c4	0.007810684
120	0xbe066b9e	-0.1312699
121	0x3efb4ed5	0.49083582
122	0xbe023b68	-0.12717974
123	0x3cf315cf	0.029673485
124	0x3d6cf2a2	0.05784858
125	0xbe0294a9	-0.12752022
126	0xbd414c5f	-0.047191974
127	0x3dc31b0d	0.09526644
128	0xbdafb50f	-0.08579456
129	0xbe1d3584	-0.15352446
130	0xbe8f3b47	-0.27974913
131	0xbe980b59	-0.29696158
132	0xbe42cce5	-0.19023474
133	0xbd3c3a62	-0.045954116
134	0xbe76bb34	-0.2409485
135	0x3ecbca43	0.3980275
136	0x3d42eeef	0.047591146
137	0xbdb067c7	-0.08613544
138	0x3e2383d8	0.15968263
139	0x3eb2a496	0.34891194
140	0x3de8aad3	0.11360707
141	0xbdb44c91	-0.088036664
142	0x3e3112f2	0.17292383
143	0xbeaf2e82	-0.3421517
144	0xbbacca22	-0.0052731195
145	0x3daa459f	0.083140604
146	0xbccefe91	-0.025267871
147	0x3e4c9508	0.19978726
148	0x3eb33e5c	0.35008514
149	0xbd9d960d	-0.076946355
150	0xbdbae8be	-0.09126423
151	0xbe3baf6e	-0.1832864
152	0xbe834d7f	-0.25645062
153	0xbd60ea98	-0.054911226
154	0xbdbdbf6e	-0.09265028
155	0xbd0426c8	-0.032263547
156	0x3e929ad8	0.2863376
157	0x3e31c09a	0.17358628
158	0x3e543d66	0.20726547
159	0xbd348eba	-0.044081427
160	0x3d2bd9bf	0.041955706
161	0x3d7c39bc	0.061578497
162	0xbe01b9cc	-0.12668532
163	0x3dc3cbc2	0.09560348
164	0xbdf05011	-0.117340215
165	0xbd3590cb	-0.04432754
166	0x3eb3f3e4	0.3514701
167	0xbdc29a07	-0.09502035
168	0xbe8a71f3	-0.2704006
169	0x3e3f4f01	0.18682481
170	0xbb9600a2	-0.004577712
171	0xbdeaf4a8	-0.11472446
172	0xbe6f4fa8	-0.2337023
173	0xbe29050a	-0.16505828
174	0x3e562893	0.20913915
175	0xbe95a492	-0.2922712
176	0xbebb00e5	-0.3652412
177	0xbd70f350	-0.05882579
178	0x3e6b2245	0.22962292
179	0x3e77115e	0.24127719
180	0xbdec7ea9	-0.11547596
181	0x3d067c9c	0.03283368
182	0x3de325ee	0.11091219
183	0xbd078e25	-0.033094544
184	0x3eaf556d	0.34244862
185	0xbe2061d1	-0.15662314
186	0x3dcb1fd8	0.09918183
187	0x3e78dc73	0.24302845
188	0xbddfaa74	-0.10921183
189	0xbe0c5e04	-0.13707739
190	0x3da924c9	0.08258969
191	0x3d367442	0.044544466
192	0xbe19e36c	-0.15028161
193	0xbd26e8cc	-0.040749356
194	0xbea03a07	-0.3129427
195	0xbea93aa4	-0.33052552
196	0xbe827d06	-0.2548601
197	0xbe90e5fc	-0.28300464
198	0x3e75e725	0.24013956
199	0x3e1553d8	0.14582765
200	0x3e128038	0.14306724
201	0x3e4d76eb	0.20064895
202	0x3de194cc	0.11014709
203	0x3d648582	0.055791385
204	0xbd715f76	-0.05892893
205	0x3d19b35a	0.03752456
206	0xbeccf8f2	-0.4003368
207	0x3d46ad60	0.048505187
208	0x3e251ccf	0.16124271
209	0xbda74aac	-0.081685394
210	0xbd25ff47	-0.040526655
211	0x3d503e7e	0.050840847
212	0xbdc46143	-0.09588864
213	0x3e0624c4	0.13099962
214	0xbd4465c7	-0.047948625
215	0xbe7d12eb	-0.24714248
216	0x3e8ba966	0.27277678
217	0xbce6c8d8	-0.028171942
218	0xbe21e165	-0.15808637
219	0x3d90663f	0.07050752
220	0x3e59405f	0.21215962
221	0x3e53645f	0.20643757
222	0x3d7e6152	0.06210453
223	0x36f5f875	7.330493e-06
224	0xbce4d36a	-0.027932841
225	0xbd070db7	-0.032972064
226	0x3e29b98f	0.16574691
227	0xbdb27c6f	-0.0871514
228	0xbd96bdf1	-0.07360447
229	0x3dec22e5	0.11530093
230	0xbdebcd10	-0.11513722
231	0xbe800ac4	-0.25008214
232	0x3e3ffdbc	0.18749136
233	0xbdd08621	-0.10181833
234	0xbd83199a	-0.064013675
235	0x3d6a0005	0.057128925
236	0xbe1d7a2d	-0.15378638
237	0xbdbbfcfe	-0.09179114
238	0xbdd635d6	-0.10459487
239	0xbe4de1e7	-0.20105706
240	0x3dbf753d	0.09348533
241	0xbbaed16a	-0.0053350227
242	0xbdbaff95	-0.0913078
243	0x3cf1d5fa	0.029520977
244	0xbc5ece2d	-0.013598961
245	0x3e6813b0	0.2266376
246	0xbea9100d	-0.33020058
247	0x3df9d666	0.121990964
248	0xbe12643e	-0.14296052
249	0x3dbae47f	0.091256134
250	0x3e05fb1e	0.13084075
251	0xbe17acb5	-0.14811976
252	0xbce0b53b	-0.027430167
253	0x3d55d6b3	0.052206706
254	0xbe00af6e	-0.12566921
255	0xbb4f16de	-0.0031599323

while/MatMul f4 [84, 32]
0	0xbdf625da	-0.12018938
1	0xbe534571	-0.20631959
2	0xbe41f64d	-0.18941613
3	0xbe950806	-0.29107684
4	0x3cb87580	0.022516966
5	0xbcb79e77	-0.02241443
6	0x3e4797ee	0.1949155
7	0xbe2db0e6	-0.16962013
8	0x3e3d5aa6	0.18491611
9	0xbe4918ee	-0.19638416
10	0x3cafdfbd	0.021468991
11	0xbdee9a2e	-0.11650501
12	0x3dcf1450	0.10111296
13	0xbb8555b8	-0.0040690564
14	0xbe54fd61	-0.20799781
15	0xbd654669	-0.05597535
16	0xbe52e8b2	-0.20596579
17	0xbe6e8ca2	-0.23295835
18	0xbea16a2e	-0.3152632
19	0xbe017b40	-0.12644672
20	0xbe14c874	-0.14529592
21	0xbe77da27	-0.24204312
22	0x3ddde19b	0.108340465
23	0xbe695b6b	-0.2278878
24	0x3dcfa206	0.101383254
25	0xbe2cfbfe	-0.16893002
26	0x3b949e9c	0.0045355093
27	0xbe2b96a5	-0.16756685
28	0xbe5f9102	-0.2183266
29	0xbdcc7901	-0.09984017
30	0xbc0d44c5	-0.008622353
31	0x3e31cf14	0.1736415
32	0x3d2798f2	0.040917344
33	0xbc96402a	-0.018341143
34	0x3b6be504	0.0035994658
35	0xbea3fe8a	-0.32030135
36	0x3da45858	0.08024663
37	0xbd9b6858	-0.07588261
38	0x3e12cefc	0.14336771
39	0x3caa1490	0.020761758
40	0x3dcbfa38	0.09959835
41	0x3cba9353	0.022775328
42	0xbe0d5004	-0.13800055
43	0xbec4396a	-0.38325053
44	0xbd74a302	-0.05972577
45	0xbe320701	-0.17385484
46	0x3c87be18	0.016570136
47	0xbe493a1e	-0.19651076
48	0x3df51fbc	0.119689435
49	0x3d54fcf0	0.051999032
50	0xbeb47370	-0.35244322
51	0x3b86d1bf	0.004114359
52	0xbe583529	-0.21114029
53	0x3c8a9c62	0.016920272
54	0x3d1ff700	0.039053917
55	0xbdebdacf	-0.11516344
56	0xbea3f40d	-0.32022133
57	0xbe195ec1	-0.14977552
58	0x3d323080	0.043503284
59	0x3d188c8f	0.037243422
60	0xbe39d9f8	-0.18149555
61	0xbe9e8d8e	-0.30967373
62	0xbd1ae9ba	-0.037820555
63	0xbd8d6076	-0.06903164
64	0x3d6823a1	0.056674603
65	0xbea0fb8c	-0.31441915
66	0xbe92108b	-0.28528246
67	0xbde43851	-0.11143554
68	0x3e58427a	0.21119109
69	0x3dfd017c	0.12353799
70	0x3e3e4d28	0.1858412
71	0xbdde2454	-0.10846773
72	0x3dca98a8	0.09892398
73	0xbda56a26	-0.08076887
74	0x3e2e2805	0.17007454
75	0x3cf1edc1	0.029532315
76	0xbd7465ac	-0.059667274
77	0xbd9831e7	-0.07431393
78	0x3daaabdc	0.08333561
79	0x3d2ead30	0.042645633
80	0xbe37b45e	-0.17939898
81	0x3dc0615d	0.093935706
82	0x3d82fa1e	0.06395362
83	0xbe4c5350	-0.19953656
84	0x3dfbcf7c	0.12295434
85	0xbe604b3f	-0.21903704
86	0x3cde25e0	0.02711767
87	0xbeaa131d	-0.33217707
88	0xbe7431cb	-0.2384712
89	0xbd047089	-0.032333884
90	0xbd5d3e2c	-0.05401437
91	0xbcc81ddc	-0.0244283
92	0x3db0cd51	0.08632911
93	0x3b4220d2	0.0029621613
94	0xbe5f150a	-0.2178537
95	0x3e286230	0.16443706
96	0x3e08bedb	0.13354056
97	0x3df81df2	0.121150866
98	0x3bb11411	0.0054040034
99	0xbeafc1d5	-0.3432757
100	0x3d650d48	0.05592087
101	0xbe62f8fa	-0.2216529
102	0xbb50ec00	-0.0031878948
103	0xbe5599a3	-0.20859389
104	0x3d88df50	0.066832185
105	0x3cfec25e	0.03109854
106	0x3e4d70bd	0.20062537
107	0xbe477c15	-0.19480927
108	0x3d5fa6d3	0.054602455
109	0xbc77206f	-0.015083416
110	0xbdbd4874	-0.09242335
111	0xbe03c796	-0.12869105
112	0x3d0c9998	0.034326166
113	0x3e1ed410	0.15510583
114	0xbdbebc20	-0.09313226
115	0x3e2bc36c	0.16773766
116	0x3d3ad6ba	0.045614935
117	0xbe6e964a	-0.23299518
118	0x3d8f5cb3	0.07000103
119	0xbe9befe5	-0.30456463
120	0xbe970aef	-0.2950053
121	0xbe996f54	-0.2996775
122	0x3d6e8610	0.05823332
123	0x3d2b43e9	0.04181281
124	0xbe2d7e74	-0.1694277
125	0xbdff640b	-0.124702536
126	0xbc9f53e8	-0.01944919
127	0xbe40cdbe	-0.18828484
128	0x3e2924f3	0.16518001
129	0xbe4b83e3	-0.1987453
130	0xbe5a61e4	-0.21326405
131	0xbd44eaa9	-0.048075352
132	0xbd4a193c	-0.04934047
133	0x3e3294d0	0.1743958
134	0xbdbca044	-0.09210256
135	0xbe2ba204	-0.16761023
136	0x3e56dc4e	0.20982477
137	0xbe265815	-0.16244538
138	0xbe58aa10	-0.21158624
139	0xbec38de8	-0.38194203
140	0xbe5a8975	-0.21341498
141	0xbe8fac40	-0.28061104
142	0x3e15ff20	0.14648104
143	0xbb27bbe9	-0.002559418
144	0x3e3b2c98	0.1827873
145	0xbdaa5242	-0.08316471
146	0xbee762cd	-0.45192567
147	0xbe7b8fc2	-0.24566558
148	0xbdcf97e0	-0.1013639
149	0xbe927028	-0.28601193
150	0x3d1ce5a5	0.038304944
151	0xbe5aaaea	-0.21354261
152	0xbee6b050	-0.4505639
153	0xbdf8b9df	-0.12144827
154	0x3d670208	0.05639842
155	0xbd8555f9	-0.065105386
156	0x3df11af8	0.11772722
157	0xbe30f9f4	-0.1728285
158	0xbe62998c	-0.22128886
159	0x3e279ca0	0.16368341
160	0x3d57cc6d	0.05268519
161	0xbe4b59ed	-0.19858523
162	0xbe4f27bd	-0.20230003
163	0xbe2f738e	-0.17133924
164	0x3e0dd7fa	0.1385192
165	0xbd24b8a8	-0.040215164
166	0x3e1d8d80	0.15386009
167	0xbe3a4e18	-0.18193853
168	0xbdd2586f	-0.102707736
169	0xbdc37c98	-0.09545249
170	0xbe688e37	-0.227105
171	0xbdd3193a	-0.10307546
172	0x3e5208c7	0.20511161
173	0xbe8cd24b	-0.2750419
174	0xbe0f1d60	-0.1397605
175	0x3d495f16	0.049162947
176	0x3e284d06	0.16435632
177	0xbf18f7af	-0.59752935
178	0xbe90118e	-0.28138393
179	0xbe7528a4	-0.23941284
180	0xbe0ebbf1	-0.13938881
181	0xbe8e0a40	-0.27742195
182	0xbba7cbb2	-0.005120718
183	0xbe4e93c7	-0.2017356
184	0x3d3ac59b	0.045598608
185	0xbe598dde	-0.21245524
186	0x3e28fc26	0.16502437
187	0xbe2bda87	-0.1678258
188	0x3e84b5df	0.25920007
189	0xbc27cba8	-0.0102414265
190	0xbecd22fd	-0.40065756
191	0x3e2f9a70	0.17148757
192	0xbdcc9417	-0.099891834
193	0xbe561981	-0.20908166
194	0xbe50617b	-0.20349686
195	0x3c4eddfe	0.012626169
196	0xbdd5d413	-0.104408406
197	0xbc1a0a59	-0.009401881
198	0xbd8afb58	-0.06786221
199	0x3e2296f8	0.15877903
200	0x3e0a0092	0.1347678
201	0xbe83faed	-0.2577738
202	0xbd9f8511	-0.07789052
203	0xbe4306fb	-0.19045632
204	0xbe44285c	-0.19156021
205	0xbe4df3f3	-0.2011259
206	0xbbe93360	-0.00711672
207	0x3e124820	0.14285326
208	0x3d2e0508	0.042485267
209	0x3e7d9f89	0.24767889
210	0xbe4faad5	-0.20280011
211	0xbe0424a3	-0.12904601
212	0xbe12d179	-0.1433772
213	0xbe996c8d	-0.2996563
214	0x3e05fcc0	0.13084698
215	0xbe8f516d	-0.2799181
216	0xbe25341e	-0.16133162
217	0xbe9ec947	-0.31012937
218	0xbe180a33	-0.1484764
219	0xbe44c905	-0.19217308
220	0x3e7dee4b	0.24797933
221	0xbeb3f941	-0.35151103
222	0xbdc6b6f7	-0.097028665
223	0x3e395008	0.18096936
224	0x3daadcbc	0.08342883
225	0xbee2a02d	-0.4426283
226	0x3db36b1e	0.08760665
227	0xbdf30cd8	-0.11867684
228	0xbe55880a	-0.20852676
229	0x3de93988	0.11387926
230	0xbe2f6103	-0.17126851
231	0x3ce7cc50	0.028295666
232	0xbe32c820	-0.17459154
233	0xbeb9e3e1	-0.3630667
234	0xbb8e7b3b	-0.0043481863
235	0xbec7e953	-0.390452
236	0xbe568c04	-0.20951849
237	0xbd25e38a	-0.0405002
238	0x3d900998	0.0703308
239	0xbc79934d	-0.015232873
240	0x3e4749c4	0.19461733
241	0xbe5fff27	-0.21874677
242	0xbe731932	-0.2374008
243	0xbe4497d2	-0.1919854
244	0xbbf8885a	-0.0075846137
245	0xbe072a40	-0.13199711
246	0xbc2f5e38	-0.010703616
247	0xbdb6f0e1	-0.08932663
248	0x3d72d345	0.059283514
249	0xbeac2f78	-0.33629966
250	0xbe1ef3fc	-0.1552276
251	0xbcbef002	-0.023307804
252	0x3d5c8d4c	0.05384569
253	0x3c886f4b	0.016654631
254	0xbee8019f	-0.45313737
255	0xbe1e466e	-0.15456554

model_2/bidirectional_2/forward_lstm_2/Read_2/ReadVariableOp1 f4 [84]
0	0xbe2759f0	-0.16342902
1	0xbdb5bc08	-0.08873755
2	0xbdf83ac2	-0.12120582
3	0xbd8254dd	-0.06363843
4	0xbe12a1ee	-0.14319584
5	0xbdab38c6	-0.08360438
6	0xbdf7167c	-0.120648354
7	0xbe22a232	-0.15882185
8	0xbdaf4845	-0.08558706
9	0xbd9b67e8	-0.07588178
10	0xbd9bb419	-0.0760271
11	0xbdfd3d7c	-0.12365243
12	0xbdde6d5d	-0.10860703
13	0xbda90a83	-0.08253958
14	0xbe0a7f53	-0.13525133
15	0xbe02e483	-0.12782483
16	0xbe6ff9aa	-0.23435083
17	0xbe1b465f	-0.15163563
18	0xbe13ccc2	-0.14433578
19	0xbe1409d8	-0.1445688
20	0xbe0ca8d4	-0.13736278
21	0x3f68dffb	0.9096677
22	0x3f6b6e86	0.9196552
23	0x3f698c5f	0.91229814
24	0x3f7863d0	0.970273
25	0x3f66cfbc	0.9016073
26	0x3f70e9b0	0.9410658
27	0x3f6f88b4	0.9356797
28	0x3f649312	0.8928691
29	0x3f72a6ef	0.9478597
30	0x3f6c9c5e	0.924261
31	0x3f7079a1	0.9393559
32	0x3f6c3166	0.92262876
33	0x3f70fc30	0.9413481
34	0x3f6d651c	0.92732406
35	0x3f6aa5df	0.9165935
36	0x3f5d4679	0.8643566
37	0x3f65a8b8	0.8971057
38	0x3f5e309b	0.86792916
39	0x3f692a3b	0.91080064
40	0x3f6816ef	0.90659994
41	0x3f699a02	0.9125062
42	0x3b34db71	0.0027596618
43	0xbb5ff0ae	-0.0034170556
44	0xbb645b4f	-0.0034844463
45	0xbc1f9620	-0.009740382
46	0x3b1bd6a4	0.0023779059
47	0xbb9a5e50	-0.00471095
48	0xbc1ea88c	-0.009683739
49	0xbb9bd8bf	-0.0047560628
50	0x3ad51061	0.0016255492
51	0x3bf01a59	0.0073273596
52	0xbbfaa61a	-0.0076491954
53	0xbc0fa137	-0.008766464
54	0x3b7b3b03	0.0038334734
55	0xbb32db00	-0.0027291179
56	0x3c06c672	0.008226024
57	0x3b72952d	0.0037015185
58	0xbc515e13	-0.012778777
59	0x3b7783af	0.0037767699
60	0xbbd516d6	-0.0065029664
61	0x3c219a28	0.009863414
62	0xbc8d4acd	-0.017247582
63	0xbe1dc953	-0.1540883
64	0xbdb47621	-0.08811594
65	0xbdd851f5	-0.10562507
66	0xbd83c9e3	-0.06434991
67	0xbe0a5d98	-0.13512266
68	0xbda89171	-0.08230866
69	0xbe017230	-0.12641215
70	0xbe1501e0	-0.14551497
71	0xbdbc6b84	-0.092001945
72	0xbd9c66ad	-0.07636771
73	0xbd9529d0	-0.07283366
74	0xbddaf859	-0.106919
75	0xbdd557f1	-0.10417164
76	0xbd891ce8	-0.066949666
77	0xbdc9be47	-0.09850746
78	0xbe0b850a	-0.13624969
79	0xbe5dde68	-0.21666873
80	0xbe2e198b	-0.17001931
81	0xbe045080	-0.12921333
82	0xbe02b7b7	-0.12765394
83	0xbe10b473	-0.14131336

while/MatMul_14 f4 [84, 21]
0	0x3af9eabf	0.0019067152
1	0x3dda007c	0.10644624
2	0xbe812872	-0.2522617
3	0x3ea74bf4	0.32675135
4	0x3e6daef9	0.23211278
5	0xbcc89f42	-0.024490003
6	0x3db8b03d	0.0901799
7	0x3cb6824b	0.022278925
8	0xbe6fc041	-0.23413183
9	0xbdc86c58	-0.0978629
10	0x3d6a115c	0.05714546
11	0x3dc479a7	0.09593516
12	0x3e40cc60	0.18827963
13	0x3dadec27	0.08492308
14	0xbdb11f84	-0.08648589
15	0x3e042619	0.12905158
16	0xbe0eec10	-0.13957238
17	0xbd0f2b6b	-0.034953516
18	0x3dc045c3	0.09388306
19	0xbe16dfbb	-0.14733784
20	0xbe3e713f	-0.18597887
21	0xbe84953f	-0.25895116
22	0x3e3cf0fd	0.18451305
23	0xbc927944	-0.01788009
24	0x3e84322d	0.2581953
25	0x3eae083d	0.3399066
26	0xbdf39e29	-0.11895401
27	0x3ccbc0d1	0.024872215
28	0xbe1bfcd7	-0.1523317
29	0xbd5441c9	-0.05182055
30	0x3d4f7eaa	0.050657906
31	0x3d9a8a2c	0.075458854
32	0x3d717c52	0.05895645
33	0x3e420ada	0.18949452
34	0x3e5cf584	0.21578032
35	0xbe507874	-0.20358449
36	0xbd0a02ea	-0.033694185
37	0x3e0aeffe	0.13568112
38	0x3e15d022	0.14630178
39	0x3dd2f07e	0.102997765
40	0x3e0ecf1c	0.13946193
41	0xbe8b51f9	-0.27210978
42	0x3d077740	0.03307271
43	0x3dc5ef93	0.09664836
44	0xbe122c74	-0.1427477
45	0x3df0f68e	0.117657766
46	0x3e33ae65	0.17546995
47	0x3d39f711	0.045401637
48	0x3cf78fd3	0.030219948
49	0x3d37cffd	0.044876087
50	0x3ded4ca4	0.11586884
51	0x3d528cd5	0.05140384
52	0xbdd10878	-0.102066934
53	0x3cf91061	0.030403318
54	0x3e1ace7f	0.15117835
55	0x3e416bf7	0.18888842
56	0x3db8b79e	0.09019397
57	0x3dc12912	0.09431662
58	0xbdafc8a8	-0.08583194
59	0xbc1afde8	-0.00945995
60	0x3d0ab27d	0.033861626
61	0x3d82e54d	0.06391392
62	0xbea6be77	-0.32567188
63	0x3d724fb2	0.059158035
64	0x3db95931	0.09050215
65	0xbdae9537	-0.08524554
66	0xbe8a362b	-0.26994452
67	0xbdf6e750	-0.12055838
68	0x3c4f101b	0.012638117
69	0xbcf45495	-0.029825488
70	0xbe2cb20b	-0.16864793
71	0x3dcdefb4	0.10055485
72	0x3db7f64e	0.08982526
73	0xbda99305	-0.08279995
74	0xbd5434d2	-0.051808186
75	0xbe229128	-0.15875685
76	0xbcf273cf	-0.029596237
77	0xbcc48368	-0.02398844
78	0xbcb5b593	-0.022181308
79	0x3de2b44a	0.11069544
80	0x3dc0f019	0.09420795
81	0x3dad69a0	0.08467412
82	0xbde18f00	-0.11013603
83	0xbd2748a1	-0.04084075
84	0xbdf24da0	-0.11831212
85	0x3cd2771c	0.025691561
86	0x3da77b3f	0.08177804
87	0x3e9fa176	0.31177872
88	0xba6e6c4f	-0.0009095119
89	0x3e67eff6	0.22650132
90	0x3df616b8	0.12016052
91	0x3e5dcd3f	0.21660326
92	0xbcd5c3ea	-0.026094396
93	0xbe2980e3	-0.16553073
94	0x3ccc7ad4	0.024960913
95	0x3d88d5e2	0.0668142
96	0x3e5ae4a6	0.21376285
97	0x3e13bfb0	0.14428592
98	0xbd431270	-0.047625005
99	0xbd066585	-0.03281166
100	0xbe25827b	-0.16163056
101	0x3dbbce44	0.091702014
102	0x3dcf8aa3	0.10133865
103	0xbc81ce3f	-0.015845416
104	0xbe84265c	-0.25810516
105	0xbda63e97	-0.08117407
106	0xbe07b8c0	-0.1325407
107	0xbe4786f3	-0.19485073
108	0x3e5e3778	0.21700847
109	0x3d350f5c	0.0442041
110	0xbd004809	-0.031318698
111	0x3cf3c9df	0.029759346
112	0x3dd3f2c5	0.10349039
113	0x3e931e78	0.28734183
114	0xbd4f5ae7	-0.0506238
115	0x3d9d8544	0.07691434
116	0x3cd5d008	0.026100174
117	0x3e0d5b88	0.13804448
118	0x3d27caac	0.040964767
119	0xbe75e69b	-0.2401375
120	0xbd451f2d	-0.048125435
121	0xbd00b5d1	-0.031423394
122	0x3c787601	0.015164853
123	0xbdad786a	-0.08470233
124	0xbe846f3f	-0.25866124
125	0xbe09fdb5	-0.13475688
126	0xbe2be8aa	-0.16787973
127	0x3dc3090e	0.095232114
128	0xbe37c59c	-0.17946476
129	0x3d4cd3e1	0.05000675
130	0x3ed9253b	0.42411217
131	0x3e1af969	0.15134205
132	0x3deb5c18	0.11492175
133	0x3e93166f	0.28728053
134	0x3e049b6d	0.12949915
135	0xbc03a8f8	-0.008035891
136	0x3e1e7048	0.1547252
137	0xbe067650	-0.1313107
138	0x3e1a94ca	0.15095821
139	0x3c88d462	0.016702835
140	0xbd083a7d	-0.033258904
141	0x3a9d4d0a	0.0012001109
142	0x3c04d1bc	0.008106645
143	0xbdb1c421	-0.08679987
144	0xbc23e8f1	-0.010004268
145	0x3d745a44	0.059656397
146	0xbc08ae29	-0.008342304
147	0xbe468387	-0.19386111
148	0x3ca249c9	0.019810574
149	0xbd78f5e4	-0.060781375
150	0x3debdcdf	0.11516737
151	0x3e19823a	0.14991084
152	0x3dc7fe17	0.09765261
153	0x3d9bea19	0.0761301
154	0xbe0dd1e9	-0.13849606
155	0xbdc421aa	-0.095767334
156	0xbd07f4c8	-0.033192426
157	0x3e648eea	0.22320142
158	0x3d88591f	0.066576235
159	0x3e13c04e	0.14428827
160	0x3e3ce4fb	0.18446724
161	0xbe321397	-0.17390285
162	0x3e821cda	0.25412637
163	0x3dcb0091	0.099122174
164	0x3d9b37ea	0.07579024
165	0x3db32217	0.087467365
166	0xbc9477d3	-0.018123543
167	0xbd928bc7	-0.07155567
168	0xbc2296a8	-0.009923615
169	0x3e35be14	0.1774829
170	0xbd9fba68	-0.07799226
171	0x3d1ce77b	0.038306694
172	0x3d73f31e	0.059558026
173	0xbda6fc1d	-0.081535555
174	0x3d203c40	0.03911996
175	0xbde182d5	-0.11011282
176	0xbde1c83b	-0.11024519
177	0x3cf2d795	0.029643813
178	0x3d6d2ece	0.057905965
179	0xbdf62b30	-0.12019956
180	0x3ce94b99	0.02847843
181	0x3e429156	0.19000754
182	0xbe5c2c8b	-0.21501367
183	0x3e829a8c	0.25508535
184	0xbdb604c1	-0.088876255
185	0x3e16ab53	0.14713793
186	0x3d904dfd	0.07046125
187	0xbe139267	-0.14411317
188	0xbcf3d3e3	-0.029764121
189	0x3e4d63dc	0.20057625
190	0x3d13a203	0.03604318
191	0xbc94e908	-0.018177524
192	0x3d42bec2	0.047545202
193	0x3ea88a59	0.3291805
194	0x3e7fd66c	0.24984139
195	0x3ddfbd82	0.109248176
196	0x3c94a1c7	0.018143548
197	0x3dd91aca	0.10600813
198	0xbdb66a79	-0.08907027
199	0x3d899f15	0.067197956
200	0xbd3fbccf	-0.04681092
201	0xbc8769ae	-0.016529884
202	0xbd106e95	-0.03526171
203	0xbe0e21c1	-0.13880064
204	0x3d49d88c	0.04927878
205	0xbe868f0f	-0.2628102
206	0x3c69e06b	0.014274697
207	0x3d1a364b	0.037649434
208	0xbe1257f5	-0.14291365
209	0xbd7ca765	-0.061683077
210	0xbe1962fc	-0.14979166
211	0xbdf0ad23	-0.11751773
212	0x3e1ef82b	0.15524356
213	0x3cc55b85	0.024091491
214	0x3e14a0fa	0.14514533
215	0xbd8b41f6	-0.067996904
216	0x3d03a1ec	0.032136843
217	0x3a3ff454	0.00073224795
218	0x3dabedf1	0.08394993
219	0x3d0f4fa9	0.03498808
220	0xbc16c1f8	-0.009201519
221	0x3d39ae18	0.045332044
222	0x3d84c722	0.06483294
223	0x3dedf519	0.11619014
224	0x3cdd1f65	0.02699251
225	0xbcc623a3	-0.024186915
226	0xbc0e45ab	-0.008683602
227	0x3d8e0091	0.06933702
228	0xbd3a809f	-0.04553282
229	0x3d2b5e52	0.041837998
230	0x3df4d925	0.119554795
231	0x3cb18727	0.021670891
232	0xbe2d2845	-0.16909893
233	0xbd0c445b	-0.034244876
234	0x3db0218d	0.08600149
235	0x3d88a4e5	0.06672076
236	0x3e175d6c	0.14781731
237	0x3c4cbddb	0.012496437
238	0xbd253256	-0.040331207
239	0x3dc891bd	0.09793422
240	0xbe80c0a4	-0.25146973
241	0xbd1c561c	-0.038168058
242	0x3e138677	0.14406763
243	0x3e0ba799	0.13638152
244	0x3d792e9e	0.060835473
245	0xbd8c3ee2	-0.068479314
246	0x3e557f29	0.20849289
247	0x3c9e6f82	0.01934028
248	0x3e3d9012	0.1851199
249	0x3cdfeaf6	0.027333718
250	0xbd15e01d	-0.036590684
251	0xbd17b2fc	-0.037035927
252	0xbdb99498	-0.09061545
253	0x3e1c9bf8	0.15293872
254	0xbd1a1f72	-0.037627645
255	0x3dfe6da4	0.12423256

while/MatMul2 f4 [84, 32]
0	0xbcce74c8	-0.02520217
1	0xbea8b938	-0.3295381
2	0xbe66b979	-0.2253169
3	0x3cc2508a	0.023720045
4	0x3e14967e	0.14510533
5	0x3e27959e	0.16365668
6	0xbcd14270	-0.025544375
7	0xbe539e0b	-0.20665757
8	0xbe3370ca	-0.17523494
9	0xbeb2b924	-0.34906876
10	0x3e5f6033	0.21814041
11	0xbe0fb66f	-0.14034437
12	0xbe2ca283	-0.16858868
13	0xbd98170e	-0.07426272
14	0x3e5a557c	0.21321672
15	0xbe06de16	-0.13170657
16	0xbda5345a	-0.08066626
17	0x3c505b8b	0.012717138
18	0xbe4918ea	-0.1963841
19	0xba73bfe0	-0.0009298306
20	0xbe8bbcb0	-0.27292395
21	0xbd91829a	-0.071049884
22	0x3dee84ba	0.11646409
23	0x3d0144d7	0.03155979
24	0xba82e0de	-0.0009985229
25	0xbe41f9da	-0.18942967
26	0xbde08e41	-0.10964633
27	0xbe737f1b	-0.23778956
28	0x3e46c679	0.19411649
29	0xbca10cef	-0.019659488
30	0xbe81c43c	-0.25345027
31	0x3e2e48ec	0.17020005
32	0xbdb4371c	-0.08799574
33	0xbe8494c8	-0.2589476
34	0x3e22e99f	0.15909432
35	0x3d4bbc51	0.04974014
36	0xbe45d21f	-0.19318436
37	0x3ca22be7	0.019796325
38	0xbdd19866	-0.10234146
39	0xbe660530	-0.22462916
40	0x3cc14be0	0.02359575
41	0xbdecc42e	-0.11560856
42	0xbe252624	-0.1612783
43	0xbe78bb43	-0.24290185
44	0x3c7f7a35	0.015593101
45	0x3ce8e2c8	0.02842845
46	0xbe424472	-0.18971422
47	0x3d941fb5	0.0723261
48	0x3dcbacc0	0.09945059
49	0xbd768b33	-0.060191344
50	0x3dfb9449	0.122841425
51	0xbc0df746	-0.008664912
52	0x3d59c8b5	0.053169925
53	0xbde1b928	-0.11021644
54	0xbe6be4d2	-0.23036507
55	0x3d850276	0.0649461
56	0xbe91cd75	-0.28477064
57	0xbe665a8e	-0.22495481
58	0xbde14dc7	-0.11001163
59	0xbd3b335d	-0.04570328
60	0xbe34f6d0	-0.17672276
61	0x3db5e707	0.088819556
62	0x3db7f2c4	0.08981851
63	0xbe4bdf83	-0.19909482
64	0xbe13456d	-0.14381953
65	0x3e08705c	0.13324112
66	0x3df8a48c	0.1214076
67	0xbd7b772d	-0.06139295
68	0xbd910fc8	-0.07083088
69	0x3d9d2c4c	0.076744646
70	0xbe484af9	-0.1955985
71	0x3e5ab60e	0.21358511
72	0x3e101668	0.14071047
73	0xbdf794ff	-0.120889656
74	0xbe4f75c1	-0.20259763
75	0x3e0cbcf2	0.13743952
76	0x3d92d980	0.07170391
77	0xbdcb6f05	-0.09933285
78	0xbe128c79	-0.14311399
79	0x3e398757	0.18118034
80	0x3d963090	0.07333481
81	0xbe8f703c	-0.28015316
82	0xbeaf9480	-0.34292984
83	0x3deee03e	0.116638646
84	0x3ddf8a61	0.109150656
85	0xbe6d69c2	-0.23184875
86	0xbd9eb550	-0.07749426
87	0x3e2540c0	0.16137981
88	0x3d360f98	0.044448465
89	0x3d3f8c63	0.046764743
90	0xbe675776	-0.22591957
91	0x3c90aa61	0.017659368
92	0xbd913140	-0.07089472
93	0x3b7d517c	0.0038653305
94	0xbef4e331	-0.47829583
95	0xbe1b0820	-0.15139818
96	0x3e0f412f	0.1398971
97	0xbd7e7d30	-0.062131107
98	0xbdc2afda	-0.09506197
99	0xbd4e20bf	-0.050324198
100	0xbdbc44a4	-0.0919278
101	0x3d680a78	0.05665061
102	0x3defa330	0.117010474
103	0xbdf1e14c	-0.1181055
104	0x3cf005c0	0.029299617
105	0xbe5903d5	-0.21192868
106	0xbcc08557	-0.023501081
107	0x3e15de9b	0.14635698
108	0xbd0cabae	-0.034343414
109	0x3e3fed92	0.1874297
110	0xbda35da8	-0.07976848
111	0x3de349d7	0.11098068
112	0xbe406355	-0.18787892
113	0xbe0ebb03	-0.13938527
114	0xbe3e0b6a	-0.18559042
115	0x3e30f11d	0.17279477
116	0x3e46f8b6	0.19430813
117	0x3e87a2dc	0.2649144
118	0x3ca02ab2	0.019551609
119	0xbe4fbbd3	-0.20286493
120	0xbe10f61d	-0.14156385
121	0x3d1b3aa8	0.037897736
122	0x3e193e68	0.14965212
123	0xbdf58d33	-0.11989822
124	0x3df54923	0.1197684
125	0xbdde5dfa	-0.10857768
126	0x3e191ccd	0.14952393
127	0x3e3c7e9c	0.18407673
128	0xbdaafee0	-0.08349395
129	0xbe96d0df	-0.2945623
130	0x3dabbe04	0.08385852
131	0xbdd006d9	-0.10157556
132	0x3d888ca4	0.0666745
133	0xbccb36a8	-0.024806336
134	0x3c674760	0.014116138
135	0xbe3ba08a	-0.1832296
136	0x3c5cce00	0.013476849
137	0xbe6f6411	-0.23378016
138	0xbdafeb41	-0.08589793
139	0xbea2712d	-0.3172697
140	0xbe2d063c	-0.1689691
141	0xbe35acf3	-0.17741756
142	0x3d838c9c	0.064233035
143	0x3e1de19d	0.15418096
144	0x3aba6a00	0.0014222264
145	0xbc9986ac	-0.018740974
146	0xbea41f15	-0.32054964
147	0xbdee73d3	-0.116431855
148	0xbe31dc1a	-0.17369118
149	0xbe711005	-0.23541267
150	0x3c193195	0.0093502
151	0xbb541037	-0.0032358298
152	0xbe9827fb	-0.29718003
153	0xbe3dc5d8	-0.18532503
154	0x3dccc280	0.099980354
155	0xbea1688f	-0.31525084
156	0x3a0488a1	0.00050557597
157	0xbebea293	-0.3723341
158	0xbec86ca4	-0.39145386
159	0x3e40ae84	0.18816572
160	0xbe2ae986	-0.16690645
161	0xbe686fcb	-0.22698896
162	0xbca8590c	-0.020550273
163	0x3e100bab	0.14066951
164	0x3e31d60a	0.17366806
165	0xbce184a6	-0.027529072
166	0xbe157eb0	-0.14599109
167	0xbe090720	-0.13381624
168	0xbd31bce4	-0.04339303
169	0xbdfff228	-0.124973595
170	0xbe492775	-0.19643958
171	0xbec0acac	-0.37631738
172	0xbe140127	-0.14453565
173	0x3e177bff	0.14793395
174	0x3dd11378	0.102087915
175	0x3da1fefc	0.079099625
176	0x3df498c0	0.11943197
177	0xbe8c2681	-0.27373126
178	0xbe8b5f5d	-0.27221194
179	0x3dd960d9	0.10614175
180	0xbe1fb4dd	-0.15596338
181	0x3b7aa60d	0.0038245947
182	0xbc8edc7a	-0.017439116
183	0xbe1e73cc	-0.1547386
184	0xbe213b4f	-0.1574528
185	0xbe719ff8	-0.2359618
186	0x3e1f4992	0.15555409
187	0xbd78f4fd	-0.060780514
188	0x3dbc0156	0.09179942
189	0x3c9afbbf	0.01891887
190	0xbdeac1d1	-0.11462749
191	0x3d92e4ec	0.0717257
192	0xbe0e8885	-0.13919266
193	0xbe07ffa9	-0.1328112
194	0xbdb3ad4d	-0.08773289
195	0xbe4a3838	-0.19748008
196	0x3e470820	0.19436693
197	0x3d077898	0.03307399
198	0xbd009614	-0.031393126
199	0xbce773d8	-0.02825348
200	0x3cc86c10	0.02446559
201	0x3d97bf16	0.074094936
202	0x3e012bda	0.12614384
203	0xbdaecb40	-0.085348606
204	0x3db4237f	0.08795833
205	0xbcb5a2bf	-0.02217233
206	0x3dd01ac4	0.10161355
207	0x3ceff27c	0.02929043
208	0x3e1aa02a	0.1510016
209	0x3b818e2b	0.0039537153
210	0xbdb573be	-0.08859967
211	0xbe3e2eb7	-0.18572508
212	0xbe5633f6	-0.20918259
213	0xbe3a92a2	-0.18219998
214	0x3d8f9b83	0.070120834
215	0xbe440aa3	-0.19144683
216	0xbdcb8660	-0.09937739
217	0xbe86a9ca	-0.26301414
218	0xbdb11a56	-0.08647601
219	0x3c4678bb	0.012113745
220	0x3e196e30	0.1498344
221	0xbdbbe1e4	-0.091739446
222	0xbd610ce5	-0.054943938
223	0x3cd35be0	0.025800645
224	0x3e137963	0.14401774
225	0x3cb47ff2	0.022033665
226	0xbe87d2ca	-0.26528007
227	0xbe1bd1a2	-0.15216687
228	0xbd674074	-0.05645795
229	0x3e135604	0.14388281
230	0xbe3d1569	-0.18465199
231	0x3c008430	0.007844016
232	0x3e20e67c	0.15712923
233	0xbe4c28c0	-0.1993742
234	0xbe2c25b9	-0.16811265
235	0xbea5ada8	-0.32359052
236	0x3e1b731a	0.15180627
237	0xbe821ed4	-0.25414145
238	0xbdd6bcca	-0.104852274
239	0x3e2e2ccf	0.1700928
240	0xbe3c2846	-0.18374738
241	0x3d73a220	0.059480786
242	0x3d6f4ec8	0.05842474
243	0x3dba1799	0.09086532
244	0xbe980929	-0.2969449
245	0x3d717600	0.058950424
246	0x3e54f247	0.20795546
247	0x3def76bf	0.11692571
248	0x3ccc979b	0.024974635
249	0xbe958aa1	-0.29207328
250	0x3dda1e6c	0.10650334
251	0xbd9686e4	-0.07349947
252	0x3e3d0b20	0.18461275
253	0xbe34591e	-0.1761212
254	0x3db35c48	0.087578356
255	0x3d5686d0	0.05237466
