student_tflite_models/student_model_quant.tflite (tflite, 67672 bytes, 12 tensors)

model_9/conv1d_9/BiasAdd/ReadVariableOp f4 [32]
000000 c6 76 c1 bd d3 d5 80 bc 2a da bd bd 00 00 00 00
       -0.09446482 -0.01572696 -0.09270127 0.0
000010 17 d3 bf bd f4 73 c3 bd a5 5b 88 bd b8 d0 f7 bd
       -0.09366434 -0.09543601 -0.06658105 -0.12100357
000020 00 00 00 00 00 00 00 00 ab d5 4b bd 98 4b a1 bb
       0.0 0.0 -0.049764317 -0.0049223416
000030 47 61 20 bd 83 29 65 bd 5f 79 38 bb 53 a1 29 bd
       -0.03915527 -0.05594779 -0.0028148515 -0.041413616
000040 f0 bb 1b bc 88 53 0a bd 6f 96 c4 bd 4a a2 fd 3d
       -0.009505257 -0.033771068 -0.095990054 0.1238447
000050 00 00 00 00 92 ca 21 3e ef 54 5d bd 29 f5 2a be
       0.0 0.1579993 -0.054036077 -0.16695084
000060 00 00 00 00 16 2f 06 be 55 f9 7f bd d6 c2 a4 bd
       0.0 -0.131039 -0.06249364 -0.080449745
000070 81 68 10 be da e3 92 bd 61 52 ea 3d 4b 07 d4 b9
       -0.14102365 -0.071723655 0.11441494 -0.00040441225

model_9/conv1d_9/Conv1D f4 [32, 1, 1, 4]
000000 77 ca c7 bd 6f e3 a2 3e a9 fc 2a 3e 89 d4 46 be
       -0.09755414 0.31814143 0.16697945 -0.19417013
000010 5e 32 a9 bd 56 63 9c bd 23 b9 09 be 50 e2 8e 3e
       -0.0826156 -0.07636134 -0.1344953 0.27907038
000020 ce 5a 66 bd bc 42 4c 3c 78 2a 95 3e 22 a8 3d bc
       -0.05623894 0.012467083 0.29133964 -0.0115757305
000030 ef e6 39 be e0 8f 8c be c5 e5 88 be 46 4d a9 be
       -0.181545 -0.27453518 -0.267378 -0.33066767
000040 8e c1 1f be c0 09 49 3e 18 9c 8c 3d 3b da 79 3d
       -0.15601179 0.19632626 0.0686571 0.060999136
000050 9c b0 0c 3d 80 58 9e 3e d3 13 00 bd 6d 47 27 be
       0.034348115 0.30926895 -0.031268906 -0.1633584
000060 74 96 bb be 8e 8e 86 3e 07 e3 a9 3e f6 44 a7 bd
       -0.36638224 0.26280636 0.3318102 -0.0816745
000070 71 9f 75 3e 7f 9b bc 3c 45 d6 4f bd 4a 92 cc bb
       0.23986603 0.023023365 -0.050741453 -0.006243025
000080 5d 15 50 be 80 b8 ad bc a5 fe b7 be 1b 8f b1 be
       -0.2032065 -0.02120614 -0.35936466 -0.34679493
000090 b8 b8 81 3e 0c 0f ac be 08 f6 32 be 8c b1 20 be
       0.25336242 -0.3360523 -0.17476666 -0.15692729
0000a0 42 2c 29 3d 9d f6 79 3e ac 0c 84 bd 0e 4e bd bd
       0.041301973 0.24410482 -0.064477295 -0.092434034
0000b0 3e 48 83 3e 1e 0e 8b be 49 40 d5 bd 41 71 b7 3d
       0.25641054 -0.27159208 -0.10412652 0.08957148
0000c0 bd 96 ae be c2 f6 6c be c8 67 99 3e cb 52 c9 3e
       -0.3409938 -0.23141006 0.2996199 0.3932098
0000d0 6d 38 15 3d f6 0d 02 3e 4b bf fa bd f2 60 f4 3d
       0.036430765 0.12700638 -0.122435175 0.11932553
0000e0 09 eb b3 be 91 fd 81 be 69 29 89 3e 95 6e 51 3e
       -0.35140255 -0.25388768 0.26789406 0.2045234
0000f0 f1 67 a4 bd 65 dc a8 3e 5a b9 d7 3d 94 cf 6a be
       -0.08027638 0.32980648 0.105334 -0.22930747
000100 25 f8 ef 3d a7 25 11 be b1 64 4b be da d2 55 3e
       0.11717252 -0.1417452 -0.1986263 0.20881215
000110 a4 1d 95 3c 3c 5b cd 3d 7d cb 24 bd 12 08 39 bd
       0.01820261 0.10027167 -0.040233124 -0.045173712
000120 b5 a5 0f 3e 4f ac 06 3e ea 6b 09 be b9 37 04 3e
       0.14028056 0.13151668 -0.13420072 0.12911882
000130 09 97 d9 3d d9 3a 3f 3e 7f 1f a7 be 4a fd a9 be
       0.10624511 0.18674792 -0.32641217 -0.33201057
000140 9c c6 c1 3e c2 1b 25 be a0 2c 5c be 10 2e 81 be
       0.3784684 -0.1612387 -0.21501398 -0.25230455
000150 d9 4b 50 be 31 74 8a 3b 5d 19 83 be 00 61 ef 3b
       -0.20341434 0.004225277 -0.25605288 0.0073052645
000160 11 24 a0 3e 76 86 d3 bb 6f 7b 62 3e ac e3 c3 be
       0.31277516 -0.006455238 0.22117399 -0.38259637
000170 8f 45 2f 3e 03 29 b6 bd e7 55 03 3e 76 af 0d 3c
       0.17116378 -0.08894541 0.12825738 0.00864779
000180 f2 57 27 be 13 3a 5a be a4 bd 97 3d 20 de 72 3c
       -0.16342142 -0.21311216 0.07409218 0.014823467
000190 68 9d 97 3e cc b3 25 be 83 9f a0 3e f9 ad 73 bc
       0.2961228 -0.16181868 0.31371698 -0.014873021
0001a0 42 9b 69 be b1 5a 34 3e 01 a9 14 bd 4b 84 8d 3e
       -0.22813132 0.17612721 -0.036293987 0.27639994
0001b0 a3 e7 c9 3d 89 59 76 bd d3 54 cf bd 12 7b 93 3e
       0.09858634 -0.06014398 -0.10123601 0.28804833
0001c0 d3 44 0f be 2e 87 16 3e 9c 46 3c 3e 38 c6 7e 3e
       -0.13991098 0.14700004 0.1838631 0.24880302
0001d0 5e eb a1 3e 52 56 16 be 15 b1 90 be bc 86 a2 3e
       0.31624883 -0.14681366 -0.28260103 0.3174342
0001e0 16 b6 1b 3d 5f 4c 7e be 82 2f fe be 28 1a 18 3e
       0.038015448 -0.24833821 -0.4964562 0.14853728
0001f0 de 9f 39 be b4 ed bf be d4 08 2d 3e c6 fd 19 3e
       -0.1812739 -0.3748604 0.16897899 0.15038213

model_9/dense_14/BiasAdd/ReadVariableOp f4 [4]
000000 c6 32 a1 3e 1f e8 a0 3e 0e 9a a1 3e 7f 55 a1 3e
       0.3148405 0.31427094 0.31562847 0.3151054

model_9/bidirectional_6/forward_lstm_9/Read_2/ReadVariableOp f4 [84]
000000 e8 e7 b7 bd 63 d5 d8 bd e1 0b 0a be c2 f9 34 be
       -0.089797795 -0.10587575 -0.13481094 -0.176734
000010 03 75 7a be 9c ad d4 bd 05 d6 16 be 1c d9 dc bd
       -0.24458699 -0.10384676 -0.1473008 -0.10783598
000020 bd 91 bd bd 99 70 12 be 4f fe 07 be b4 03 bf bd
       -0.09256313 -0.14300765 -0.13280605 -0.09326878
000030 ac 24 21 be a1 56 fc bd d6 27 52 be f9 87 24 be
       -0.15736645 -0.12321211 -0.20523009 -0.16067494
000040 37 2b 23 be b5 68 ce bd e1 53 c3 bd 5c 01 b6 bd
       -0.15934454 -0.10078565 -0.09537483 -0.08886978
000050 55 d2 cd bd a5 61 6b 3f 11 04 62 3f 83 e4 65 3f
       -0.10049883 0.9194587 0.88287455 0.89801806
000060 ac 3b 70 3f fe d6 61 3f 16 7e 6c 3f 21 68 6a 3f
       0.9384105 0.8821868 0.9237989 0.9156514
000070 b7 64 70 3f a5 b1 70 3f 34 a7 67 3f d0 7b 6a 3f
       0.9390368 0.94021064 0.90489507 0.9159517
000080 fe e6 6a 3f eb 95 63 3f 09 69 6c 3f 7b 4e 5f 3f
       0.91758716 0.8890063 0.9234777 0.87229127
000090 7c f5 60 3f 25 6c 68 3f e6 8a 68 3f 6e a7 6c 3f
       0.8787458 0.90790015 0.9083694 0.9244298
0000a0 74 7d 6d 3f 3c 51 72 3f c1 f3 f8 bb 34 07 9a bc
       0.9276955 0.94655204 -0.007597417 -0.018802263
0000b0 da 9d 3b bc f0 7c e7 3c 79 82 ad 3c 31 4e 57 3c
       -0.011451209 0.028257817 0.021180378 0.013141201
0000c0 c3 c3 ac ba d0 ca 4c 3c cc cc 11 bc 5c 32 91 3a
       -0.00131809 0.012499526 -0.008898925 0.001107763
0000d0 81 ab 56 3c 9e fc 0f bc 0b f6 b2 3b 32 b6 2d bc
       0.013102413 -0.008788256 0.0054614595 -0.010602521
0000e0 0f 92 0a 3a a8 20 21 bb 5a 52 82 3c c2 f2 14 3c
       0.00052860467 -0.0024586115 0.015908409 0.009091081
0000f0 1f 01 5d 3b 97 3d 73 3c 97 57 8e bb 9d d6 ba bd
       0.0033722592 0.014846227 -0.0043439376 -0.091229655
000100 73 d2 d2 bd 40 55 fa bd 87 d7 1e be fc d7 69 be
       -0.10294046 -0.122232914 -0.15511905 -0.22836298
000110 58 19 d8 bd 17 ff 0e be 6e 8e d5 bd 91 1f 9d bd
       -0.10551709 -0.13964497 -0.10427557 -0.076720364
000120 d3 2b 06 be e7 d3 ec bd 0c f0 b2 bd 46 50 01 be
       -0.13102655 -0.11563855 -0.087371916 -0.12628278
000130 49 27 d1 bd 24 ce 4c be f1 31 21 be 3b 36 11 be
       -0.10212571 -0.20000511 -0.15741707 -0.14180844
000140 65 6f ad bd ef 5b c9 bd 71 c5 97 bd 46 ce 9b bd
       -0.084685124 -0.09831988 -0.07410706 -0.07607703

model_9/bidirectional_6/backward_lstm_9/Read_2/ReadVariableOp f4 [84]
000000 45 fe 63 bd f8 80 ff bd 26 d5 0c be ed 09 29 be
       -0.055662412 -0.12475771 -0.13753185 -0.16507693
000010 e7 0f f5 bd eb c2 83 bd 90 e6 46 be 71 11 ce bd
       -0.11965924 -0.06433662 -0.1942389 -0.100619204
000020 04 cf d5 bd 7c c0 32 be af 36 a0 bd a3 d0 c3 bd
       -0.10439876 -0.1745624 -0.0782293 -0.09561279
000030 67 76 bc bd 51 59 f1 bd 5a 69 99 bd cb 01 48 be
       -0.09202271 -0.11784614 -0.07490797 -0.19531934
000040 64 99 93 bd ca 49 df bd a2 02 a3 bd a5 98 77 bd
       -0.07206991 -0.10902746 -0.079594865 -0.060448308
000050 49 7d be bd ce fc 80 3f 8d b5 74 3f be 85 73 3f
       -0.0930124 1.007715 0.95589525 0.9512595
000060 f6 78 66 3f a4 ea 75 3f 77 01 7b 3f 1f 87 69 3f
       0.9002832 0.9606116 0.9804911 0.91221803
000070 cc 04 77 3f 9a 68 72 3f 8e 3c 70 3f 1f d8 76 3f
       0.96491694 0.9469086 0.938424 0.96423525
000080 ba 0e 7d 3f d1 fd 75 3f 46 d5 7e 3f 69 ba 74 3f
       0.98850596 0.9609042 0.9954418 0.9559694
000090 d0 64 76 3f 7e b0 7d 3f 0a b9 77 3f 30 74 81 3f
       0.9624758 0.9909743 0.9676672 1.0113583
0000a0 b9 e9 78 3f f3 ad 78 3f 19 e9 0c bc 1e 8d 97 3b
       0.9723163 0.97140425 -0.008600497 0.004624977
0000b0 ed 48 c5 3b 8e f2 02 bc ab 30 8a 3b b9 f6 23 bc
       0.0060206563 -0.0079924 0.0042172275 -0.010007554
0000c0 89 88 4e 3c 0f 00 28 bc e8 b7 87 3c 2d 1b ab 3a
       0.012605795 -0.01025392 0.016567186 0.0013054364
0000d0 5a c9 9f bb 7a a5 b6 ba a3 e1 fa 3a 81 4a 5f bc
       -0.004876298 -0.0013934814 0.0019140731 -0.013628603
0000e0 1b ad a3 3b aa d7 c9 bc 26 e3 4b 3c f2 ca 2b 3b
       0.004995001 -0.02463897 0.012444293 0.0026213494
0000f0 b9 18 96 bc 65 18 d2 bb ba 67 ee 3b 24 bc 7b bd
       -0.018322336 -0.0064115995 0.0072755488 -0.06145872
000100 b8 03 f1 bd 93 4b 0f be 1c 0b 22 be 0a 41 e3 bd
       -0.117682874 -0.13993673 -0.1582455 -0.110963896
000110 6a 09 86 bd 93 31 56 be f2 96 c4 bd 6b d1 de bd
       -0.06544764 -0.20917349 -0.09599103 -0.10879787
000120 8a 82 22 be 4b 27 8d bd 2d cd a4 bd 6d 2f bb bd
       -0.15870109 -0.0689226 -0.08046947 -0.09139905
000130 5e ef e3 bd 14 3f 94 bd e1 1f 3f be a5 32 82 bd
       -0.1112964 -0.07238594 -0.18664505 -0.06357316
000140 dc a6 d0 bd 9e d4 bd bd 05 73 36 bd 01 d4 b1 bd
       -0.10188076 -0.09269069 -0.044543285 -0.08683015

model_9/dense_14/MatMul f4 [4, 840]
000000 e5 c7 10 bd d1 6f 0e bd ae c5 c1 bc 65 52 46 3d
       -0.035346884 -0.034774605 -0.023653831 0.04841842
000010 e3 d5 4d 3d 64 9b 21 3d db 8f 4a bd 97 8e 10 3d
       0.050252806 0.039454833 -0.049453598 0.035292234
000020 7f 97 4f bd 53 ec bf bc 48 21 13 3d 73 e2 6a bd
       -0.050681587 -0.023428118 0.03592041 -0.057344865
000030 d7 54 2c 3d a6 f1 b9 bc b2 31 03 bd 26 79 a6 3c
       0.042073097 -0.022698235 -0.032029815 0.02032144
000040 c3 3d 83 3d 34 8c 22 3d d1 7d 1d 3d 63 6b 7c 3d
       0.064082645 0.03968449 0.038450066 0.06162585
000050 b3 17 7d 3c 5f cf 05 bc f7 8f 58 bc 50 c5 cb bc
       0.015447545 -0.008167117 -0.013217918 -0.02487436
000060 45 02 d9 3c 67 61 a1 bc 08 aa c8 bc 47 57 a0 bc
       0.02649034 -0.019699765 -0.02449514 -0.019572867
000070 c1 08 ab 3c a2 b5 02 bc a4 99 f1 3b e5 4e 41 bc
       0.020878198 -0.007977875 0.0073730517 -0.011798595
000080 4e dd 7a 3c 14 4d 49 3c 52 ae 8f bc b3 c8 29 3c
       0.015311552 0.012286443 -0.017539177 0.010362792
000090 d3 11 3c 3c 59 80 a5 3c 5e 97 99 bc 43 8c 53 3c
       0.011478859 0.020202802 -0.018748935 0.012911859
0000a0 9d 6e ca 3b 8e 41 23 bc 47 eb 09 bd b3 7d b5 bc
       0.006177737 -0.00996436 -0.033671644 -0.022154665
0000b0 c5 32 66 bc 34 33 0b 3d 5e 28 73 3d f9 d8 31 3d
       -0.01405019 0.033984378 0.05936467 0.043419812
0000c0 88 00 cf bb fc ee 69 3c 80 ca a8 bc 4e 59 8b bc
       -0.006317202 0.01427817 -0.020604372 -0.017010357
0000d0 cd c1 43 3d 8f 60 c9 bc f6 fa 05 3d e9 bc c6 bc
       0.047792245 -0.024582176 0.032710038 -0.024260001
0000e0 d8 2a af bc eb 1c 96 3c 11 3f f4 3c 80 87 e9 3c
       -0.021382734 0.018324336 0.029815229 0.028506994
0000f0 46 50 c9 3c b9 48 f0 3c 97 6d 92 bc 82 5c ad bc
       0.02457441 0.029331552 -0.017874522 -0.021162275
000100 de 8c 81 bc af 19 40 bc c9 d5 31 3c 0c 3e d8 bc
       -0.015814241 -0.011724873 0.010854193 -0.026396774
000110 b1 97 ac bc 13 a8 75 bc 47 f8 c3 3c 22 64 f6 bb
       -0.021068426 -0.014993685 0.023922099 -0.007519261
000120 ba 4f 57 3d d5 b1 59 bc 92 b7 ad 3c 7b 0d 07 3c
       0.052566268 -0.013287027 0.021205697 0.00824296
000130 18 d3 65 bc d3 18 94 3c d0 80 62 3c ad e2 9a 3c
       -0.014027379 0.018078243 0.013824657 0.018906916
000140 ef 7a c4 bc 16 44 db 3b 80 76 57 3c e4 cd 41 bc
       -0.0239844 0.006691466 0.013150811 -0.011828873
000150 a2 e2 f3 bc 86 73 63 bc 3b 2e 9b bc b6 db 12 3d
       -0.029771153 -0.013882523 -0.018942943 0.035854064
000160 19 9e 58 3d 9a 53 13 3d 89 9e 4d bc 4f a3 93 3c
       0.05288515 0.0359684 -0.012550005 0.018022208
000170 ca 04 b9 bc ed ac e2 bc 2e b1 d0 3c b9 67 c4 bc
       -0.022585291 -0.027670348 0.02547511 -0.02397524
000180 ef f6 d7 3c c3 60 40 bc 92 17 a5 bc 36 af bd 3c
       0.026362864 -0.01174182 -0.02015284 0.023154836
000190 1e 50 0c 3d ac 97 76 3c c8 9d bb 3c 92 1f c5 3c
       0.034256093 0.01505081 0.022902384 0.024062905
0001a0 f5 74 e3 3c 94 15 98 bc 60 92 bf bc 77 64 27 bc
       0.02776573 -0.018564977 -0.023385227 -0.010216824
0001b0 d9 de b0 3c 72 fe f0 bc 79 ad bc bc f9 d4 b8 bc
       0.021590637 -0.029418204 -0.023031937 -0.02256249
0001c0 1e ff 96 3c ba c2 4b bc 95 29 0a 3d 4b 0b be bc
       0.018432196 -0.012436563 0.033731062 -0.023198744
0001d0 ac b4 80 3c b6 c9 4f 3c da 53 5b bc a8 13 2d 3c
       0.015711151 0.012682369 -0.013386691 0.010563768
0001e0 88 02 8e 3c 39 56 8c 3c 8d 62 83 bc db 5a 74 3c
       0.017335191 0.017130958 -0.016038204 0.01491424
0001f0 ad d1 d8 3b 4e d1 7c bc d8 59 82 bc 46 75 e1 bc
       0.006616792 -0.0154307615 -0.015911981 -0.02752174
000200 9d a9 aa bc a9 1e 13 3d 3e d4 3f 3d d8 03 03 3d
       -0.020832831 0.03591791 0.04683327 0.031986088
000210 32 cc 28 bd 36 76 6d 3c c9 be 6d bc a6 9b b8 bc
       -0.04121036 0.014493516 -0.014510819 -0.022535156
000220 04 ef d2 3c ed d4 ae bc eb 6d f1 3c a3 20 a6 bc
       0.025748737 -0.021341765 0.029471358 -0.020279234
000230 d9 b2 87 bc 51 d8 aa 3c 80 07 c4 3c 5a ca 58 3c
       -0.016564773 0.0208551 0.023929358 0.013231838
000240 d0 19 63 3c 1b ad eb 3c 95 77 71 bd ef 95 2e bc
       0.013861135 0.028769067 -0.058951933 -0.010655864
000250 a9 1e 86 bc 22 71 87 bc fd 2d 77 3c 28 2a c0 bc
       -0.016372042 -0.016533438 0.015086648 -0.023457602
000260 37 00 1b bd 4e a6 a1 bc e5 dc 86 3c 38 1c 6a bc
       -0.037842 -0.01973262 0.016462753 -0.014288954
000270 85 71 80 3d ee b1 22 bc 1c eb 84 3c 71 09 a2 3c
       0.06271652 -0.009930117 0.01622539 0.019779893
000280 a0 b5 a1 bc 3f 72 c4 3c f7 31 aa 3c 6e d3 74 3c
       -0.019739926 0.023980258 0.020775778 0.014942987
000290 97 52 9f bc dd 4e 33 3c 5e f9 2e 3c c1 07 9f bc
       -0.019448562 0.010944095 0.010679571 -0.019412877
0002a0 8c 4a 07 bd 21 c0 8e bc bb 4a 84 bc 70 50 0e 3d
       -0.033030078 -0.017425599 -0.016148916 0.03474468
0002b0 27 07 bf 3c 31 86 0c 3d 5f c1 31 bc 54 ec 9c 3c
       0.02331884 0.034307662 -0.010849326 0.019155659
0002c0 b5 2f c9 bc 09 9a 9f bc 25 67 8d 3c 8c 08 a8 bc
       -0.024558881 -0.01948263 0.017261097 -0.020511888
0002d0 d4 ed f8 ba 88 b7 31 bc f4 2d 3d bc d0 0f ab 3c
       -0.0018991777 -0.01084698 -0.011546601 0.020881563
0002e0 5f 1a b6 3c c3 56 ea 3c 71 6d ed 3c 30 71 de 3c
       0.022229372 0.028605824 0.02898285 0.027153581
0002f0 5f a1 34 bc f4 16 84 bc fb 70 9a bc a8 d0 81 bc
       -0.011024802 -0.016124226 -0.018852701 -0.015846565
000300 a2 b2 c9 3c 2b 32 03 bd 36 46 e7 bc 98 fa 81 bc
       0.024621312 -0.032030266 -0.028231721 -0.015866563
000310 82 ce 92 3c 51 58 88 bc 76 04 55 3d e3 67 a8 bc
       0.017920736 -0.016643675 0.052006207 -0.02055735
000320 f0 4e 97 3c 0f 0f 94 3c 43 f1 64 bc 47 32 9f 3c
       0.018470258 0.018073587 -0.013973537 0.019433154
000330 fc fe 62 3c 09 7b 55 3c 47 98 5b bc 64 e3 08 3b
       0.013854738 0.013029822 -0.013403005 0.0020887488
000340 bb 74 99 3b f7 3d be bb bd 6c e3 bc 5e 0f 05 bd
       0.004683105 -0.0058057266 -0.027761811 -0.03248536
000350 87 99 89 bc 94 62 de 3c d2 b8 9c 3c 02 02 94 3c
       -0.01679684 0.027146615 0.019131098 0.018067364
000360 9a 74 f8 bb 87 91 e8 3c 58 e0 b6 bc 67 c8 ed bc
       -0.0075822594 0.028389705 -0.022323772 -0.029026223
000370 47 f6 ca 3c 6b a5 c9 bc 27 10 16 3c 97 51 e8 bc
       0.024775637 -0.02461501 0.009159124 -0.028359218
000380 fe ed fe bc 1c 81 ad 3c 42 82 f1 3c 4a 8e 91 3c
       -0.031119343 0.021179728 0.029481057 0.017768044
000390 e6 3a 98 3c a4 83 df 3c eb e7 22 bc 87 3d ab bc
       0.018582772 0.02728445 -0.009942989 -0.020903362
0003a0 25 a6 01 bc ef 68 96 bc aa ce df 3c 4b ab 28 bd
       -0.007913147 -0.018360583 0.027320225 -0.041178983
0003b0 2a ad db bc d4 b5 2b bc 84 ff 87 3c 46 86 87 bc
       -0.02681597 -0.010480363 0.016601332 -0.016543519
0003c0 63 b3 b5 3c 4e d5 cf bc 28 25 2a 3c f4 88 26 3c
       0.022180265 -0.025370266 0.010384835 0.010164488
0003d0 57 5e b1 bc a4 9a 21 3c 04 d8 cd 3c ce 64 97 3c
       -0.02165143 0.009863529 0.025127418 0.018480685
0003e0 46 00 ad bc 4a e3 1f 3c 8b b8 5a 3c e2 fe 53 bc
       -0.021118294 0.00975878 0.013349663 -0.012939187
0003f0 e9 2a 59 bc 1b 32 d7 bc f7 32 2c bc 88 1f c4 3c
       -0.0132548595 -0.02626901 -0.010510198 0.023940817

model_9/bidirectional_6/backward_lstm_9/Read_2/ReadVariableOp1 f4 [84]
000000 45 fe 63 bd f8 80 ff bd 26 d5 0c be ed 09 29 be
       -0.055662412 -0.12475771 -0.13753185 -0.16507693
000010 e7 0f f5 bd eb c2 83 bd 90 e6 46 be 71 11 ce bd
       -0.11965924 -0.06433662 -0.1942389 -0.100619204
000020 04 cf d5 bd 7c c0 32 be af 36 a0 bd a3 d0 c3 bd
       -0.10439876 -0.1745624 -0.0782293 -0.09561279
000030 67 76 bc bd 51 59 f1 bd 5a 69 99 bd cb 01 48 be
       -0.09202271 -0.11784614 -0.07490797 -0.19531934
000040 64 99 93 bd ca 49 df bd a2 02 a3 bd a5 98 77 bd
       -0.07206991 -0.10902746 -0.079594865 -0.060448308
000050 49 7d be bd ce fc 80 3f 8d b5 74 3f be 85 73 3f
       -0.0930124 1.007715 0.95589525 0.9512595
000060 f6 78 66 3f a4 ea 75 3f 77 01 7b 3f 1f 87 69 3f
       0.9002832 0.9606116 0.9804911 0.91221803
000070 cc 04 77 3f 9a 68 72 3f 8e 3c 70 3f 1f d8 76 3f
       0.96491694 0.9469086 0.938424 0.96423525
000080 ba 0e 7d 3f d1 fd 75 3f 46 d5 7e 3f 69 ba 74 3f
       0.98850596 0.9609042 0.9954418 0.9559694
000090 d0 64 76 3f 7e b0 7d 3f 0a b9 77 3f 30 74 81 3f
       0.9624758 0.9909743 0.9676672 1.0113583
0000a0 b9 e9 78 3f f3 ad 78 3f 19 e9 0c bc 1e 8d 97 3b
       0.9723163 0.97140425 -0.008600497 0.004624977
0000b0 ed 48 c5 3b 8e f2 02 bc ab 30 8a 3b b9 f6 23 bc
       0.0060206563 -0.0079924 0.0042172275 -0.010007554
0000c0 89 88 4e 3c 0f 00 28 bc e8 b7 87 3c 2d 1b ab 3a
       0.012605795 -0.01025392 0.016567186 0.0013054364
0000d0 5a c9 9f bb 7a a5 b6 ba a3 e1 fa 3a 81 4a 5f bc
       -0.004876298 -0.0013934814 0.0019140731 -0.013628603
0000e0 1b ad a3 3b aa d7 c9 bc 26 e3 4b 3c f2 ca 2b 3b
       0.004995001 -0.02463897 0.012444293 0.0026213494
0000f0 b9 18 96 bc 65 18 d2 bb ba 67 ee 3b 24 bc 7b bd
       -0.018322336 -0.0064115995 0.0072755488 -0.06145872
000100 b8 03 f1 bd 93 4b 0f be 1c 0b 22 be 0a 41 e3 bd
       -0.117682874 -0.13993673 -0.1582455 -0.110963896
000110 6a 09 86 bd 93 31 56 be f2 96 c4 bd 6b d1 de bd
       -0.06544764 -0.20917349 -0.09599103 -0.10879787
000120 8a 82 22 be 4b 27 8d bd 2d cd a4 bd 6d 2f bb bd
       -0.15870109 -0.0689226 -0.08046947 -0.09139905
000130 5e ef e3 bd 14 3f 94 bd e1 1f 3f be a5 32 82 bd
       -0.1112964 -0.07238594 -0.18664505 -0.06357316
000140 dc a6 d0 bd 9e d4 bd bd 05 73 36 bd 01 d4 b1 bd
       -0.10188076 -0.09269069 -0.044543285 -0.08683015

while/MatMul_11 f4 [84, 21]
000000 ae 3c d2 3d 75 1e 80 3d 01 ff 05 3e ec cb 86 be
       0.1026548 0.06255809 0.13085558 -0.26327455
000010 a5 6f 84 3d 76 57 96 bd 79 67 a2 3e 79 81 c2 3d
       0.06466607 -0.073409006 0.31719568 0.09497351
000020 37 1a a4 bd 15 30 a7 3c 80 95 92 bd 03 7f 02 3c
       -0.080128126 0.02040867 -0.07157421 0.007964852
000030 bd 10 16 3e 0f af 83 be 57 89 cc be 53 6c 5c be
       0.14654823 -0.25719497 -0.39948532 -0.21525697
000040 6e e7 2a 3e b8 b0 aa 3b 1b e1 1f 3e e4 54 00 be
       0.16689846 0.005209055 0.15613215 -0.12532383
000050 1e e4 d2 3d 0b bd 3c 3e 33 87 1a 3d 04 11 cd 3e
       0.10297416 0.18431489 0.037726592 0.40052044
000060 13 6e 14 be 94 c2 64 3d e4 f6 03 3e bb 0c 80 bc
       -0.14495115 0.055849627 0.1288715 -0.01563107
000070 de 73 69 3c db a5 93 3e 25 38 88 3d 39 3b 3c 3e
       0.014248816 0.28837475 0.06651334 0.18381967
000080 d0 7b b3 3d 91 6c af bd 3e 69 8b bd a8 b0 98 bc
       0.0876385 -0.08565629 -0.06807183 -0.018638924
000090 4d ce 6b be d9 63 39 3d c6 65 ca bc ee 7c 50 be
       -0.23027916 0.045261238 -0.024706732 -0.20360157
0000a0 c8 b8 db 3d bc 9a 0b 3c 39 2c 84 3d ae f8 0b 3d
       0.107286036 0.008520778 0.06453747 0.034172706
0000b0 4a 00 1e 3e 3f f5 93 be e1 01 d9 bc 1a 23 ea 3d
       0.15429798 -0.28898045 -0.026490154 0.11432476
0000c0 ed 9b 6e 3e e0 5c 88 be 0f f4 30 3e 42 d0 02 be
       0.23301668 -0.26633358 0.17280601 -0.12774757
0000d0 d0 45 5c 3d 3c 26 10 3d 31 ac a5 bd fe d9 eb 3d
       0.053777516 0.035192713 -0.080894835 0.11516188
0000e0 6a f0 54 3c 18 3b 16 be b6 50 4d be 1c d9 57 3e
       0.012996772 -0.1467098 -0.2005032 0.21078914
0000f0 bd 61 7b bc 5f 57 c6 3a ae 3f 9c 3e 95 a3 07 3d
       -0.015343127 0.001513224 0.30517334 0.03311499
000100 39 99 21 3d 09 c2 aa bc 00 1a 7e bd 4d 72 77 3e
       0.039452765 -0.020844476 -0.062036514 0.24164696
000110 06 3d 74 bd 42 9a 69 3e 76 b4 c8 bc 6a 63 0c 3e
       -0.05962851 0.22812751 -0.024500113 0.13709798
000120 e6 3d 7e be d9 ad 37 3e 0c 0d ae 3d 55 89 8b 3d
       -0.248283 0.17937411 0.08498582 0.068133034
000130 3b f9 16 3c 90 d3 22 be d6 99 1e bd f4 10 fd bd
       0.009214695 -0.15901017 -0.038720928 -0.12356749
000140 f9 4c bc 3d 36 d6 69 be e6 ef 3b bd e6 95 3d bd
       0.09194369 -0.22835621 -0.04588308 -0.046285532
000150 3d e1 31 3e dd 92 0f 3e c6 4d da bb b8 b4 c4 bd
       0.17371078 0.14020868 -0.0066621033 -0.09604782
000160 05 9d 84 3d a3 6d c7 bb 9e 16 74 3d f5 2a 86 3c
       0.064752616 -0.0060860678 0.059591882 0.016377905
000170 3a f2 ea bd 22 0b fc 3d f8 99 b9 bd 5a ff 25 bd
       -0.11471982 0.12306811 -0.0906257 -0.040526725
000180 f1 30 39 bd 48 30 aa bd 41 36 9b bd 8d 74 a6 be
       -0.04521269 -0.0830999 -0.075787075 -0.32510796
000190 2f 23 c4 3c 7d 97 f6 3d 34 b9 1f be 13 23 06 3e
       0.023942558 0.12040613 -0.15597993 0.13099317
0001a0 44 d7 a8 3c c3 9e 9c bd 95 d6 75 3e 33 93 5d 3e
       0.02061046 -0.07647469 0.24007638 0.21638183
0001b0 6d c7 c6 be 26 6f dc 3c 6e f0 49 be 0e e6 8b 3d
       -0.38824025 0.026908468 -0.19720623 0.06830989
0001c0 e2 a7 43 bd b3 d2 b8 3d 31 50 e1 3d 2c b1 d9 3d
       -0.047767527 0.09024563 0.110016234 0.10629496
0001d0 76 40 92 3d d3 b2 1a be a8 af 25 be 55 e7 cf bd
       0.07141201 -0.15107279 -0.16180289 -0.10151545
0001e0 13 c0 1a be af d0 44 3d 55 a7 0c bd 46 ef 02 3e
       -0.15112333 0.04805058 -0.034339268 0.12786588
0001f0 23 04 a4 bd b2 6d a6 bc 1e 34 46 3e 8b 3c b7 b9
       -0.080086015 -0.020315979 0.19355819 -0.00034949588
000200 05 c0 89 3e 90 7c 44 bd 72 1d 12 3e dc 8f 78 bc
       0.26904312 -0.047970355 0.14269045 -0.0151710175
000210 42 96 74 3e 5c 95 a0 bc 0e a5 18 be c1 29 a2 bd
       0.23885444 -0.01960247 -0.14906713 -0.0791812
000220 20 2c 1b 3e 6a a3 31 be 78 69 8c bd f5 f2 59 3d
       0.15153551 -0.17347494 -0.06856054 0.053210218
000230 fd db a0 bd 8e e1 a2 be c1 7b 2f bd 20 85 10 3d
       -0.078544594 -0.3181271 -0.04284263 0.035283208
000240 e8 b0 27 be 60 bc ea bc 26 04 9a 3e d9 65 e7 3c
       -0.16376078 -0.028654277 0.3008129 0.028246807
000250 36 f2 78 3e 24 85 d4 bd 07 d0 ae bd 1a 66 b4 bd
       0.24311146 -0.10376957 -0.08535772 -0.08808537
000260 da 8d c6 3c c2 8c 6d 3e d4 a3 4b bd 02 f9 32 3e
       0.024237562 0.23198226 -0.049716786 0.17477801
000270 52 10 a4 bd 7a 29 10 3c 17 9e 85 bd fb c4 87 bd
       -0.08010925 0.008798951 -0.06524294 -0.06629368
000280 2b b0 33 3e 3d a1 71 bd be 66 93 be c0 43 39 be
       0.17547671 -0.05899166 -0.28789324 -0.18092251
000290 8e 84 05 3e 34 a3 be bd ad 16 54 be 4f 12 a3 3e
       0.13038847 -0.09308472 -0.20711775 0.31849906
0002a0 16 28 e4 3e a5 60 24 3e 6d be c3 3b 30 ea f1 bd
       0.44561833 0.16052492 0.0059736283 -0.11812246
0002b0 fe af 42 bc 67 7c ac 3d d5 70 6a 3e 0f e5 94 be
       -0.01188278 0.08422165 0.22894605 -0.29081008
0002c0 4b 3f 8c 3e d7 df 3c be 42 79 87 3e b1 93 f2 3d
       0.2739204 -0.18444763 0.264597 0.11844576
0002d0 11 6a dd bd 2b a3 bb 3d c7 e4 84 be db 15 65 be
       -0.10811246 0.09161981 -0.25955793 -0.22371618
0002e0 e8 bb 89 be 22 b6 03 3e 6c 2d 53 be 3c ee 46 bd
       -0.26901174 0.12862447 -0.20622796 -0.04856704
0002f0 ee f0 6f 3e dd 16 b3 3d 0b 14 09 3c fe 4e 05 3e
       0.23431751 0.08744595 0.008366595 0.13018414
000300 6a f1 a1 3c e9 bf 97 bd 67 60 ec bd 2e 68 e4 bc
       0.019768436 -0.07409651 -0.11541825 -0.027881708
000310 f0 6c 53 bb 48 99 19 3e 29 08 c5 bd c6 9a b1 bd
       -0.0032260977 0.14999878 -0.09620697 -0.08672099
000320 16 eb f7 bb de 76 b4 bd 5f 9c ca bd df 4b f4 bd
       -0.007565866 -0.088117346 -0.09893107 -0.11928534
000330 9f 78 03 be ad 9c c5 3d f4 fe fd bb 24 cd dd bd
       -0.12838982 0.09649024 -0.00775134 -0.10830143
000340 82 7c f9 bd b5 df 43 bd 26 af 93 bc c8 9a 38 be
       -0.12181951 -0.047820766 -0.018027853 -0.18027794
000350 0b 7b 88 3d ad 40 19 be c4 f8 1f 3e 8a 99 f1 bd
       0.066640936 -0.14966078 0.1562224 -0.117968634
000360 d7 c0 3b 3e 48 69 95 bd 43 b5 ac 3d b8 03 dc bc
       0.18335281 -0.072954714 0.084330104 -0.026857242
000370 8e 20 9d 3d 8a 46 70 be 9e 7e 40 bd cb 52 be bb
       0.07672225 -0.23464409 -0.04699575 -0.0058082095
000380 5a 86 b1 3d 98 2d 93 be 5e 53 cc bd ad 38 65 3e
       0.08668204 -0.28745723 -0.099768385 0.22384901
000390 6f fc 13 be 05 1d b2 3d 17 85 e2 3d ca ef c3 3d
       -0.14451765 0.08696941 0.11060541 0.095672205
0003a0 79 6b 21 3d 11 4e 47 3e e4 16 8c be d5 2d a6 3d
       0.039409135 0.19463374 -0.27361214 0.081142105
0003b0 17 b3 4c 3d 85 ce a8 3e 9f f4 24 be 5a 5d 96 3e
       0.04997548 0.32970062 -0.1610894 0.29368097
0003c0 2f a6 c7 bd 09 13 b2 3d fb 80 9c bd 1c 1e ed bc
       -0.09748494 0.08695037 -0.076417886 -0.028945021
0003d0 3d a1 1a 3e 5b bc 00 be 2a ca 10 bf 92 2d d9 3c
       0.1510057 -0.12571852 -0.5655848 0.026510987
0003e0 16 8d 38 3e ac e9 36 bc 3b 12 45 be cd b7 ff 3c
       0.1802257 -0.01116411 -0.19245236 0.031215573
0003f0 6a ce 0b 3e 5a 5c fa bd 3b 26 ee 3d bc b7 e8 3d
       0.1365296 -0.12224646 0.11628386 0.113631696

while/MatMul f4 [84, 32]
000000 e7 c9 a4 bc b7 0d 2c 3e c4 6a 9b be e9 2d 25 be
       -0.020115806 0.16802107 -0.30354893 -0.16130795
000010 93 5d 98 bd 49 a1 56 3e c7 55 8c bd 2a 1c 6e 3e
       -0.07439723 0.20959963 -0.06852298 0.23252931
000020 7d 6a 5a be bc fa c8 bd 40 08 0f bd 89 ee 61 3c
       -0.21329685 -0.09813449 -0.034919977 0.013789781
000030 04 05 19 be 4c 22 c6 3c ac 19 53 bd 32 bb 44 3d
       -0.1494332 0.024186276 -0.051538154 0.048030086
000040 73 f7 83 bd 6a 26 16 be da ad 8c bd b4 f9 50 bf
       -0.064436816 -0.14663091 -0.06869097 -0.81631017
000050 39 68 f7 bd be 68 69 bf 28 ba ec bd 70 75 a5 3e
       -0.12080426 -0.9117545 -0.11558944 0.3231616
000060 5a a1 49 3e da 62 69 be 06 86 88 be 92 70 15 be
       0.19690457 -0.22791615 -0.26664752 -0.14593723
000070 72 44 21 bd 11 54 da bd a0 da 36 bf 2a ba ba bd
       -0.039371915 -0.10660566 -0.71427345 -0.09117539
000080 a3 99 9c be 32 c8 16 be f3 cb a2 bd 1a b5 a7 bd
       -0.30585966 -0.14724806 -0.079490565 -0.08188839
000090 91 b9 d9 3d 92 1a 83 3d 65 7a 16 bd a9 2d 0e be
       0.10631097 0.06401552 -0.03673782 -0.13884605
0000a0 c1 b5 58 be fc b3 fe bd 02 83 b6 3d 3a 29 9a 3c
       -0.21163084 -0.12436673 0.089117065 0.018818486
0000b0 70 33 44 bd 0d 32 56 be eb e4 21 be b3 dc 4f bd
       -0.047900617 -0.2091753 -0.15809982 -0.050747585
0000c0 0b d9 0b be 9f 1b 3b 3e 6f bc 12 be dc c6 2c be
       -0.13657014 0.18272255 -0.14329694 -0.16872734
0000d0 20 c2 c9 3d 7b 06 17 bf e1 01 c2 bb 6e 4d 23 be
       0.098514795 -0.58994263 -0.005920634 -0.15947506
0000e0 dd 78 31 be 2b 27 ce be 93 31 a7 be 39 0f 7d bd
       -0.17331262 -0.40264258 -0.3265501 -0.061782096
0000f0 a8 7f 99 be cd 44 91 be c9 31 89 be ee 8f 5c be
       -0.29980206 -0.28372803 -0.26795796 -0.2153928
000100 87 36 2e 3d e2 8a ce bd 91 a6 8e be ec 33 85 3d
       0.04253247 -0.100850835 -0.27861455 0.06504044
000110 c0 9f b1 bc 16 40 38 be 3f 9b 0b 3c e3 77 86 3d
       -0.02168262 -0.17993197 0.0085209 0.06565835
000120 94 7a 6e bd b0 9c 05 be 34 d4 a7 bc 90 20 3b be
       -0.05822237 -0.13048053 -0.020486929 -0.1827414
000130 b5 a5 97 be ed 14 3e bd 42 a5 00 3e 1b 5c 8f be
       -0.29618612 -0.046406675 0.12563041 -0.27999958
000140 a4 50 a5 bd dc b3 42 bd c4 1e 21 bd 79 3e b6 be
       -0.080720216 -0.04753481 -0.03933598 -0.35594538
000150 18 60 49 be 9f d6 66 3e 87 c7 86 bd 07 2d c1 ba
       -0.19665563 0.22542809 -0.065810256 -0.0014738151
000160 38 5e 7c bd 9a cb 5d 3d b2 ac 0d be aa 3e e1 3d
       -0.06161329 0.054149248 -0.1383541 0.1099828
000170 c5 f6 95 be 91 94 9d bd df 55 ef bd da 3a 45 3e
       -0.29289833 -0.076943524 -0.116863005 0.19260731
000180 b7 ab 41 be bf 18 54 be 16 20 7b be e4 af 96 3d
       -0.1891316 -0.20712565 -0.24523959 0.07357767
000190 49 c5 03 3e a0 95 45 be df 8a d2 3c 6c ae ff bc
       0.12868227 -0.19295359 0.025700985 -0.0312111
0001a0 c3 74 fe bd 70 3f 9a 3c eb 98 44 be 12 3c 62 bd
       -0.12424614 0.018829077 -0.19198959 -0.05523307
0001b0 a4 5e b9 be 52 c1 29 be 20 cf c0 3d 85 07 56 be
       -0.36205018 -0.16577652 0.09414506 -0.20901306
0001c0 b5 bc 31 3e f4 27 ba bd d4 09 91 be 46 1c 64 3c
       0.17357142 -0.09089652 -0.2832781 0.013922757
0001d0 98 d4 a2 3d 85 07 b3 bd cb c0 13 bd 60 39 35 3e
       0.07950705 -0.087416686 -0.036072534 0.17697668
0001e0 86 27 0f be fb 7a 5e 3c 01 5c e1 bd 2e 8a 06 bd
       -0.1397992 0.0135791255 -0.110038765 -0.032846622
0001f0 36 b5 8d be 11 a9 1f be e1 2d 09 be e3 77 40 be
       -0.27677315 -0.15591837 -0.13396408 -0.18795733
000200 ce b6 3f 3c 25 c9 68 3e cd 58 c8 bc d0 48 58 bc
       0.011701299 0.2273298 -0.024456406 -0.013200954
000210 7a 24 00 bd 1f 43 d4 3d 9a a2 c8 3d f4 a0 ca 3d
       -0.031284787 0.10364365 0.09796639 0.098939806
000220 7c d3 e6 3d 90 59 9e bd c2 34 3c be 19 af 4d 3d
       0.11270806 -0.077319264 -0.183795 0.050215814
000230 21 aa 83 bd 94 e7 43 be fe 53 bb bd ef 12 96 ba
       -0.06428934 -0.19131309 -0.091468796 -0.0011449734
000240 77 f9 db 3d be 93 a5 bd 81 11 8c be 44 20 91 be
       0.10740941 -0.0808482 -0.27357104 -0.2834493
000250 94 b9 27 3e 3e aa ae be 31 3f dd 3a ee ed d8 bd
       0.16379386 -0.3411426 0.0016879794 -0.105922565
000260 98 b1 53 3d 0f 66 12 be 38 30 4f bd 88 56 da bd
       0.05168304 -0.14296745 -0.050583094 -0.10661036
000270 87 d1 08 be 26 bb 96 be e0 ae 5a bc 60 a1 c5 bc
       -0.13361178 -0.29439658 -0.0133473575 -0.024124801
000280 d1 7f 74 bd 63 25 f3 bd d4 82 ad be d8 bf e2 bc
       -0.059692208 -0.11872365 -0.33888876 -0.027679369
000290 c3 91 b9 bd 1e 76 e6 3b 89 87 6c 3d aa 32 04 3d
       -0.09061005 0.0070331236 0.057746444 0.03227488
0002a0 25 20 4b be c8 24 2c 3d 28 cf 24 3e cb c9 2d be
       -0.19836481 0.042027265 0.16094649 -0.16971509
0002b0 83 d5 db 3d a3 2e 9c bd 00 b2 74 bc 95 5d 08 bd
       0.107340835 -0.07626083 -0.014935017 -0.03329237
0002c0 69 c4 32 bc 00 3c 95 bd c4 6b 12 be ab ea c7 be
       -0.010911086 -0.07286835 -0.14298922 -0.39046225
0002d0 68 ce 03 3d 9d 51 8a bf a4 f7 2d be 8f c4 3d bd
       0.032179266 -1.0806156 -0.16988999 -0.04633003
0002e0 c2 a9 51 3e fa da b2 3d b7 35 8a bd d6 9e 28 be
       0.20474914 0.08733173 -0.067485265 -0.16466841
0002f0 94 03 4b bd aa 4a 08 bd ea ab b3 be a8 7f a0 3d
       -0.04956396 -0.03327433 -0.35092098 0.078368485
000300 41 01 a2 3c 31 59 50 be 03 60 ee bd 39 ec 51 be
       0.019775989 -0.20346524 -0.116394065 -0.20500268
000310 82 54 8a be cf c5 54 be 0e 27 32 be be cb 4d be
       -0.270176 -0.20778583 -0.1739771 -0.20097253
000320 92 46 5b be b0 ed d7 bd 04 8e 6d bd 6c 42 cc bd
       -0.21413639 -0.10543382 -0.057996765 -0.099736065
000330 ff fe 73 3c b2 e4 8a 3d 68 e5 b0 3c ff 9f 94 bd
       0.014892339 0.067819014 0.021593764 -0.07257079
000340 47 2f b2 3d fd f2 b6 3b 08 ad 63 be d8 a0 03 3e
       0.08700424 0.0055831657 -0.22233975 0.12854326
000350 cf 7c 16 be 7d 3e 0d be 4a 56 31 be 98 db 1d 3e
       -0.14696048 -0.13793369 -0.17318073 0.154158
000360 d0 ed 20 3e 60 41 74 be 86 2e b9 3d 70 5e 8a 3d
       0.15715718 -0.23853064 0.09042077 0.06756294
000370 54 d2 94 bd 65 f0 06 3e af 5c 28 3e 68 18 83 bc
       -0.072666794 0.1317764 0.16441606 -0.016002849
000380 ff 9d bd be ce 3f 07 be 98 d2 3d bc 80 52 ce 3d
       -0.37034604 -0.13207933 -0.011585854 0.100743294
000390 8c 6d e2 bd db 1b 5c be 6a 4d 5b be cc df 97 3d
       -0.11056051 -0.21495001 -0.2141625 0.07415733
0003a0 96 d6 90 bd d0 5e 6f 3d 7d 1e 60 bd e6 12 5a be
       -0.07072179 0.05844003 -0.054716576 -0.21296272
0003b0 07 0e 86 be 6b d6 11 3c 44 2a ec 3d 5f d4 a4 bd
       -0.26182577 0.008901219 0.11531499 -0.08048319
0003c0 79 01 bf bd 60 bc 02 3e c6 fc 17 be c9 f5 a7 be
       -0.09326453 0.12767172 -0.14842519 -0.32804707
0003d0 20 d3 ba 3c f3 3d c7 be 39 0d f5 bd 16 bf 55 3e
       0.02280575 -0.3891445 -0.11965413 0.20873675
0003e0 e5 b3 e4 bd c1 ff cc bd 43 76 0f be 84 07 cd bd
       -0.11167125 -0.10009719 -0.14009957 -0.10011199
0003f0 42 b1 f1 bd 0c ad fd bd 76 ca 0e 3e 28 a6 46 be
       -0.11801387 -0.12386522 0.1394442 -0.19399321

model_9/bidirectional_6/forward_lstm_9/Read_2/ReadVariableOp1 f4 [84]
000000 e8 e7 b7 bd 63 d5 d8 bd e1 0b 0a be c2 f9 34 be
       -0.089797795 -0.10587575 -0.13481094 -0.176734
000010 03 75 7a be 9c ad d4 bd 05 d6 16 be 1c d9 dc bd
       -0.24458699 -0.10384676 -0.1473008 -0.10783598
000020 bd 91 bd bd 99 70 12 be 4f fe 07 be b4 03 bf bd
       -0.09256313 -0.14300765 -0.13280605 -0.09326878
000030 ac 24 21 be a1 56 fc bd d6 27 52 be f9 87 24 be
       -0.15736645 -0.12321211 -0.20523009 -0.16067494
000040 37 2b 23 be b5 68 ce bd e1 53 c3 bd 5c 01 b6 bd
       -0.15934454 -0.10078565 -0.09537483 -0.08886978
000050 55 d2 cd bd a5 61 6b 3f 11 04 62 3f 83 e4 65 3f
       -0.10049883 0.9194587 0.88287455 0.89801806
000060 ac 3b 70 3f fe d6 61 3f 16 7e 6c 3f 21 68 6a 3f
       0.9384105 0.8821868 0.9237989 0.9156514
000070 b7 64 70 3f a5 b1 70 3f 34 a7 67 3f d0 7b 6a 3f
       0.9390368 0.94021064 0.90489507 0.9159517
000080 fe e6 6a 3f eb 95 63 3f 09 69 6c 3f 7b 4e 5f 3f
       0.91758716 0.8890063 0.9234777 0.87229127
000090 7c f5 60 3f 25 6c 68 3f e6 8a 68 3f 6e a7 6c 3f
       0.8787458 0.90790015 0.9083694 0.9244298
0000a0 74 7d 6d 3f 3c 51 72 3f c1 f3 f8 bb 34 07 9a bc
       0.9276955 0.94655204 -0.007597417 -0.018802263
0000b0 da 9d 3b bc f0 7c e7 3c 79 82 ad 3c 31 4e 57 3c
       -0.011451209 0.028257817 0.021180378 0.013141201
0000c0 c3 c3 ac ba d0 ca 4c 3c cc cc 11 bc 5c 32 91 3a
       -0.00131809 0.012499526 -0.008898925 0.001107763
0000d0 81 ab 56 3c 9e fc 0f bc 0b f6 b2 3b 32 b6 2d bc
       0.013102413 -0.008788256 0.0054614595 -0.010602521
0000e0 0f 92 0a 3a a8 20 21 bb 5a 52 82 3c c2 f2 14 3c
       0.00052860467 -0.0024586115 0.015908409 0.009091081
0000f0 1f 01 5d 3b 97 3d 73 3c 97 57 8e bb 9d d6 ba bd
       0.0033722592 0.014846227 -0.0043439376 -0.091229655
000100 73 d2 d2 bd 40 55 fa bd 87 d7 1e be fc d7 69 be
       -0.10294046 -0.122232914 -0.15511905 -0.22836298
000110 58 19 d8 bd 17 ff 0e be 6e 8e d5 bd 91 1f 9d bd
       -0.10551709 -0.13964497 -0.10427557 -0.076720364
000120 d3 2b 06 be e7 d3 ec bd 0c f0 b2 bd 46 50 01 be
       -0.13102655 -0.11563855 -0.087371916 -0.12628278
000130 49 27 d1 bd 24 ce 4c be f1 31 21 be 3b 36 11 be
       -0.10212571 -0.20000511 -0.15741707 -0.14180844
000140 65 6f ad bd ef 5b c9 bd 71 c5 97 bd 46 ce 9b bd
       -0.084685124 -0.09831988 -0.07410706 -0.07607703

while/MatMul_14 f4 [84, 21]
000000 a7 4b 87 ba 61 4d 91 3c 08 a4 78 3e 1c 9e 2a 3d
       -0.0010322229 0.017737092 0.24281323 0.04165469
000010 16 dd e1 3d a1 b9 88 be a5 29 9e 3b 5e 29 1f be
       0.11028497 -0.26704124 0.0048267418 -0.15543124
000020 45 bb a7 bd 0f 3e 41 3e ae 8c 67 bd f7 aa 24 3e
       -0.08190016 0.1887133 -0.056530647 0.16080843
000030 69 fc e0 bd b2 36 8c bd 89 bd 8e 3e f4 af 55 3c
       -0.109856434 -0.0684637 0.2787898 0.013042439
000040 5c dd 84 bd c2 d4 1d bc d6 45 bf bc f3 04 a1 be
       -0.064875335 -0.009633245 -0.02334873 -0.31449088
000050 39 b4 63 bd c3 ca 31 3e c3 01 45 3e 85 52 07 3c
       -0.055591796 0.17362504 0.19238953 0.00825942
000060 70 b7 89 3d 0c 15 7b 3d 9e 17 00 be 3e 9f 96 3e
       0.06724441 0.06129937 -0.12509009 0.29418367
000070 c9 dc c9 bd db a1 08 3d e2 ec 77 3c 2d 98 5d ba
       -0.098565646 0.033357482 0.015132161 -0.0008453157
000080 52 65 c8 bd 27 d5 7d be cc 7f f8 3c 8d d1 7b 3d
       -0.0978495 -0.24788342 0.030334376 0.06147914
000090 5a b6 8c be b0 4d 72 3c 10 5a 27 be e5 2f 62 be
       -0.27482873 0.01478903 -0.1634295 -0.22088583
0000a0 d2 5c 08 be 55 41 2b be 79 b7 81 3e f7 52 bd 3d
       -0.13316658 -0.16724141 0.2533529 0.0924434
0000b0 4d 07 58 3c 42 4e 4b 3e 66 bd 07 3c bf 6e d3 bc
       0.013185334 0.19854072 0.008284902 -0.025809644
0000c0 33 e5 21 3e db ab 56 bd 66 d3 68 3e 86 2b 0b 3e
       0.15810089 -0.052409988 0.22736892 0.13590822
0000d0 82 bf 36 3e db 6c c2 3d 73 56 e7 bd 55 2f 35 bd
       0.17846492 0.09493419 -0.11295786 -0.044234592
0000e0 c4 34 1c 3e 11 d1 03 be d3 56 0e bc bc 0c d1 3b
       0.15254503 -0.12872721 -0.008687693 0.006379692
0000f0 81 e9 f1 bd 22 7b 04 3e 9b 2a 0e bd 7f 5c f5 3c
       -0.118121155 0.12937596 -0.0347086 0.029951332
000100 f4 61 d5 3d 3b df b3 3d e3 87 3f 3e 62 fe 9c 3e
       0.10419074 0.08782812 0.1870418 0.3066283
000110 c7 3b 7e bb b0 ab 2a be db ef 0d be 49 81 b9 3d
       -0.0038792954 -0.16667056 -0.13861029 0.09057862
000120 37 45 b2 3e de a3 14 be 32 86 96 bd 6b 2a 04 3d
       0.34818432 -0.14515635 -0.073498145 0.032267015
000130 85 81 be bb 3e 7a 3a 3e 22 20 9a be 55 93 91 bc
       -0.00581378 0.18210694 -0.3010264 -0.017770449
000140 b2 6b 95 bd b7 44 85 be 41 5b 00 3e d2 a4 eb 3c
       -0.07295932 -0.26028988 0.1253481 0.028765116
000150 65 2a 13 bd f5 2d 59 3e 53 76 d3 bd 57 53 23 be
       -0.035929102 0.21208937 -0.10325303 -0.1594976
000160 17 95 82 bc 65 34 95 3d a4 ee 98 bd 82 a2 a6 be
       -0.015940232 0.07285384 -0.07467392 -0.3254586
000170 ed 5a f4 3d e3 68 ff bd 6d 6a 2e 3c c3 1e 28 3d
       0.11931405 -0.124711774 0.010645491 0.04104496
000180 7c e7 8c bd 0b ea 5d 3b fa 85 66 bd 7d aa 38 be
       -0.0688009 0.0033861424 -0.056280114 -0.18033786
000190 ec 80 46 bd 83 82 83 bd f0 80 a5 3a c5 2e 12 be
       -0.048462793 -0.064213775 0.0012626927 -0.14275654
0001a0 73 81 1a 3d 5e bf 36 3e 1c c7 b6 3d 56 22 b6 bd
       0.03772111 0.17846438 0.08924696 -0.08893268
0001b0 6a 58 35 3e 92 a2 66 3e 4f e3 37 bd 31 32 28 3d
       0.17709509 0.22522953 -0.044894513 0.04106349
0001c0 67 d0 c8 be f6 c6 f8 3b 44 ac 85 bd 5c 71 46 be
       -0.39221498 0.0075920774 -0.06526998 -0.1937918
0001d0 f8 a1 3b bd ed 3f 9a 3d 67 bc f2 3c 19 3a 18 3e
       -0.045808762 0.07531724 0.029630853 0.14865912
0001e0 fb b4 d9 bd 7c 29 84 be b4 4f 0e b9 77 dc b8 3d
       -0.106302224 -0.258129 -0.00013571867 0.09026425
0001f0 13 aa 2e 3e 71 0b da 3c ed d6 c5 3d ef 0d 92 3d
       0.17057066 0.026616784 0.096601345 0.07131564
000200 33 c0 30 3e 71 b7 2e 3e 29 a4 67 3d 77 e0 30 ba
       0.17260818 0.17062165 0.05655304 -0.0006747315
000210 d8 21 9c 3e 25 b7 a5 be 02 49 b6 3d fa 8e 2e 3e
       0.3049457 -0.3236629 0.08900644 0.17046729
000220 8d f3 71 bd c7 48 2a 3e fc 83 f7 3d 59 3e e3 3d
       -0.05907016 0.16629325 0.12085721 0.11095876
000230 90 b1 7a bd 03 da b0 3c b7 7c ff 3a 4e e1 38 3d
       -0.061204493 0.021588331 0.0019492124 0.045136742
000240 d1 b5 12 3e 85 fe 47 be b4 b0 68 3c 9e 8c df 3d
       0.1432717 -0.19530685 0.014202286 0.109154925
000250 dc 15 1c 3e 7e 55 a9 3e 12 46 0f 3e 8a 89 9d bd
       0.15242714 0.33073038 0.13991573 -0.07692249
000260 80 2d 17 bd e5 c2 15 3e 8f 1a 95 be 1d d0 af 3b
       -0.036908627 0.14625128 -0.29121825 0.005365385
000270 4f 8e 5e 3e 34 53 51 3d 66 de cf 3d fb 16 a2 bc
       0.21733974 0.05110474 0.10149841 -0.019786349
000280 38 ce 75 bd b7 9d 27 bd 7a 30 2a be 76 b2 f0 3b
       -0.06001112 -0.040921893 -0.16620055 0.007345493
000290 b4 d3 14 3e 51 e8 b7 bd c1 e3 aa bd 24 71 ef 3d
       0.14533883 -0.08979858 -0.08344222 0.11691502
0002a0 d7 f6 2d 3d f8 2b 5b 3e 62 9e 3d bc c2 03 d5 3c
       0.042471733 0.21403491 -0.011573406 0.026002768
0002b0 61 f1 a5 3a 61 6b 2b be 99 10 50 3c 30 61 c6 3b
       0.0012660437 -0.1674018 0.01269927 0.006054066
0002c0 5c 05 d7 bd b1 47 f4 3d 65 20 44 bd 49 ba 00 3e
       -0.10499069 0.119277366 -0.047882456 0.12571062
0002d0 7b e4 9f bd 71 8e 10 3e c9 f2 e7 bd cf 83 0b be
       -0.07807251 0.14116837 -0.113256045 -0.136245
0002e0 4e 70 80 3d c0 e2 41 3e e6 d4 09 3e 1b dd dd 3b
       0.062714204 0.18934155 0.1346012 0.0067707426
0002f0 67 7d f6 bc 92 0a 37 3e 24 2c f2 bd f8 7e 14 3e
       -0.030089093 0.17875126 -0.118248254 0.1450156
000300 db 7c 6f bd a2 62 e2 3d a0 18 92 be 96 41 d8 3d
       -0.05846868 0.11053969 -0.28534412 0.105593845
000310 45 e9 bc be 08 a0 34 3d 56 90 34 3d 07 95 8f bd
       -0.3689672 0.04409793 0.044082962 -0.070108466
000320 d6 3e 05 bd ff 19 8a bd 2f 71 e9 bc 1e 0b ae 3d
       -0.03253063 -0.067432396 -0.028496353 0.08498214
000330 e2 4f eb bd 98 9b 03 3e a8 73 fb bd 9c 64 b8 3d
       -0.11489846 0.12852323 -0.12277919 0.09003565
000340 aa ff 47 be 78 66 ac bd 5a 8d a6 3e 2f 8c b2 3d
       -0.19531122 -0.08417982 0.32529718 0.08718144
000350 50 32 93 bc 08 72 1b 3e 3d b1 db 3d ed a6 4b be
       -0.017968327 0.15180218 0.10727165 -0.19887896
000360 8b af 81 bd 14 47 c3 3c a8 c3 80 3d 93 eb 13 bc
       -0.0633231 0.023837604 0.062873185 -0.009028333
000370 29 ed 0d be 48 77 72 3e 14 e3 86 3d a9 18 0b 3d
       -0.1386 0.23678315 0.065862805 0.033959065
000380 0c fb 50 3d 1e ca 74 bc 84 87 10 3e 05 72 16 be
       0.051020667 -0.014940767 0.14114195 -0.14691932
000390 9c b5 53 3b 32 0c 8a be 47 53 b2 3c f0 5e 1d 3e
       0.0032304293 -0.2696243 0.021768225 0.15368247
0003a0 19 dc 20 3e 16 49 c3 3c f4 e6 04 b8 93 41 39 3d
       0.1570896 0.023838561 -3.1686344e-05 0.045228552
0003b0 68 81 97 bd e0 ba 96 bd 0f 2d 37 bc 47 07 ab 3d
       -0.07397729 -0.07359862 -0.011180176 0.083509974
0003c0 6c f2 cc 3d f3 08 a9 3c e9 9f cc bd e3 6f db bd
       0.10007176 0.02063415 -0.09991438 -0.107147
0003d0 4e 1d 23 be 3f e5 b9 bd 2c bd 24 be 9d 12 b8 bd
       -0.15929148 -0.09076928 -0.16087788 -0.08987925
0003e0 55 c7 a2 bd d3 68 91 3d 6e 4c 7a be 7e 2f a5 3d
       -0.07948176 0.07100072 -0.24443218 0.08065699
0003f0 ae ad 8f 3d 43 13 0f 3e 41 a9 23 3e 07 99 a6 3c
       0.07015549 0.13972192 0.15982534 0.020336641

while/MatMul2 f4 [84, 32]
000000 42 f3 96 be 83 9f e1 bd c3 2a 15 3e 61 ad 11 be
       -0.29482466 -0.110167526 0.14567094 -0.14226295
000010 59 5b 71 bd 60 18 46 bc 5f f8 a5 3d 4d 26 b2 bd
       -0.058925007 -0.012090772 0.08104014 -0.086987115
000020 d0 02 4d 3d f0 be 17 3d d4 46 bc 3c 82 38 8e 3d
       0.05005151 0.037047327 0.022982992 0.06944372
000030 dc f3 2a be 28 ba 32 bd b6 c8 40 3e c6 98 cc 3d
       -0.16694587 -0.043634564 0.18826565 0.09990077
000040 97 71 75 3d 8a 20 10 3e 34 00 98 bd 9b b5 13 be
       0.05992278 0.14074913 -0.07421914 -0.14424746
000050 80 d1 f0 3a 0b a9 09 3e 3f 11 a9 bd 28 06 3f bd
       0.0018372983 0.13443391 -0.082552426 -0.04663673
000060 fa 1c 1a be e5 4c 5d be 95 93 56 be 34 26 cb 3d
       -0.15050116 -0.21611364 -0.20954736 0.09919396
000070 dc 63 95 3d 89 37 da bd 1b d8 9a be b0 e4 a1 bc
       0.07294437 -0.10655124 -0.30243 -0.019762367
000080 ac 92 a3 bd de db 09 be 6a 84 38 3e 1c 0f 4a bd
       -0.0798696 -0.13462779 0.18019262 -0.049330816
000090 75 70 df 3d 42 b3 60 be 11 7d c0 bd 78 4f da 3d
       0.10910121 -0.21943381 -0.093988545 0.10659689
0000a0 5c 20 96 3d 82 9b 3f be 16 7a ce bd 84 4b d4 bd
       0.07330391 -0.18711665 -0.1008188 -0.10365966
0000b0 3f 2e 29 bd 69 b0 cd 3d ca 5b 4f be 3d 6c 33 bd
       -0.04130387 0.10043413 -0.20249858 -0.043804396
0000c0 ee 31 e6 bd 80 93 2b 3e 55 e1 79 be 44 42 57 be
       -0.11239992 0.16755486 -0.24402364 -0.21021372
0000d0 20 78 31 3e 46 67 e3 3c 38 d5 c2 3d d5 5f 39 3d
       0.1733098 0.027759206 0.095133245 0.04525741
0000e0 d8 ab b6 3d 3c ad 99 be ac 29 26 bd 3f 76 93 be
       0.08919495 -0.3001498 -0.040567085 -0.28801152
0000f0 22 80 4d 3c 99 e6 a2 be 7d b8 07 bf 24 c4 87 3d
       0.012542756 -0.31816557 -0.5301588 0.06629208
000100 94 35 81 be 9a 32 1e be 2b 46 c0 be c2 bf 4b be
       -0.2523619 -0.1544899 -0.37553534 -0.19897369
000110 5f 1c 95 be 98 94 69 be f2 2b 55 be 94 cb 6c bd
       -0.29123208 -0.2281059 -0.20817545 -0.057811335
000120 58 ac a6 bd 50 2c be 3c 5d 22 ff bb cc f8 01 3e
       -0.08138341 0.02321449 -0.007786079 0.12692565
000130 67 57 96 be 61 b8 3f bd 20 8d e9 3d af 92 41 3d
       -0.29363558 -0.046806697 0.114038706 0.04725903
000140 00 91 c9 bd f8 4b 82 bd fc 1d 48 3e 0c 33 10 bf
       -0.0984211 -0.06362146 0.19542688 -0.5632789
000150 30 be f5 3c e7 31 91 be 5c 38 51 be af 57 9a bd
       0.029997915 -0.28358385 -0.20431656 -0.075362556
000160 41 ec 5a be cf 22 0e bf f8 9a e2 3d 38 9b 66 be
       -0.21379186 -0.55521864 0.11064714 -0.22520149
000170 e3 49 5d be 8e b6 01 be a6 9b 74 be e0 62 d3 3d
       -0.21610217 -0.12667295 -0.238875 0.10321593
000180 7b e4 80 be 07 16 d6 bc c0 71 9d be ec 1d 27 bd
       -0.25174317 -0.02613355 -0.30750847 -0.04080002
000190 36 96 ab be 96 d4 ec 3d c1 92 98 3d 7f d4 5e 3e
       -0.3351304 0.11563985 0.07449866 0.21760748
0001a0 d8 02 76 bd 32 6f 62 be 4e e3 37 be be 65 a3 bd
       -0.060061306 -0.2211273 -0.17957804 -0.0797839
0001b0 4e 9a c2 bd b7 03 17 bc 18 fa 0c 3d 3e ca c9 be
       -0.095020875 -0.009217194 0.034418195 -0.3941211
0001c0 01 c7 51 be 1d 02 dc bd bb dc d2 bc 3d 35 3f bf
       -0.2048607 -0.107425906 -0.025740018 -0.7469061
0001d0 3d a7 4f be 69 c6 8c be a6 fd 50 be f4 ad 47 3e
       -0.2027864 -0.27495125 -0.20409259 0.19499952
0001e0 26 3a 66 be 64 62 39 bf be a5 cf 3c 40 38 b1 be
       -0.2248312 -0.7241576 0.025347587 -0.34613228
0001f0 df 90 15 bd f0 69 12 3d 07 e4 49 bf ee f8 4f 3e
       -0.036515113 0.03574556 -0.7886357 0.20309803
000200 b0 a3 59 be db a1 6b be db fd a2 3d 39 74 49 be
       -0.21253848 -0.23010962 0.07958575 -0.19673242
000210 5a f4 f6 3c 61 e9 13 3e 1c 5a c2 3d e2 ad 1c be
       0.030145813 0.14444496 0.09489843 -0.15300706
000220 88 f9 af 3d ba 3d 1c be 6e d8 57 bc 43 f1 db 3d
       0.08592516 -0.15257922 -0.013174159 0.107393764
000230 4a 31 68 3d d0 36 a6 bd 6a b2 21 be b6 97 8c 3d
       0.05668763 -0.081159234 -0.15790716 0.06864874
000240 b3 50 0d bc 40 a0 38 3e 31 1a 14 3e 91 f2 74 be
       -0.008625197 0.1802988 0.14463116 -0.23920657
000250 f2 0e cb bd a5 e2 c6 bd ce 5a 3f be 91 85 fa bd
       -0.0991496 -0.09711198 -0.18686983 -0.12232507
000260 10 40 2c 3d 45 b9 6a be c3 d5 4a be 00 c7 2f be
       0.042053282 -0.22922237 -0.19808106 -0.17165756
000270 8e aa 4a be 2c 7d 7b be 6f 00 0a 3e 3e 73 20 3e
       -0.19791624 -0.24559468 0.13476728 0.15668961
000280 7e 06 9b be 6b d9 0f 3e fb f8 3f be 68 0b 65 3d
       -0.3027839 0.14047782 -0.18747322 0.05591908
000290 bc 9a 02 bc bc 4f 1e 3e 56 13 13 be e4 af 6f be
       -0.007971462 0.15460104 -0.14362845 -0.2340694
0002a0 2a d0 21 3e 1c 1b 49 3e 09 cf e6 3c 59 98 b1 3c
       0.15802065 0.19639248 0.028174894 0.02167909
0002b0 26 90 71 bd f7 18 c6 bd e0 20 13 bd b8 42 8a bd
       -0.05897536 -0.096727304 -0.035920024 -0.06751007
0002c0 dd d7 51 bd c1 3f 04 3e f3 84 1e be 0d 2f 63 bd
       -0.051231254 0.12914945 -0.15480404 -0.055464793
0002d0 30 e1 b4 3c 4b 49 11 be ef bc b7 3d 82 d7 01 3e
       0.022080034 -0.14188115 0.08971583 0.12679866
0002e0 e8 57 9d 3d 17 7e 34 be 32 da 1e bd 36 03 10 3e
       0.076827824 -0.17626224 -0.038782306 0.14063725
0002f0 f7 3b ef bd 07 49 62 bc f1 f2 15 bd 80 98 96 3b
       -0.11681359 -0.013811356 -0.03660864 0.004595816
000300 0a b0 a0 be 18 7e 07 bd c1 84 38 be 9c 86 f2 3d
       -0.31384307 -0.033079237 -0.18019392 0.11842081
000310 2c e5 df bc 0c e8 78 3d 26 85 51 be 20 b8 3f bc
       -0.027330957 0.060768172 -0.20460948 -0.011701614
000320 d4 e6 c4 3d fc 27 31 3e 64 e6 02 3e e2 bc 3a be
       0.096143395 0.17300409 0.127832 -0.18236116
000330 19 f4 79 3d c6 76 3c be 44 fc 0c 3e 1f bd 07 be
       0.061023805 -0.18404683 0.13768107 -0.13255738
000340 c2 53 2b ba 7f 48 44 be df 40 61 be de 0c 54 3e
       -0.0006535613 -0.1916828 -0.21997403 0.20708033
000350 86 5a 84 bd fe d4 31 be 6d bf f4 3d ea 23 7f bd
       -0.064625785 -0.17366406 0.11950574 -0.06229011
000360 32 be 5b 3e e9 b7 43 be fd 1f 92 3d 81 60 66 bd
       0.21459273 -0.19113125 0.071350075 -0.056244377
000370 f1 3b db 3d 8a 32 77 3d d2 49 b3 3c 30 14 3c be
       0.10704792 0.060350932 0.021885786 -0.18367076
000380 9d 68 10 be 80 6f 92 3d a6 b5 0e be 60 57 2c 3d
       -0.14102407 0.07150173 -0.13936481 0.042075515
000390 42 27 5a 3b a1 3e 81 be 79 18 7c be 96 d3 fe 3d
       0.003328756 -0.25243095 -0.2461871 0.124427006
0003a0 a0 76 59 3e b8 0d 0d 3e 1a d5 1d 3e 52 29 33 be
       0.21236658 0.13774765 0.15413323 -0.17496231
0003b0 54 db d6 bd 98 3d 81 bc 90 62 4b 3d 0e 24 7b be
       -0.10491052 -0.01577644 0.049654543 -0.24525473
0003c0 6c ef 94 bd 13 fa 41 3d 15 da 3f 3e 0e 57 95 be
       -0.072722286 0.04735763 0.18735535 -0.2916798
0003d0 28 bf 8f 3d e1 23 03 be ce c0 05 be ae 07 4b 3e
       0.07018882 -0.12806655 -0.1306183 0.19827148
0003e0 04 d2 98 3d 11 ff 43 be 1b a4 0f be af 1e 0e bd
       0.07461932 -0.19140269 -0.14027445 -0.03469723
0003f0 f6 1d 8d be 12 28 1b be 8e 92 34 be 90 f5 e1 3c
       -0.2756192 -0.15152004 -0.17634031 0.027582914
