student_tflite_models/student_model_quant.tflite (tflite, 67664 bytes, 12 tensors)

model_3/conv1d_3/BiasAdd/ReadVariableOp f4 [32]
0	0xbb7c9206	-0.0038539185
1	0x3e695cb4	0.2278927
2	0xbe06709a	-0.13128892
3	0xbb86a081	-0.004108489
4	0xbabb0283	-0.0014267716
5	0xbe079202	-0.13239291
6	0x00000000	0.0
7	0xbd084e1a	-0.03327761
8	0xbb217dab	-0.0024641554
9	0xbe0037da	-0.12521306
10	0xbdb92632	-0.09040488
11	0xbb89b5e8	-0.004202593
12	0xbe39c942	-0.1814318
13	0xbdd469d7	-0.1037175
14	0xb9d16f5a	-0.0003994655
15	0xbdb5f8b2	-0.088853255
16	0x3e84ba71	0.25923494
17	0x3e46ea71	0.1942537
18	0x00000000	0.0
19	0xbdaf43cd	-0.08557854
20	0xbbbd2d82	-0.005773247
21	0xbe317eed	-0.17333575
22	0xbe520e31	-0.20513226
23	0x00000000	0.0
24	0xbb317db8	-0.002708299
25	0x00000000	0.0
26	0x00000000	0.0
27	0xbe686dbf	-0.22698115
28	0xbe319c8d	-0.17344876
29	0xbda774c7	-0.081765704
30	0x00000000	0.0
31	0x00000000	0.0

model_3/conv1d_3/Conv1D f4 [32, 1, 1, 4]
0	0x3dae5dc4	0.08513978
1	0xbda1a2b6	-0.07892363
2	0xbe83181c	-0.25604331
3	0x3e426ad2	0.18986061
4	0xbe6193ab	-0.22028987
5	0x3e2c612e	0.16833946
6	0xbdae6de7	-0.08517056
7	0xbf06e111	-0.52687174
8	0x3e939a66	0.28828734
9	0xbebe1081	-0.37121966
10	0x3eba8a37	0.36433575
11	0xbd810ee0	-0.06301665
12	0x3e9e935f	0.3097181
13	0xbebad73d	-0.3649234
14	0xbe7ac564	-0.24489361
15	0xbc815e86	-0.015792143
16	0xbd95c24e	-0.07312451
17	0xbeacb058	-0.3372829
18	0xbdd71608	-0.10502249
19	0x3e3dd5e5	0.18538626
20	0x3e991e54	0.2990595
21	0xbdcdb181	-0.10043622
22	0xbe916803	-0.28399667
23	0x3eacdc35	0.33761755
24	0x3e8b5714	0.27214873
25	0xbe82fd53	-0.25583896
26	0xbe87541e	-0.26431364
27	0xbeb85ec9	-0.36009815
28	0xbde81795	-0.11332623
29	0xbdd4a4a3	-0.103829645
30	0x3e59f483	0.2128468
31	0x3d171ec9	0.036894593
32	0x3e18af5c	0.14910644
33	0xbd075f8c	-0.033050105
34	0xbd25e83f	-0.04050469
35	0xbde10935	-0.10988084
36	0x3cce5d60	0.025191009
37	0x3e9cb15d	0.30604067
38	0x3e01e2e8	0.12684214
39	0xbe0ca797	-0.13735805
40	0xbe36132d	-0.17780752
41	0x3e92d823	0.28680524
42	0x3e67abfd	0.22624202
43	0xbdfc6178	-0.12323278
44	0xbe816f45	-0.25280204
45	0xbda4b7f9	-0.080429025
46	0xbe84b1a1	-0.2591677
47	0x3ec06382	0.37575918
48	0x3e5f0482	0.21779063
49	0xbe29b46c	-0.16572732
50	0x3ea883c1	0.3291302
51	0xbe20835d	-0.15675111
52	0xbe6d483d	-0.23172088
53	0x3e7cb619	0.2467884
54	0xbd5a6c1e	-0.053325765
55	0x3e56da89	0.20981802
56	0xbd0679f6	-0.032831155
57	0xbe406aa6	-0.18790683
58	0xbd58deec	-0.05294697
59	0x3e7dec9c	0.2479729
60	0xbe7ad61c	-0.24495739
61	0xbe63da7f	-0.22251318
62	0x3ea0a4f0	0.31375837
63	0x3ebd4a60	0.36970806
64	0xbebbdd59	-0.36692312
65	0xbe90d891	-0.28290227
66	0xbd5357fa	-0.051597573
67	0xbf1c1365	-0.60967094
68	0x3ba91864	0.0051603783
69	0xbe9e5364	-0.30922997
70	0xbdd0d115	-0.10196129
71	0xbd9b0104	-0.07568553
72	0x3d5d1bb8	0.053981513
73	0x3de33ba8	0.11095363
74	0xbebe878e	-0.37212795
75	0xbdec2230	-0.11529958
76	0xbe4160aa	-0.1888453
77	0xbd88f6de	-0.06687711
78	0x3eb44721	0.35210517
79	0x3e03ae78	0.12859523
80	0x3e53b24e	0.20673487
81	0xbe77f4a8	-0.24214423
82	0x3e05c8ba	0.13064852
83	0xbe2b41d2	-0.16724327
84	0x3d11744d	0.035511304
85	0x3d137d03	0.036007892
86	0x3e7228b6	0.23648342
87	0x38db16ad	0.000104469575
88	0x3b8fa972	0.004384213
89	0x3e399214	0.1812213
90	0x3e2ac4ff	0.1667671
91	0xbd2319e2	-0.039819606
92	0xbe1d8846	-0.15384015
93	0xbd98e79c	-0.07466051
94	0xbe999cbc	-0.3000239
95	0xbe2ed94a	-0.17075077
96	0x3e64bba0	0.22337198
97	0xbe1ca6a8	-0.1529795
98	0xbd64a167	-0.055817988
99	0xbe0d5a9e	-0.13804099
100	0x3d4bd738	0.049765795
101	0x3d8620b0	0.065492034
102	0xbdd65a64	-0.104664594
103	0xbeb9a93a	-0.36261922
104	0x3e548c54	0.20756656
105	0xbe97c739	-0.29644182
106	0xbcfc59a0	-0.030804455
107	0xbe3c9730	-0.18417048
108	0xb9308628	-0.00016834645
109	0x3ddd6fda	0.108123496
110	0x3e4cd818	0.20004308
111	0x3aecf31c	0.0018077823
112	0x3e7eadaf	0.24870943
113	0xbe7e76a9	-0.24849953
114	0x3ddd0601	0.10792161
115	0x3e742e83	0.23845868
116	0xbed36ad7	-0.4129245
117	0x3eb147d9	0.34625128
118	0x3e8fee4c	0.28111494
119	0xbd1b784e	-0.03795653
120	0x3e12da30	0.14341044
121	0x3d24a808	0.04019931
122	0xbe9c6c6a	-0.30551463
123	0xbebc7b43	-0.3681279
124	0x3e13a94c	0.1442005
125	0xbea17dc6	-0.3154127
126	0xbb533980	-0.0032230318
127	0xbd80cc6c	-0.062889904

model_3/dense_5/BiasAdd/ReadVariableOp f4 [4]
0	0x3efa7b0e	0.48922008
1	0x3ef9c695	0.4878432
2	0x3efa7a94	0.48921645
3	0x3efa78d8	0.4892032

model_3/bidirectional_3/forward_lstm_3/Read_2/ReadVariableOp f4 [84]
0	0xbe237152	-0.15961197
1	0xbe8c7f99	-0.274411
2	0xbe633b37	-0.22190557
3	0xbe6da4b0	-0.23207355
4	0xbe38a61d	-0.18032117
5	0xbe4fa1a7	-0.20276509
6	0xbe714a50	-0.23563504
7	0xbead3443	-0.33828935
8	0xbe0f0666	-0.13967285
9	0xbe8c0021	-0.27343848
10	0xbe80f2d8	-0.25185275
11	0xbe81d6fc	-0.25359333
12	0xbe841717	-0.25798866
13	0xbe0bbce5	-0.13646276
14	0xbe65ad13	-0.22429304
15	0xbe95265a	-0.29130822
16	0xbe8aa462	-0.2707854
17	0xbecd0816	-0.40045232
18	0xbe5ed6e7	-0.21761666
19	0xbe63084b	-0.22171132
20	0xbe5982d5	-0.21241315
21	0x3f61f028	0.88257074
22	0x3f596962	0.84926426
23	0x3f619707	0.88121074
24	0x3f52be4a	0.8232161
25	0x3f6a3cbd	0.9149893
26	0x3f5f9798	0.8734069
27	0x3f59c6e4	0.8506911
28	0x3f3d7698	0.74009085
29	0x3f64dca0	0.8939915
30	0x3f542c66	0.82880247
31	0x3f5ccab2	0.8624679
32	0x3f5e7790	0.8690119
33	0x3f5b45a6	0.8565315
34	0x3f652dc8	0.8952298
35	0x3f51d464	0.8196471
36	0x3f3f7e41	0.74802023
37	0x3f5eace5	0.86982566
38	0x3f4701d6	0.77737176
39	0x3f5e7197	0.86892074
40	0x3f5a09c0	0.8517113
41	0x3f5e534f	0.8684587
42	0x3bd58b25	0.0065168315
43	0x3bf3a726	0.007435697
44	0x3a7abeb7	0.0009565162
45	0x3c02bff0	0.007980332
46	0x3a9432e1	0.0011306667
47	0xbc06cb80	-0.008227229
48	0x3b8f79ff	0.0043785567
49	0xbb5b9ad8	-0.0033509042
50	0x3b00e7dd	0.0019669451
51	0xbadb60b6	-0.0016737196
52	0xbb1ab05e	-0.0023603658
53	0xbb4b2d02	-0.0031002169
54	0x3b9df01e	0.004819884
55	0xbaaae276	-0.0013037461
56	0x3b9af237	0.0047285813
57	0xbb252b35	-0.0025202755
58	0xbaf31b0a	-0.0018547487
59	0xbb9f98a6	-0.004870492
60	0x3b02d26e	0.0019961852
61	0xbb318bd3	-0.0027091398
62	0x39e0ddc7	0.00042889846
63	0xbe1828b9	-0.14859284
64	0xbe6ed4f4	-0.23323423
65	0xbe599c23	-0.21250968
66	0xbe666ea2	-0.2250314
67	0xbe0831f9	-0.13300313
68	0xbe329145	-0.17438228
69	0xbe381c63	-0.17979579
70	0xbeb1d912	-0.34735924
71	0xbe15f786	-0.14645204
72	0xbe4a1559	-0.19734706
73	0xbe857a00	-0.2606964
74	0xbe4160bf	-0.18884562
75	0xbe5f592a	-0.21811357
76	0xbe13fffc	-0.14453119
77	0xbe5392b1	-0.20661427
78	0xbe810d29	-0.25205353
79	0xbe79ed91	-0.2440703
80	0xbec5cebc	-0.38634288
81	0xbe7c6df3	-0.24651317
82	0xbe59c87d	-0.21267886
83	0xbe4bca88	-0.19901478

model_3/bidirectional_3/backward_lstm_3/Read_2/ReadVariableOp f4 [84]
0	0xbe7caf1c	-0.24676174
1	0xbe81fa72	-0.25386387
2	0xbe8369a8	-0.25666547
3	0xbe255a67	-0.16147767
4	0xbe5827a0	-0.21108866
5	0xbe6aa7c5	-0.22915561
6	0xbdc9d533	-0.09855118
7	0xbdcf498d	-0.101214506
8	0xbdd6c7de	-0.104873404
9	0xbe63a701	-0.22231676
10	0xbe6ca9ad	-0.23111601
11	0xbe2ea042	-0.17053321
12	0xbe4e79f5	-0.2016371
13	0xbe47957c	-0.19490618
14	0xbe3dda5f	-0.18540333
15	0xbe1928bf	-0.1495695
16	0xbe7e2214	-0.24817687
17	0xbdcde29a	-0.100529864
18	0xbe1461c6	-0.14490423
19	0xbd9b1f50	-0.07574332
20	0xbcb111b4	-0.021614887
21	0x3f548a96	0.83023965
22	0x3f596246	0.8491558
23	0x3f617055	0.8806203
24	0x3f62b1c4	0.885525
25	0x3f577333	0.84160155
26	0x3f68fdc4	0.91012216
27	0x3f963482	1.1734774
28	0x3f771d6c	0.9652927
29	0x3f811bb7	1.0086583
30	0x3f74aab9	0.95573
31	0x3f50cda5	0.8156379
32	0x3f69e2f5	0.91361934
33	0x3f6d2109	0.9262853
34	0x3f5bd6b6	0.858745
35	0x3f62a286	0.8852924
36	0x3f66cbc2	0.9015466
37	0x3f5e4061	0.86816984
38	0x3f77bff2	0.9677726
39	0x3f6631db	0.89919823
40	0x3f7ff99b	0.9999024
41	0x3f822c78	1.0169821
42	0x3c13d33c	0.00902253
43	0xbc4a4560	-0.012345642
44	0x3cac4d5a	0.021032978
45	0x3c28b099	0.01029601
46	0x3b91b0fe	0.004446148
47	0x3b32852f	0.0027240028
48	0x3cd7d591	0.026346954
49	0x3b92f320	0.004484549
50	0xbb6d6c94	-0.0036228048
51	0x3bfb8e23	0.007676856
52	0xbc06ff54	-0.008239586
53	0x3b632449	0.0034659079
54	0xbb1867dd	-0.0023255267
55	0xbbd1e538	-0.006405499
56	0xbb45f207	-0.0030204074
57	0x3b6f0ced	0.003647621
58	0x3b2b3eae	0.002612989
59	0xbbf25d42	-0.007396371
60	0xba0344ae	-0.00050074875
61	0x3a1d0446	0.00059897115
62	0x3b2bad13	0.002619569
63	0xbe7aec65	-0.2450424
64	0xbe6cf897	-0.23141704
65	0xbe1df93e	-0.1542711
66	0xbe17b9db	-0.14816992
67	0xbe3b3ea7	-0.18285619
68	0xbe4d8872	-0.20071581
69	0xbce31d99	-0.027724074
70	0xbdab5fa4	-0.083678514
71	0xbdea035b	-0.11426421
72	0xbe1acac6	-0.15116414
73	0xbe5e813c	-0.21728987
74	0xbe0578fc	-0.13034433
75	0xbe1cc707	-0.15310298
76	0xbe37e549	-0.17958559
77	0xbe3f27c4	-0.18667513
78	0xbe194999	-0.14969482
79	0xbe6a8416	-0.2290195
80	0xbe18c46b	-0.14918678
81	0xbe2d569f	-0.16927575
82	0xbdd88674	-0.1057252
83	0xbd6d60cf	-0.057953652

model_3/dense_5/MatMul f4 [4, 840]
0	0xbcca9ac7	-0.024732007
1	0x3b76c285	0.0037652564
2	0xbbb7a338	-0.005604174
3	0xbd4d9ae9	-0.050196562
4	0xbccfceed	-0.025367225
5	0xbbc879bc	-0.0061180275
6	0xbb8a82a1	-0.004226998
7	0x3d8937d6	0.06700103
8	0xbc746a84	-0.014917973
9	0x3cc05e58	0.023482487
10	0xbc9d29ea	-0.019185025
11	0x3c3b245c	0.011422243
12	0xbbb3d7c4	-0.0054883678
13	0xbd17f942	-0.037102945
14	0xbcb0a064	-0.021560855
15	0xbb835174	-0.0040075127
16	0xbb33fbb2	-0.0027463255
17	0x3c0381f3	0.008026588
18	0xbcf86bca	-0.030324835
19	0x3cc82e59	0.024436163
20	0x3ceb8647	0.028750552
21	0xbc455c08	-0.012045868
22	0x3c95ea87	0.018300308
23	0xbc9f2ddc	-0.019431047
24	0xbcb51955	-0.022106806
25	0x3c90a451	0.017656477
26	0x3ccc6dc3	0.024954682
27	0xbb55f489	-0.0032646975
28	0xbc91efb3	-0.017814493
29	0x3b5b2550	0.0033438988
30	0xbca42b09	-0.020040052
31	0x3c9679ca	0.01836862
32	0xbc6d6b50	-0.014490917
33	0xbc8b3cdd	-0.016996795
34	0x3cb6e64f	0.022326617
35	0x3c856324	0.016282625
36	0xbd0ad3b5	-0.033893306
37	0x3c57ceb6	0.013171842
38	0xbc0c2b30	-0.008555219
39	0xbc8a0775	-0.016849259
40	0x3be64494	0.007027218
41	0x3b6d0b92	0.0036170227
42	0xba34b72c	-0.000689375
43	0xbc8897a2	-0.016673867
44	0xbcc91756	-0.02454726
45	0xbc751ddf	-0.014960735
46	0xbc9da1a7	-0.01924212
47	0x3cd0de0e	0.025496509
48	0xbb8e554f	-0.0043436657
49	0x3cd634de	0.026148256
50	0xbcb255a6	-0.021769356
51	0x3b3bb9e9	0.0028644747
52	0xbc1b1129	-0.0094645405
53	0x3bc312ae	0.0059531545
54	0xbc5e0d69	-0.013553002
55	0xbca10c41	-0.019659163
56	0xbbbd927a	-0.0057852836
57	0x3b888e3f	0.0041673477
58	0x3c4e2f02	0.01258445
59	0xba535f5c	-0.0008063221
60	0xbc9e113d	-0.01929533
61	0x3ce7d60e	0.028300311
62	0x3ce880da	0.028381754
63	0xbc5281e1	-0.012848348
64	0x3c9cbcc3	0.019132977
65	0xbc6378f2	-0.013883816
66	0xbbf824de	-0.0075727543
67	0x3c84ad92	0.016196046
68	0x3c1142d8	0.008866034
69	0xbbc00788	-0.005860273
70	0xbc7bc73f	-0.015367328
71	0x3bdbd028	0.006708164
72	0xbc742331	-0.014900968
73	0x3cf65ba1	0.030072989
74	0xbcb32e8f	-0.021872787
75	0xbc8e958e	-0.017405298
76	0x3cb1291f	0.021626053
77	0x3c96b575	0.018397072
78	0xbcca4d9b	-0.024695208
79	0x3cf1a760	0.029498756
80	0xbc659f95	-0.014015098
81	0xbc4bb406	-0.012433058
82	0x3be5922b	0.00700595
83	0x3b505233	0.0031787276
84	0xbc81d006	-0.015846264
85	0xbbea9289	-0.0071585816
86	0xbc820b6a	-0.015874583
87	0xbd03fa96	-0.0322214
88	0xbc587bd9	-0.013213121
89	0x3be834ed	0.0070863874
90	0xbd02bd43	-0.031918775
91	0x3c52e930	0.012872979
92	0xbc9a6bac	-0.01885017
93	0x3b899a97	0.0041993367
94	0xbb14ecb4	-0.0022724094
95	0x3bf85fef	0.0075797956
96	0xbc539546	-0.0129140075
97	0xbca3cd20	-0.019995272
98	0xbc647257	-0.013943276
99	0x3d15af18	0.036543936
100	0x3c25f71d	0.010129717
101	0xbc203c25	-0.009779965
102	0xbca2a429	-0.019853668
103	0x3c780b85	0.015139465
104	0x3cafce84	0.021460779
105	0xbc50d6dc	-0.012746539
106	0x3c99aee1	0.018760147
107	0xbc842c48	-0.016134396
108	0xbc4882e4	-0.012238238
109	0x3c46679e	0.012109665
110	0x3c4e34a6	0.012585795
111	0xbab2d6f4	-0.0013644383
112	0xbc3c4191	-0.011490242
113	0x3b8b706b	0.0042553446
114	0xbcb77546	-0.022394788
115	0x3cf699d4	0.030102648
116	0xbc8d823e	-0.017274018
117	0xbc893731	-0.01674995
118	0x3c75dcf1	0.01500629
119	0x3c329c04	0.010901455
120	0xbcac1b0f	-0.021008996
121	0x3ca9f34c	0.020745896
122	0xbc09f08b	-0.008419166
123	0xbc8388a9	-0.016056376
124	0x3b9a28da	0.004704577
125	0x3bdfe641	0.0068328683
126	0xbcc9607a	-0.024582136
127	0xbc3fba30	-0.011702105
128	0xbc49c7d8	-0.012315713
129	0xbce4b31a	-0.027917434
130	0xbc81e731	-0.015857311
131	0x3c0d6e53	0.00863226
132	0xbc6bbb91	-0.014387981
133	0x3ca9951d	0.020700986
134	0xbcaf23cf	-0.02137938
135	0x3ccb8f8f	0.024848728
136	0xbcc445b1	-0.023959013
137	0x3d016af6	0.031596147
138	0xbd02b453	-0.03191025
139	0xbbd3f877	-0.0064688283
140	0xbc6dfab2	-0.014525102
141	0x3ccb6aef	0.024831263
142	0x3c46e1b6	0.012138775
143	0xbc9e096c	-0.019291602
144	0xbca300ac	-0.019897781
145	0x3d0b703d	0.034042586
146	0x3c3bb66a	0.011457065
147	0xbcab3434	-0.020898916
148	0x3c198beb	0.009371738
149	0xbca8adf5	-0.020590762
150	0xbcbec29b	-0.023286154
151	0x3c4d61cd	0.012535525
152	0x3c9a71f4	0.018853165
153	0xbc08a953	-0.008341151
154	0xbc45cc08	-0.012072571
155	0x3c352de7	0.011058307
156	0xbceaa49c	-0.028642945
157	0x3caed1ee	0.021340337
158	0xbc77d5a1	-0.015126617
159	0xbc84c303	-0.01620627
160	0x3c56546a	0.013081649
161	0x3cab5f33	0.020919418
162	0xbcd6c347	-0.026216162
163	0x3ce0bb54	0.027433075
164	0xbc5ca5de	-0.01346728
165	0xbc8ff85e	-0.017574485
166	0x3c041c7f	0.008063435
167	0x3b8b6cbe	0.0042549064
168	0xbc7c1f09	-0.015388259
169	0xbcbdc72d	-0.023166263
170	0xbcb24617	-0.021761937
171	0xbca0cb0e	-0.019628074
172	0xbcb4eb54	-0.02208487
173	0x3d06ecd8	0.032940716
174	0xbd0cade4	-0.034345523
175	0x3cd6147f	0.02613282
176	0xbc999deb	-0.018752059
177	0x3c922f89	0.017844932
178	0xbcb56531	-0.022142978
179	0x3c73a18b	0.014870058
180	0xbd05830b	-0.032595675
181	0xbc8697ff	-0.0164299
182	0xbc9a2368	-0.018815711
183	0x3c88e29b	0.016709616
184	0x3c456b2b	0.012049477
185	0xbb9deb6a	-0.0048193233
186	0xbc39cb27	-0.011339939
187	0x3cc841f4	0.024445511
188	0x3c4138f1	0.011793361
189	0xbc2263bd	-0.009911475
190	0x3c39e47b	0.011345978
191	0xbc3584c1	-0.011079014
192	0xbc9e0b92	-0.019292627
193	0x3cb9f1a7	0.022698237
194	0x3cbc8323	0.02301175
195	0xbc050ee4	-0.008121226
196	0xbc5cb546	-0.013470953
197	0x3bc4270c	0.0059861
198	0xbcd54b79	-0.026036965
199	0x3d27f86b	0.041008394
200	0xbc00155b	-0.007817592
201	0xbc97b0a9	-0.018516855
202	0x3c9c0906	0.019047271
203	0x3c433c8f	0.011916294
204	0xbd1cb6b7	-0.038260188
205	0x3c768337	0.0150459325
206	0xbb7d66aa	-0.003866593
207	0xbc98a3bc	-0.018632762
208	0x3c42ffb7	0.0119017875
209	0x3b74d0a5	0.0037355807
210	0xbc817fa0	-0.015807927
211	0xbce1648a	-0.027513761
212	0xbcc14559	-0.023592638
213	0xbcd23333	-0.02565918
214	0xbcdd5a48	-0.027020589
215	0x3ca1e661	0.019763174
216	0xbcfdcb32	-0.03098068
217	0x3ceb332b	0.028710922
218	0xbcad33b4	-0.021142818
219	0x3cc4f1c4	0.024041064
220	0xbc8bbcc2	-0.01705778
221	0x3d24c745	0.0402291
222	0xbce64ea8	-0.028113678
223	0xbcac9aa4	-0.021069832
224	0xbc491a08	-0.012274273
225	0x3c9b3eb8	0.018950805
226	0x3b262e19	0.0025357066
227	0xbc072c79	-0.008250349
228	0xbc57f2f4	-0.013180483
229	0x3cd0d13f	0.025490401
230	0x3d3f1797	0.046653356
231	0xbc92768f	-0.017878799
232	0x3cab3424	0.020898886
233	0xbcbbeb24	-0.022939272
234	0xbcd91705	-0.026500234
235	0x3cad42d4	0.02115003
236	0x3c90407f	0.01760888
237	0xb9d0da7c	-0.00039835635
238	0xbcbb5348	-0.02286686
239	0x3c6255de	0.013814418
240	0xbcb40568	-0.021975234
241	0x3ca0a144	0.019608147
242	0xbcd2d937	-0.025738342
243	0xbc5663de	-0.013085334
244	0x3ce23df0	0.027617425
245	0x3cebeec8	0.028800383
246	0xbc9b9f45	-0.018996844
247	0x3d0b80fb	0.034058552
248	0xbc181b9d	-0.009283927
249	0xbcd05418	-0.025430724
250	0x3c4fc768	0.0126818195
251	0x3b8e34b8	0.0043397807
252	0xbc9ca17c	-0.01911997
253	0xbd0696c7	-0.032858636
254	0xbc847192	-0.016167436
255	0xbc706072	-0.014671432

model_3/bidirectional_3/backward_lstm_3/Read_2/ReadVariableOp1 f4 [84]
0	0xbe7caf1c	-0.24676174
1	0xbe81fa72	-0.25386387
2	0xbe8369a8	-0.25666547
3	0xbe255a67	-0.16147767
4	0xbe5827a0	-0.21108866
5	0xbe6aa7c5	-0.22915561
6	0xbdc9d533	-0.09855118
7	0xbdcf498d	-0.101214506
8	0xbdd6c7de	-0.104873404
9	0xbe63a701	-0.22231676
10	0xbe6ca9ad	-0.23111601
11	0xbe2ea042	-0.17053321
12	0xbe4e79f5	-0.2016371
13	0xbe47957c	-0.19490618
14	0xbe3dda5f	-0.18540333
15	0xbe1928bf	-0.1495695
16	0xbe7e2214	-0.24817687
17	0xbdcde29a	-0.100529864
18	0xbe1461c6	-0.14490423
19	0xbd9b1f50	-0.07574332
20	0xbcb111b4	-0.021614887
21	0x3f548a96	0.83023965
22	0x3f596246	0.8491558
23	0x3f617055	0.8806203
24	0x3f62b1c4	0.885525
25	0x3f577333	0.84160155
26	0x3f68fdc4	0.91012216
27	0x3f963482	1.1734774
28	0x3f771d6c	0.9652927
29	0x3f811bb7	1.0086583
30	0x3f74aab9	0.95573
31	0x3f50cda5	0.8156379
32	0x3f69e2f5	0.91361934
33	0x3f6d2109	0.9262853
34	0x3f5bd6b6	0.858745
35	0x3f62a286	0.8852924
36	0x3f66cbc2	0.9015466
37	0x3f5e4061	0.86816984
38	0x3f77bff2	0.9677726
39	0x3f6631db	0.89919823
40	0x3f7ff99b	0.9999024
41	0x3f822c78	1.0169821
42	0x3c13d33c	0.00902253
43	0xbc4a4560	-0.012345642
44	0x3cac4d5a	0.021032978
45	0x3c28b099	0.01029601
46	0x3b91b0fe	0.004446148
47	0x3b32852f	0.0027240028
48	0x3cd7d591	0.026346954
49	0x3b92f320	0.004484549
50	0xbb6d6c94	-0.0036228048
51	0x3bfb8e23	0.007676856
52	0xbc06ff54	-0.008239586
53	0x3b632449	0.0034659079
54	0xbb1867dd	-0.0023255267
55	0xbbd1e538	-0.006405499
56	0xbb45f207	-0.0030204074
57	0x3b6f0ced	0.003647621
58	0x3b2b3eae	0.002612989
59	0xbbf25d42	-0.007396371
60	0xba0344ae	-0.00050074875
61	0x3a1d0446	0.00059897115
62	0x3b2bad13	0.002619569
63	0xbe7aec65	-0.2450424
64	0xbe6cf897	-0.23141704
65	0xbe1df93e	-0.1542711
66	0xbe17b9db	-0.14816992
67	0xbe3b3ea7	-0.18285619
68	0xbe4d8872	-0.20071581
69	0xbce31d99	-0.027724074
70	0xbdab5fa4	-0.083678514
71	0xbdea035b	-0.11426421
72	0xbe1acac6	-0.15116414
73	0xbe5e813c	-0.21728987
74	0xbe0578fc	-0.13034433
75	0xbe1cc707	-0.15310298
76	0xbe37e549	-0.17958559
77	0xbe3f27c4	-0.18667513
78	0xbe194999	-0.14969482
79	0xbe6a8416	-0.2290195
80	0xbe18c46b	-0.14918678
81	0xbe2d569f	-0.16927575
82	0xbdd88674	-0.1057252
83	0xbd6d60cf	-0.057953652

while/MatMul_11 f4 [84, 21]
0	0x3e0eabbf	0.13932703
1	0xbe59971a	-0.21249047
2	0xbd8b6c52	-0.0680777
3	0x3e5cfc7c	0.2158069
4	0xbdc1cd4d	-0.09462986
5	0xbd491f0d	-0.049101878
6	0x3e8909a2	0.26765162
7	0x3eb5a9ac	0.35481012
8	0xbe47c730	-0.19509578
9	0x3e106b88	0.1410352
10	0xbd57a4aa	-0.05264727
11	0x3e8e8f54	0.27843726
12	0x3e080e6a	0.13286749
13	0x3dff2a3d	0.12459228
14	0xbe51fbea	-0.20506254
15	0xbcdb1c3a	-0.026746858
16	0xbe02de4f	-0.12780116
17	0x3e9d530b	0.3072742
18	0x3cf737a9	0.030177908
19	0x3cd8abcc	0.026449107
20	0xbe77dc0a	-0.24205032
21	0x3e32bf2f	0.17455743
22	0xbe60643b	-0.21913235
23	0x3dd0c995	0.10194699
24	0x3e73889e	0.23782584
25	0xbe350ab1	-0.1767986
26	0xbb99e3aa	-0.004696329
27	0x3e795e4c	0.24352378
28	0x3ea13c31	0.31491235
29	0xbe90eb19	-0.28304365
30	0x3d88dd40	0.06682825
31	0xba258311	-0.0006313781
32	0x3e2d798e	0.169409
33	0x3e3fd5b2	0.18733862
34	0xbd7537f2	-0.059867807
35	0xbe0642b8	-0.13111389
36	0x3d945b35	0.07243959
37	0xbd949fde	-0.07257055
38	0x3eaa3ae9	0.3324807
39	0xbd6e26ed	-0.05814259
40	0xbe507f2d	-0.20361014
41	0xbe6d3cd5	-0.23167737
42	0x3dd38771	0.10328568
43	0xbaa5cca1	-0.0012649485
44	0xbd89a0b8	-0.06720108
45	0x3e8c0f5a	0.27355462
46	0xbe95d974	-0.29267466
47	0xbe968ef8	-0.29405951
48	0x3ebfae33	0.3743759
49	0x3d7e0913	0.062020373
50	0xbe96d484	-0.29459012
51	0x3db366a1	0.08759809
52	0xbc9299e9	-0.017895656
53	0x3e796540	0.2435503
54	0x3e8e5a2e	0.27803177
55	0x3e602f7a	0.21893111
56	0xbe765491	-0.24055697
57	0x3de1b2ef	0.11020457
58	0xbe20c564	-0.15700299
59	0x3eeed4ae	0.46646637
60	0xbd16b6a8	-0.03679529
61	0xbe11f9a8	-0.14255393
62	0xbd3a3f12	-0.045470305
63	0x3e373a63	0.17893367
64	0xbe12d64c	-0.1433956
65	0x3e98c756	0.2983958
66	0x3eafc835	0.34332433
67	0xbece0004	-0.40234387
68	0xbe417807	-0.18893443
69	0x3eb0723e	0.3446216
70	0x3de6722e	0.11252247
71	0x3d3acb2b	0.045603912
72	0x3e68d5c7	0.227378
73	0xbd1d30fd	-0.038376797
74	0x3d749e77	0.059721436
75	0x3c190609	0.009339818
76	0xbd4dfc1b	-0.050289255
77	0xbe72844e	-0.23683283
78	0x3e33ccdb	0.17558615
79	0x3d3c5ed3	0.04598887
80	0x3e27c0cf	0.16382144
81	0x3e830c06	0.2559511
82	0xbca554a0	-0.020181954
83	0xbd41ec98	-0.047344774
84	0x3e2377e9	0.15963711
85	0x3dd8533c	0.10562751
86	0x3ed76412	0.42068535
87	0x3da55177	0.08072179
88	0xbcd9cb4c	-0.026586197
89	0xbdd49f01	-0.1038189
90	0x3ef8acc4	0.4856931
91	0xb9dc2a18	-0.00041993032
92	0xbc954e92	-0.018225942
93	0x3d824d3b	0.06362387
94	0xbe24b05a	-0.16082898
95	0x3e0b7a46	0.13620862
96	0x3d51153c	0.05104564
97	0x3d058099	0.032593343
98	0xbe13bdfe	-0.14427945
99	0x3ea1f29c	0.3163041
100	0xbcd9a6bb	-0.026568761
101	0x3e66a5ed	0.22524233
102	0xbe01ab90	-0.12663102
103	0xbd6e24ce	-0.05814057
104	0xbe4891a1	-0.19586803
105	0x3dd699e2	0.104785696
106	0xbe2ce6dd	-0.16884942
107	0x3ec8c020	0.3920908
108	0x3e0fa74d	0.14028664
109	0xbeb5036c	-0.35354173
110	0xbbfc5135	-0.0077001103
111	0x3f2edfc0	0.68310165
112	0x3ed183af	0.4092078
113	0xbea032d1	-0.3128877
114	0x3e1f6150	0.15564466
115	0xbe9b192b	-0.3029264
116	0x3e54b582	0.20772365
117	0x3e332cd4	0.1749757
118	0xbe26bdb5	-0.16283305
119	0xbe1ccad7	-0.15311752
120	0x3e8dce53	0.27696475
121	0xbc69d234	-0.014271308
122	0x3e80efaf	0.25182864
123	0x3e8c5ee1	0.27416137
124	0xbe970a02	-0.29499823
125	0xbed58104	-0.41699994
126	0x3f23d986	0.6400379
127	0xbeeb5d77	-0.45969746
128	0x3ee5561a	0.44792253
129	0x3e1b48ba	0.15164462
130	0x3ea6c6c4	0.3257352
131	0xbd1ede7e	-0.038786404
132	0x3f215d6c	0.63033175
133	0xbe59b233	-0.21259384
134	0xbf29caa4	-0.6632483
135	0x3eacef2a	0.33776218
136	0xbca719c5	-0.02039803
137	0x3e4e5b85	0.201521
138	0xbeadb0e9	-0.33924034
139	0x3e0eb7ee	0.13937351
140	0xbe9cd3fa	-0.30630475
141	0x3dbea67e	0.093090996
142	0xbd3fb348	-0.046801835
143	0x3f0fd268	0.5618043
144	0xbc98fcb2	-0.018675182
145	0xbec1ae64	-0.37828362
146	0xbe88825d	-0.2666196
147	0x3e9a6d0f	0.3016133
148	0xbe14216c	-0.14465874
149	0x3e0e055b	0.1386923
150	0x3bc18139	0.005905297
151	0xbea3c76e	-0.3198809
152	0xbe9d8780	-0.3076744
153	0x3e87860e	0.26469463
154	0x3d95d492	0.07315935
155	0xbe92658f	-0.28593108
156	0x3e19d68a	0.15023246
157	0xbe8a5fe1	-0.27026275
158	0x3e87b338	0.2650392
159	0x3e822548	0.25419068
160	0x3d8cc152	0.068728104
161	0xbcb399e0	-0.02192396
162	0xbdbc0971	-0.09181488
163	0xbd00bd36	-0.031430446
164	0x3de16c9e	0.11007045
165	0x3ddd188c	0.107956976
166	0x3d0591d0	0.03260976
167	0xbe1d21e5	-0.15344961
168	0x3ecc3ef6	0.39891785
169	0xbebce4bc	-0.3689326
170	0x3ef94286	0.48683566
171	0x3e3b37a2	0.18282941
172	0xbefe3639	-0.49650744
173	0x3ef2d463	0.47427663
174	0x3f6d2fcd	0.92651063
175	0x3b5fcfea	0.0034151026
176	0xbdcaaf84	-0.09896758
177	0x3e40920c	0.18805712
178	0xbedd8044	-0.4326192
179	0x3e04f4a6	0.12983951
180	0xbec3e550	-0.3826089
181	0xbe22d41e	-0.15901229
182	0xbcaa544e	-0.020792153
183	0x3e34f0ce	0.17669985
184	0x3e540835	0.20706256
185	0xbd4da4ea	-0.050206102
186	0xbbe88991	-0.0070964773
187	0xbcabcf80	-0.020972967
188	0xbe450f32	-0.19244078
189	0x3e101642	0.1407099
190	0xbea00300	-0.3125229
191	0x3e68b3c7	0.2272483
192	0x3ee3e347	0.44509336
193	0xbd8a63ac	-0.06757292
194	0xbddf6ce0	-0.10909438
195	0x3ebc9e05	0.3683931
196	0x3e302acd	0.17203827
197	0xbef5feb9	-0.480459
198	0x3ecc4f09	0.3990405
199	0xbde4da01	-0.111743934
200	0x3eb29c49	0.3488486
201	0xbda605cf	-0.08106577
202	0xbe9bcc85	-0.30429474
203	0xbe1fff85	-0.15624817
204	0x3e39913f	0.18121813
205	0x3cf5b228	0.029992178
206	0x3e063c96	0.13109049
207	0x3e38619e	0.18005988
208	0xbe1dd7c5	-0.15414341
209	0xbe941434	-0.28921664
210	0x3caa6d46	0.020804059
211	0xbe076557	-0.13222252
212	0x3e21f26b	0.15815131
213	0x3e75514e	0.23956797
214	0xbea321a6	-0.3186161
215	0xbea53d1d	-0.32273188
216	0x3d7f3e2f	0.062315162
217	0x3e04750e	0.12935278
218	0xbecb7b6e	-0.39742607
219	0x3e176c4a	0.14787403
220	0xbe85c74a	-0.26128608
221	0x3e7252c0	0.23664379
222	0x3ec03165	0.37537685
223	0xbcfa3139	-0.03054105
224	0xbe39c57b	-0.18141739
225	0x3d871e5e	0.06597589
226	0xbe5ff970	-0.21872497
227	0x3e8d4a9c	0.27595985
228	0x3e951676	0.291187
229	0xbe2687b4	-0.16262704
230	0x3d24a117	0.04019269
231	0x3ec1dbd2	0.37863022
232	0xbf266379	-0.64995533
233	0x3ecbef2d	0.39830914
234	0x3c98e7a5	0.018665144
235	0xbf0293a7	-0.5100655
236	0xbde2dd07	-0.11077314
237	0x3f03d96f	0.5150365
238	0x3eb4fa6b	0.35347304
239	0xbe7ca158	-0.24670923
240	0x3de5b15f	0.112154715
241	0xbe781f51	-0.24230696
242	0x3e3302a2	0.17481473
243	0xbdb0a163	-0.08624532
244	0xbeaf18dd	-0.34198657
245	0xbe28797c	-0.16452593
246	0x3e45554f	0.19270824
247	0xbd83db1c	-0.06438276
248	0x3ecafc72	0.39645725
249	0x3eabac85	0.3353006
250	0xbeb8ae45	-0.36070457
251	0xbe94354b	-0.2894691
252	0x3e5ebc73	0.21751575
253	0xbe230993	-0.15921621
254	0x3ed51100	0.41614532
255	0x3e03ec37	0.12883078

while/MatMul f4 [84, 32]
0	0xbdab9b26	-0.083792016
1	0xbf273700	-0.653183
2	0xbe8e9f42	-0.2785588
3	0xbe528d7f	-0.20561789
4	0x3c365ce0	0.011130542
5	0xbeae4547	-0.3403723
6	0x3e24aa28	0.16080534
7	0xbd49d96a	-0.049279608
8	0x3d99160c	0.07474908
9	0x3e281cb7	0.16417204
10	0xbe472267	-0.19446717
11	0x3e499b1e	0.19688079
12	0x3e0b2ca4	0.13591248
13	0xbe5cf2ed	-0.21577044
14	0x3dd7684c	0.1051794
15	0x3d9f8e91	0.07790864
16	0x3ec8c8ad	0.39215603
17	0xbbb32386	-0.005466881
18	0xbe109312	-0.14118603
19	0x3cec1eac	0.02882322
20	0x3e5e6bea	0.21720853
21	0xbdfcd84f	-0.12345945
22	0x3d085400	0.033283234
23	0x3e268e0e	0.16265127
24	0xbe292cb8	-0.16520965
25	0x3e48ee90	0.19622254
26	0x3e4d73de	0.20063731
27	0x3d887351	0.0666262
28	0xbcd07f02	-0.025451187
29	0x3dc73c14	0.09728256
30	0x3da88904	0.08229259
31	0x3e28517e	0.16437337
32	0x3e23c9fc	0.1599502
33	0x3eb448d7	0.35211822
34	0xbe4250a1	-0.1897607
35	0x3e2e5e3c	0.17028135
36	0xbe0342cc	-0.1281845
37	0xbd175299	-0.036944006
38	0xbde34a3a	-0.11098142
39	0x3db5c685	0.08875755
40	0xbe4d2f5b	-0.20037596
41	0x3e24fa5c	0.1611113
42	0xbe299ecf	-0.16564487
43	0xbe367496	-0.17817912
44	0xbcd4ce43	-0.02597726
45	0xbddd5efe	-0.10809134
46	0xbe3189cf	-0.17337726
47	0xbf4347a2	-0.7628118
48	0x3f3fd20a	0.7492987
49	0xbf81156d	-1.0084664
50	0xbe18f55c	-0.14937347
51	0xbeb01495	-0.34390703
52	0xbe255233	-0.16144638
53	0xbc7f4fe7	-0.015583015
54	0xbe916214	-0.2839514
55	0x3e495f84	0.19665343
56	0x3d282270	0.041048467
57	0xbd928c28	-0.07155639
58	0xbe469883	-0.19394116
59	0xbf0869c1	-0.5328637
60	0xbef84bd5	-0.48495355
61	0xbdddc2b9	-0.10828156
62	0xbc9bb5e8	-0.019007638
63	0x3b821aa0	0.003970459
64	0x3d87ee60	0.06637263
65	0xc0443189	-3.0655234
66	0xbe636ce5	-0.22209509
67	0x3ddd7fa9	0.10815365
68	0x3d2a7270	0.041613042
69	0x3d826bcf	0.06368219
70	0xbc59ff10	-0.013305441
71	0x3c1711f1	0.009220586
72	0x3e0e0c28	0.13871825
73	0xbe44c5ef	-0.1921613
74	0xbea271a6	-0.31727332
75	0xbdd46445	-0.103706874
76	0x3ddfde1a	0.109310344
77	0xbd69e772	-0.05710549
78	0xbe4f96f7	-0.20272432
79	0xbd8f3ec9	-0.06994397
80	0x3fbcad67	1.4740418
81	0xbe6dd674	-0.23226339
82	0x3d988418	0.0744707
83	0xbcb527b3	-0.022113657
84	0x3cd2a239	0.02571212
85	0x3cc6f197	0.02428512
86	0xbe1e17bc	-0.15438741
87	0xbddd54e2	-0.10807206
88	0xbcafa781	-0.021442177
89	0x3da33f20	0.079710245
90	0xbdcb26cc	-0.09919509
91	0x3db7a5b4	0.08967152
92	0xbd39af9a	-0.045333482
93	0xbe3b30d6	-0.18280348
94	0xbc0cca20	-0.008593112
95	0x3e4a810e	0.19775793
96	0xbccca218	-0.024979636
97	0xbe8cf577	-0.27531025
98	0xbde37681	-0.11106587
99	0x3e306716	0.17226824
100	0xb9a1ee5f	-0.00030885913
101	0xbedecf29	-0.43517426
102	0xbe63dcd5	-0.2225221
103	0xbe438c4c	-0.19096488
104	0x3d483488	0.048878223
105	0xbe600c98	-0.21879804
106	0x3da5c437	0.08094066
107	0xbe44b8e1	-0.1921115
108	0x3e95121e	0.29115385
109	0xbf1a8ede	-0.6037425
110	0x3e1841d2	0.14868858
111	0x3dda9c25	0.106743135
112	0xbf9bfa4b	-1.2185758
113	0x3e7ab413	0.24482755
114	0xbe3b92da	-0.18317738
115	0x3e35e689	0.17763723
116	0xbd09e7a6	-0.033668183
117	0xbd36bb1f	-0.044612046
118	0xbe908865	-0.2822906
119	0x3dc819a4	0.097705156
120	0xbe223ff6	-0.15844712
121	0x3e095d4e	0.13414499
122	0xbdb20cd6	-0.086938545
123	0x3e4d39a9	0.20041527
124	0xbd843f1a	-0.06457348
125	0xbc3f75df	-0.0116858175
126	0x3e3bbac8	0.1833297
127	0x3e39bff0	0.18139625
128	0xbe030e8f	-0.12798522
129	0xbf8b8903	-1.0901188
130	0xbe50d243	-0.20392708
131	0xbe06b9a5	-0.13156755
132	0x3e132936	0.1437119
133	0xbee4f4da	-0.44718057
134	0x3e6027fc	0.21890253
135	0xbe5453ff	-0.20735167
136	0xbc81c650	-0.015841633
137	0xbf00338e	-0.50078666
138	0xbe16284b	-0.14663808
139	0x3e0461db	0.12927954
140	0xbdd1fcb7	-0.1025328
141	0xbf1c2b90	-0.6100397
142	0x3dbc4300	0.09192467
143	0xbf03533b	-0.51298875
144	0xbf7331f4	-0.949981
145	0xc0121f1f	-2.2831495
146	0xbe17c156	-0.14819846
147	0xbeb3309e	-0.3499803
148	0xbe0076ce	-0.1254532
149	0xbec30685	-0.38090912
150	0xbdaa245b	-0.083077155
151	0x3e5183d8	0.2046045
152	0xbd6c8358	-0.057742447
153	0xbdbd3214	-0.09238067
154	0xbdd7534a	-0.10513933
155	0xbeb4fda1	-0.35349753
156	0xbef9e356	-0.48806256
157	0xbe703ebb	-0.2346143
158	0x3dc73418	0.09726733
159	0x3c934cf0	0.017981023
160	0x3d2c8f90	0.0421291
161	0xbf7ffb02	-0.9999238
162	0xbed5a68b	-0.41728625
163	0x3d08b611	0.033376757
164	0xbcabfc10	-0.020994216
165	0xbf095987	-0.5365223
166	0xbdd104b6	-0.10205977
167	0xbe4510a6	-0.19244632
168	0x3de3a220	0.11114907
169	0xbec519b9	-0.38496187
170	0xbebac6fb	-0.36479935
171	0xbd22de2b	-0.039762657
172	0xbe21a2f2	-0.15784815
173	0xbdcecf97	-0.10098188
174	0x3e119ac2	0.14219192
175	0xbc83cb59	-0.016088175
176	0xc008c174	-2.1368074
177	0x3e902a12	0.28157097
178	0xbdebc81c	-0.11512777
179	0xbf2aafdd	-0.66674596
180	0xbd23b2a8	-0.0399653
181	0xbee843b9	-0.45364168
182	0x3df72f6a	0.120695904
183	0xbe35c569	-0.17751087
184	0xbe36817e	-0.17822835
185	0x3e05877e	0.13039967
186	0xbe2e0012	-0.16992214
187	0xbee472ba	-0.4461878
188	0xbe266cd7	-0.16252457
189	0xbd97024c	-0.07373485
190	0x3d2ddd10	0.04244715
191	0x3e1217b4	0.14266855
192	0xbe65b49f	-0.22432183
193	0xc001e356	-2.0295005
194	0xbe7f95f2	-0.24959543
195	0xbda33774	-0.07969561
196	0xbe5d1d2a	-0.21593156
197	0xbf0daddd	-0.5534342
198	0x3c86b128	0.016441897
199	0x3e3d3091	0.18475558
200	0xbe16ca64	-0.14725643
201	0xbed85193	-0.42249736
202	0xbf0a1bd3	-0.53948706
203	0xbe2fcfe0	-0.17169142
204	0x3e5df75d	0.21676393
205	0xbed57795	-0.41692796
206	0x3df1d488	0.11808115
207	0xbf5dc115	-0.86622745
208	0x3f1cdd81	0.6127549
209	0xbf8a1d82	-1.0790255
210	0xba1b6b00	-0.0005928725
211	0xbf2bc356	-0.67094934
212	0xbe07fb80	-0.13279533
213	0xbe89d138	-0.26917434
214	0xbbde43fa	-0.006783006
215	0x3d0701a8	0.032960564
216	0xbe10143c	-0.14070219
217	0x3e068316	0.13135943
218	0xbe12233b	-0.14271252
219	0xbec46942	-0.38361555
220	0xbec852fd	-0.39125815
221	0xbe5a9b43	-0.2134829
222	0xbd1f912c	-0.038956806
223	0x3d7b64a8	0.06137529
224	0x3dcb1b2c	0.09917292
225	0xbf1fb670	-0.6238775
226	0xbf059c05	-0.5219119
227	0x3e4960fb	0.19665901
228	0x3c68e1b0	0.014213964
229	0xbe84c6df	-0.25932977
230	0x3e67141a	0.22566262
231	0x3d54f176	0.051988088
232	0x3e21188c	0.1573202
233	0xbebd8ed4	-0.37023032
234	0xbe9e0187	-0.3086054
235	0x3e3d6f77	0.18499552
236	0x3e821dfb	0.25413498
237	0xbe48d2dd	-0.19611688
238	0xbbdb5020	-0.0066929013
239	0x3d43b345	0.047778387
240	0x3f13bbeb	0.57708615
241	0xc003dd2d	-2.0603745
242	0x3e6313c8	0.22175515
243	0xbf1d3c4c	-0.6142013
244	0xbd20db36	-0.039271556
245	0xbf3ca377	-0.7368693
246	0xbd9be5c8	-0.07612187
247	0x3e01cd72	0.12676027
248	0xbe42feb6	-0.19042477
249	0xbdef6eb4	-0.11691037
250	0x3e186d58	0.14885461
251	0x3d7e8256	0.062136017
252	0xbe7bf1c8	-0.24603951
253	0xbe8f79de	-0.28022665
254	0x3e5f57f4	0.21810895
255	0x3c664040	0.014053404

model_3/bidirectional_3/forward_lstm_3/Read_2/ReadVariableOp1 f4 [84]
0	0xbe237152	-0.15961197
1	0xbe8c7f99	-0.274411
2	0xbe633b37	-0.22190557
3	0xbe6da4b0	-0.23207355
4	0xbe38a61d	-0.18032117
5	0xbe4fa1a7	-0.20276509
6	0xbe714a50	-0.23563504
7	0xbead3443	-0.33828935
8	0xbe0f0666	-0.13967285
9	0xbe8c0021	-0.27343848
10	0xbe80f2d8	-0.25185275
11	0xbe81d6fc	-0.25359333
12	0xbe841717	-0.25798866
13	0xbe0bbce5	-0.13646276
14	0xbe65ad13	-0.22429304
15	0xbe95265a	-0.29130822
16	0xbe8aa462	-0.2707854
17	0xbecd0816	-0.40045232
18	0xbe5ed6e7	-0.21761666
19	0xbe63084b	-0.22171132
20	0xbe5982d5	-0.21241315
21	0x3f61f028	0.88257074
22	0x3f596962	0.84926426
23	0x3f619707	0.88121074
24	0x3f52be4a	0.8232161
25	0x3f6a3cbd	0.9149893
26	0x3f5f9798	0.8734069
27	0x3f59c6e4	0.8506911
28	0x3f3d7698	0.74009085
29	0x3f64dca0	0.8939915
30	0x3f542c66	0.82880247
31	0x3f5ccab2	0.8624679
32	0x3f5e7790	0.8690119
33	0x3f5b45a6	0.8565315
34	0x3f652dc8	0.8952298
35	0x3f51d464	0.8196471
36	0x3f3f7e41	0.74802023
37	0x3f5eace5	0.86982566
38	0x3f4701d6	0.77737176
39	0x3f5e7197	0.86892074
40	0x3f5a09c0	0.8517113
41	0x3f5e534f	0.8684587
42	0x3bd58b25	0.0065168315
43	0x3bf3a726	0.007435697
44	0x3a7abeb7	0.0009565162
45	0x3c02bff0	0.007980332
46	0x3a9432e1	0.0011306667
47	0xbc06cb80	-0.008227229
48	0x3b8f79ff	0.0043785567
49	0xbb5b9ad8	-0.0033509042
50	0x3b00e7dd	0.0019669451
51	0xbadb60b6	-0.0016737196
52	0xbb1ab05e	-0.0023603658
53	0xbb4b2d02	-0.0031002169
54	0x3b9df01e	0.004819884
55	0xbaaae276	-0.0013037461
56	0x3b9af237	0.0047285813
57	0xbb252b35	-0.0025202755
58	0xbaf31b0a	-0.0018547487
59	0xbb9f98a6	-0.004870492
60	0x3b02d26e	0.0019961852
61	0xbb318bd3	-0.0027091398
62	0x39e0ddc7	0.00042889846
63	0xbe1828b9	-0.14859284
64	0xbe6ed4f4	-0.23323423
65	0xbe599c23	-0.21250968
66	0xbe666ea2	-0.2250314
67	0xbe0831f9	-0.13300313
68	0xbe329145	-0.17438228
69	0xbe381c63	-0.17979579
70	0xbeb1d912	-0.34735924
71	0xbe15f786	-0.14645204
72	0xbe4a1559	-0.19734706
73	0xbe857a00	-0.2606964
74	0xbe4160bf	-0.18884562
75	0xbe5f592a	-0.21811357
76	0xbe13fffc	-0.14453119
77	0xbe5392b1	-0.20661427
78	0xbe810d29	-0.25205353
79	0xbe79ed91	-0.2440703
80	0xbec5cebc	-0.38634288
81	0xbe7c6df3	-0.24651317
82	0xbe59c87d	-0.21267886
83	0xbe4bca88	-0.19901478

while/MatMul_14 f4 [84, 21]
0	0x3cfde555	0.030993143
1	0x3d8a075e	0.067396864
2	0xbebcc9c7	-0.36872694
3	0x3e1ac0f2	0.15112665
4	0x3db431fc	0.08798596
5	0x3dbe57c6	0.09294085
6	0xbcdca947	-0.026936186
7	0x3e126bf5	0.14298995
8	0xbc6f2ab6	-0.014597585
9	0xbd2f3065	-0.042770762
10	0x3b9f29fc	0.0048573
11	0x3defa7f4	0.117019564
12	0xbdd2ee43	-0.10299351
13	0xbddb1b5f	-0.1069858
14	0xbd1c416e	-0.038148336
15	0xbd73c5a1	-0.059514645
16	0xbe3ac81b	-0.18240397
17	0x3e0e7cc5	0.13914783
18	0xbde8b0f8	-0.11361879
19	0xbde0a2b6	-0.10968535
20	0x3c57f00f	0.013179793
21	0xbe2515e2	-0.16121629
22	0xbc439e1d	-0.011939553
23	0xbd2528e7	-0.04032221
24	0xbdc82944	-0.09773496
25	0xbe01021c	-0.12598461
26	0x3dbbe4a9	0.09174473
27	0xbe1c229e	-0.1524758
28	0xbcbc030c	-0.022950672
29	0xbc3a6722	-0.011377128
30	0xbe0d6a0b	-0.13809983
31	0xbc9a4c1b	-0.018835118
32	0xbca823c8	-0.020524874
33	0xbcacbc43	-0.021085864
34	0xbdfa3cf2	-0.12218656
35	0x3dddd3bc	0.10831401
36	0x3e1a5529	0.15071549
37	0xbce843a0	-0.028352559
38	0xbcb75f80	-0.022384405
39	0xbdb3c215	-0.087772526
40	0x3df94418	0.12171191
41	0x3d8485e8	0.06470853
42	0x3c686d64	0.014186237
43	0xbd9c1d09	-0.076227255
44	0xbe8a48ce	-0.2700867
45	0x3eb0ae17	0.3450782
46	0x3d3e3bd3	0.04644377
47	0xbd785ab4	-0.060633376
48	0xbe26578f	-0.16244338
49	0x3d26acc5	0.04069211
50	0xbd63b6f5	-0.055594403
51	0x3d5f3399	0.054492567
52	0x3d3cde8c	0.046110675
53	0xbceee232	-0.029160593
54	0xbd97b988	-0.07408434
55	0xbda0958c	-0.07841024
56	0x3dd865f1	0.10566319
57	0x3d0cbe87	0.03436139
58	0x3db2fe16	0.08739869
59	0xbe87257f	-0.26395795
60	0xbeb676ae	-0.3563742
61	0xbdc6ae04	-0.097011596
62	0x3dd1b147	0.10238891
63	0x3e2d4d19	0.16923942
64	0x3cbc2c8d	0.022970462
65	0x3e509a1d	0.2037129
66	0x3de5848b	0.11206921
67	0x3d528ad1	0.051401917
68	0xbe8e5606	-0.27800006
69	0x3e1f9bdb	0.15586798
70	0xbdd9352e	-0.10605846
71	0x3ec06176	0.37574357
72	0xbce5cfc6	-0.028053176
73	0x3e1487f6	0.1450499
74	0xbe9435d9	-0.28947333
75	0x3e467245	0.19379528
76	0xbd50b1e9	-0.05095092
77	0x3e0cb1df	0.13739727
78	0xbe32abb8	-0.17448318
79	0xbeaa6a97	-0.33284447
80	0x3de0d551	0.10978187
81	0x3e7a3c69	0.24437107
82	0xbe4bea8c	-0.19913691
83	0xbe0153bb	-0.12629597
84	0xbdd70c97	-0.10500448
85	0xbe33a1ec	-0.17542237
86	0x3e0f3a24	0.13987023
87	0x3cfac7b3	0.030612802
88	0xbe8871ac	-0.26649225
89	0x3d4401c6	0.047853254
90	0xbd9ce95c	-0.07661697
91	0x3e7fbb37	0.2497376
92	0xbe6f498f	-0.23367904
93	0xbc2c2ed0	-0.010509208
94	0xbde4a825	-0.111648835
95	0x3e5c9114	0.21539718
96	0xbea65c27	-0.32492182
97	0xbe059b75	-0.13047583
98	0xbde9612d	-0.11395488
99	0x3d9e4868	0.07728654
100	0xbe5d87b1	-0.21633793
101	0xbb21a3a0	-0.0024664178
102	0x3da5f16d	0.08102689
103	0xbd6be3e9	-0.0575904
104	0x3e1c49ae	0.15262482
105	0xbdddef77	-0.1083669
106	0x3d244f43	0.040114652
107	0x3dd00b95	0.10158459
108	0x3d04d2ca	0.032427587
109	0xbcaa7f85	-0.02081276
110	0xbd730db1	-0.05933923
111	0x3e57d7a1	0.2107835
112	0x3d3724ed	0.04471295
113	0x3cb1a5d9	0.021685528
114	0x3cd7b441	0.026331069
115	0xbe35e917	-0.17764698
116	0xbd18f048	-0.037338525
117	0xbbc183e7	-0.0059056166
118	0xba8690ff	-0.0010266601
119	0xbd079a91	-0.03310639
120	0xbdbf9d7c	-0.0935621
121	0xbdb1a11c	-0.08673307
122	0x3cb955da	0.022623945
123	0x3cf2b222	0.029625956
124	0xbce1dcfc	-0.027571194
125	0x3ddd1476	0.10794918
126	0xbe24ab40	-0.16080952
127	0xbd8c4a1c	-0.06850073
128	0xbc69ae69	-0.014262774
129	0x3d0388c5	0.032112855
130	0xbe731196	-0.23737177
131	0x3da042e9	0.07825262
132	0x3d972db6	0.073817655
133	0xbd64893f	-0.05579495
134	0x3ddd9e3f	0.10821199
135	0x3c27149a	0.010197783
136	0x3ca2bff2	0.019866917
137	0x3db61387	0.08890443
138	0xbdf9a42c	-0.121895164
139	0xbe00ef67	-0.12591325
140	0xbeb3c8f6	-0.3511426
141	0xbd1284e8	-0.03577128
142	0xbe0e3b56	-0.13889822
143	0x3df55a25	0.11980084
144	0xbd255486	-0.04036381
145	0x3db922b5	0.09039823
146	0x3e266ab1	0.16251637
147	0x3d03ed53	0.032208752
148	0x3df99127	0.12185889
149	0xbe094a44	-0.13407236
150	0x3e2a60d8	0.16638505
151	0x3d8cf716	0.068830654
152	0x3dbf056e	0.093272075
153	0x3e97c3d1	0.29641584
154	0xbd0354e0	-0.032063365
155	0x3e3fde1c	0.18737072
156	0xbd8b4ab8	-0.06801361
157	0x3e0e1ec9	0.13878931
158	0xbe357fe1	-0.17724563
159	0x3d9bf791	0.07615579
160	0x3d9da621	0.07697702
161	0x3e1fa0a6	0.15588626
162	0x3d516edf	0.051131126
163	0xbcfa456d	-0.030550683
164	0xbe23988d	-0.15976162
165	0x3e908cfc	0.28232563
166	0xbe841a8f	-0.25801513
167	0xbd9ed331	-0.07755125
168	0xbcb31c65	-0.021864126
169	0xbd002006	-0.03128054
170	0x3c904eb8	0.017615661
171	0x3e586145	0.21130855
172	0xbdc465ac	-0.09589705
173	0xbd885bd8	-0.06658143
174	0x3e1d5905	0.1536599
175	0xbda13f04	-0.078733474
176	0xbe2e71d7	-0.17035614
177	0xbddcf09a	-0.107880786
178	0x3e5896da	0.21151295
179	0x3e46f2c6	0.19428548
180	0x3dcbac63	0.099449895
181	0xbe2c375c	-0.16817993
182	0xbe104d73	-0.14092045
183	0x3d407739	0.0469887
184	0x3c07ff24	0.008300576
185	0xbd224123	-0.0396129
186	0xbbfc6b94	-0.007703254
187	0xbd8b6fc2	-0.068084255
188	0x3d7b88ce	0.061409764
189	0x3eadccd9	0.3394535
190	0xbdaa88b4	-0.08326855
191	0xbe229f2f	-0.15881036
192	0x3d499af5	0.049220044
193	0xbe5ba7fb	-0.21450798
194	0x3ddf1843	0.108932994
195	0x3db4935d	0.0881717
196	0x3ca0bfd7	0.019622726
197	0xbd70319b	-0.058641057
198	0x3e2b3805	0.16720589
199	0xbe16788f	-0.14694427
200	0xbc214b2a	-0.009844581
201	0xbd6274f7	-0.055287328
202	0xbdeecf57	-0.11660641
203	0xbdd1e12d	-0.10248027
204	0x3e5b595d	0.21420808
205	0xbe71aab9	-0.23600282
206	0x3d02b8d6	0.031914555
207	0xbdbc79da	-0.09202929
208	0xbdc64d79	-0.096827455
209	0x3e0c8a2a	0.1372458
210	0x3e4c5c7d	0.19957156
211	0xbd8b7469	-0.06809313
212	0xbdf26f55	-0.11837641
213	0x3cc0cbea	0.023534734
214	0x3e114e1f	0.14189957
215	0xbdb2af3d	-0.0872483
216	0x3e295b2c	0.16538686
217	0xbcc1fd5a	-0.023680378
218	0x3cfca179	0.030838715
219	0xbe9f5aed	-0.31124058
220	0x3d4e2eaa	0.05033747
221	0xbda118b4	-0.0786604
222	0x3bf3c80d	0.0074396194
223	0x3e5706d1	0.20998694
224	0x3e3e76ee	0.18600056
225	0xbe4e88c2	-0.20169356
226	0xbda9b66d	-0.08286748
227	0x3e2a30ce	0.1662018
228	0xbe212304	-0.15736014
229	0x3dbbd962	0.09172322
230	0xbe82c1e8	-0.25538564
231	0xbd30eb8c	-0.043193385
232	0xbceb0ce5	-0.028692672
233	0xbe4b761a	-0.19869271
234	0x3e6020ba	0.21887484
235	0xbe37bc91	-0.17943026
236	0x3dc132f9	0.094335504
237	0x3d6b45b5	0.057439525
238	0x3e326a3b	0.17423336
239	0xbcb16d5b	-0.02165859
240	0x3d3ed63e	0.046591036
241	0x3de051d5	0.10953108
242	0x3ea6b90f	0.32563064
243	0xbe3d0bec	-0.18461579
244	0xbcf7f98a	-0.030270357
245	0xbe5c4f35	-0.2151459
246	0xbe16dc2b	-0.14732425
247	0xbd954379	-0.0728826
248	0xbd5b6f51	-0.053572956
249	0xbdf51135	-0.119661726
250	0x3e9bd3e4	0.30435097
251	0x3e933ce8	0.28757405
252	0x3ccd1527	0.0250345
253	0xbd461592	-0.048360415
254	0x3db8ad33	0.0901741
255	0x3e5a4d85	0.21318634

while/MatMul2 f4 [84, 32]
0	0xbe00edd6	-0.12590727
1	0xbf33fcb7	-0.7030749
2	0xbe4e41d6	-0.20142302
3	0x3e40a7a0	0.18813944
4	0x3de7adf4	0.11312476
5	0xbe42953a	-0.19002238
6	0xbe533ba7	-0.20628224
7	0x3defdd31	0.11712111
8	0x3e4cbed6	0.19994673
9	0x3f026cde	0.5094737
10	0x3d12a2aa	0.03579966
11	0x3e57b290	0.2106421
12	0x3e997c6b	0.29977736
13	0x3e1dc982	0.154089
14	0x3cc901a0	0.024536908
15	0x3ea3f1db	0.3202046
16	0x3f122928	0.5709405
17	0x3c544cac	0.012957733
18	0xbdeec41a	-0.11658497
19	0x3bc216eb	0.005923142
20	0x3e5f33b1	0.21797062
21	0xbe88f555	-0.26749673
22	0x3d12f29b	0.035875898
23	0x3e4ed616	0.20198855
24	0x3bea7331	0.007154845
25	0xbe07c353	-0.13258104
26	0x3da159f0	0.07878482
27	0xbeda94d9	-0.42691687
28	0xbe5095b4	-0.20369607
29	0xbef4714d	-0.47742692
30	0x3dc33e14	0.09533325
31	0x3c900a08	0.017582908
32	0xbe466968	-0.19376147
33	0x3e052753	0.13003282
34	0xbe5229ff	-0.20523833
35	0xbe20b2cd	-0.15693207
36	0xbe29ecae	-0.16594192
37	0xbdd1734c	-0.10227069
38	0xbc500630	-0.012696788
39	0x3da2bdfd	0.07946394
40	0xbdb583ac	-0.08863005
41	0x3e6ec2d0	0.23316503
42	0xbe3dacf9	-0.18523015
43	0x3ca1aaad	0.019734705
44	0xbda60ef4	-0.08108321
45	0xbe848d59	-0.2588909
46	0x3de487cc	0.11158714
47	0x3e01096e	0.12601253
48	0x3f5336e7	0.8250565
49	0x3e9684bb	0.2939814
50	0x3dbad84c	0.091232866
51	0xbe7342ce	-0.23755953
52	0xbe0605c2	-0.13088134
53	0x3e35421f	0.17701004
54	0xbec7a786	-0.38994998
55	0x3c0eee00	0.008723736
56	0xbd88d56c	-0.06681332
57	0xbddad479	-0.10685057
58	0xbdf246e0	-0.118299246
59	0x3ea7bbd8	0.327605
60	0xbc73cd57	-0.0148805
61	0xbe478f88	-0.19488347
62	0xbce51d20	-0.02796799
63	0xbe266b00	-0.16251755
64	0x3df507e8	0.119643986
65	0xbe418dd2	-0.18901756
66	0xbe52dfd7	-0.205932
67	0xbe6351db	-0.22199194
68	0xbd9a6f4e	-0.07540761
69	0xbbdea184	-0.0067941565
70	0x3e245af8	0.16050327
71	0xbdc10fd0	-0.09426844
72	0x3df9dc4c	0.122002214
73	0xbe2b6dd8	-0.16741121
74	0xbe161bf5	-0.14659102
75	0x3d61c9e8	0.055124193
76	0xbce919ae	-0.028454628
77	0xbcaac299	-0.020844745
78	0x3df13d10	0.11779225
79	0x3a94b5f7	0.0011345734
80	0x3d56875e	0.05237519
81	0x3f54331e	0.828905
82	0x3e674980	0.22586632
83	0xbcedad12	-0.02901319
84	0xbdf9b4d6	-0.12192695
85	0x3e27d4b8	0.1638974
86	0xbc6df8a3	-0.014524612
87	0xbd937858	-0.07200688
88	0xbe50d700	-0.20394516
89	0xbe570245	-0.2099696
90	0x3de84ae8	0.11342412
91	0xbcc4fde1	-0.02404684
92	0xbf0783c1	-0.52935416
93	0xbef76b64	-0.4832412
94	0xba4b9f00	-0.00077675283
95	0x3c6fa880	0.014627576
96	0xbe00a102	-0.1256142
97	0xbe81a6d5	-0.25322595
98	0xbe9e6016	-0.30932683
99	0xbe1d9b71	-0.15391327
100	0xbd6a3708	-0.05718139
101	0xbeeb959b	-0.46012577
102	0xbe422caa	-0.1896235
103	0xbe10cada	-0.14139882
104	0xbe140097	-0.1445335
105	0xbe40197e	-0.18759724
106	0x3bf3ef61	0.0074443077
107	0x3dcbe417	0.09955614
108	0xbbdef69a	-0.0068042995
109	0xbe1f0f24	-0.1553312
110	0x3e5a7506	0.21333703
111	0xbf04e469	-0.51911026
112	0xbf530fa3	-0.82445735
113	0x3e6e2c39	0.23259057
114	0xbe45a1c0	-0.19299984
115	0xbd4498c8	-0.047997266
116	0x3d9bda6c	0.0761002
117	0xbe800d4b	-0.25010142
118	0xbd88711b	-0.06662198
119	0x3e46001a	0.19335976
120	0x3c959208	0.01825811
121	0xbe515568	-0.20442736
122	0x3e144b78	0.14481914
123	0xbefc814c	-0.49317396
124	0x3e71020a	0.23535934
125	0xbeca17a6	-0.39471167
126	0xbe167259	-0.14692058
127	0xbe0c4e04	-0.13701636
128	0xbca3ebd0	-0.020009905
129	0x3f662074	0.8989327
130	0xbd89fce0	-0.06737685
131	0xbe4103a0	-0.18849039
132	0x3e3cd328	0.18439925
133	0xbe877bb5	-0.26461568
134	0xbe14fd90	-0.14549851
135	0x3dcce1d4	0.10004011
136	0x3e5b7b52	0.21433762
137	0xbd945ccf	-0.07244264
138	0xbc217300	-0.009854078
139	0xbe578cfb	-0.21049874
140	0x3db47c86	0.088128135
141	0x3e66a96b	0.22525565
142	0xbd1184b8	-0.03552696
143	0x3dbf35a8	0.09336406
144	0x3f48e262	0.7847043
145	0xbf87c7dd	-1.0607868
146	0x3e43d818	0.19125402
147	0xbeaca4b7	-0.33719417
148	0xbe064dc6	-0.13115606
149	0xbe65575b	-0.22396605
150	0x3d63248a	0.05545477
151	0x3d5e1028	0.054214627
152	0xbd84848a	-0.06470592
153	0x3df23ab4	0.11827603
154	0xbe62aac8	-0.2213546
155	0xbd0c572a	-0.034262814
156	0x3eb92618	0.36161876
157	0xbde98a60	-0.11403346
158	0x3e09f740	0.13473225
159	0x3dc8152c	0.09769663
160	0x3e375e04	0.17906958
161	0x3f69d885	0.9134601
162	0xbe247b77	-0.16062723
163	0x3df47c1a	0.11937733
164	0x3dcd7aec	0.10033211
165	0xbd948696	-0.07252233
166	0x3d9f789c	0.07786676
167	0xbbc0f56e	-0.0058886325
168	0xbe437a26	-0.19089565
169	0xbda8bed1	-0.0823952
170	0xbd8b8292	-0.06812014
171	0xbdcf2216	-0.10113923
172	0x3e8b7499	0.27237394
173	0xbeac4236	-0.33644265
174	0x3e4aaeb0	0.197932
175	0xbee5e72d	-0.44902936
176	0x3e967e83	0.29393396
177	0xbf8553ba	-1.0416176
178	0x3e4cf2ac	0.20014447
179	0x3e3b6416	0.18299899
180	0x3c94148e	0.018076207
181	0x3cc8fb3f	0.024533866
182	0x3df73dbb	0.12072321
183	0x3e015308	0.1262933
184	0xbe0abe2a	-0.13549104
185	0xbd172e58	-0.03690943
186	0x3e0a9940	0.13535023
187	0xbba0be0d	-0.0049054683
188	0xbe162994	-0.14664298
189	0x3e3f1530	0.18660426
190	0x3d30ccb0	0.043163955
191	0x3c175ba0	0.009238154
192	0x3e3f258c	0.18666667
193	0xbf03f05d	-0.5153864
194	0xbe2c4c7a	-0.16826048
195	0xbdd47d5f	-0.10375475
196	0x3db08640	0.08619356
197	0xbe505325	-0.20344217
198	0x3e217198	0.15765989
199	0xbe43edd0	-0.19133687
200	0xbe0631ab	-0.13104884
201	0x3eab2a5c	0.33430755
202	0xbeb292a0	-0.3487749
203	0x3a47d48c	0.00076229195
204	0x3df4e1a3	0.11957099
205	0xbdea0062	-0.11425854
206	0xbe3838b8	-0.17990386
207	0xbeeeaf50	-0.46618128
208	0x3fb690b8	1.4262915
209	0x3ea4d74f	0.32195517
210	0x3dccf4e8	0.1000765
211	0x3e23a43b	0.15980618
212	0xbcce06b0	-0.025149673
213	0x3d91c2a7	0.07117205
214	0xbe392b5e	-0.1808295
215	0xbe3d895b	-0.18509428
216	0xbdf2c1e3	-0.11853387
217	0xbe521f39	-0.20519723
218	0x3e52474a	0.20535007
219	0xbd38fb0f	-0.045161303
220	0xbed4efac	-0.41589105
221	0x3dc4dbe6	0.09612255
222	0xbd49536c	-0.049151823
223	0xbd03cc84	-0.032177463
224	0xbe408169	-0.18799366
225	0xbe217bfa	-0.1576995
226	0xbe4581c7	-0.19287787
227	0x3e47ae49	0.19500078
228	0xbd622c84	-0.055218235
229	0xbe493d17	-0.1965221
230	0xbdb0c45e	-0.08631204
231	0xbd1d4ac4	-0.03840138
232	0xbdc0a09c	-0.09405634
233	0xbdd01a37	-0.1016125
234	0xbe24af6d	-0.16082545
235	0xbd572083	-0.05252124
236	0x3c6d6a1e	0.014490632
237	0xbde7021b	-0.112796985
238	0xbe15a35c	-0.14613098
239	0xbe342f1c	-0.17596096
240	0xbc0d107c	-0.008609887
241	0xbec66ccc	-0.3875488
242	0x3d765f48	0.06014946
243	0xbdbe2849	-0.092850275
244	0xbd7002e7	-0.058596518
245	0xb8d4cd18	-0.000101471494
246	0xbe090efc	-0.13384622
247	0x3d338840	0.04383111
248	0x3d77b5e0	0.060476184
249	0xbe5568af	-0.20840715
250	0xbd96f174	-0.07370272
251	0xbe230ab0	-0.15922046
252	0xbdf01972	-0.11723603
253	0xbe7bc19e	-0.24585578
254	0x3e5034f2	0.20332697
255	0x3d84f748	0.06492478
