check_points/model_origin_tflite/model_origin_tflite.tflite (tflite, 397204 bytes, 18 tensors)

model_6/conv1d_6/BiasAdd/ReadVariableOp f4 [64]
00000000: 0000 0000 e747 4e3b b219 953c 850e a73b
00000010: 51c2 823b 1c03 a7bb 43ca 223c 4dbb 483a
00000020: 0000 0000 5a89 063b 5f5f fe3b 6f87 3e3c
00000030: 0000 0000 1c93 bf3b 9e4e 8b3a 9c73 b6bb
00000040: da35 24ba e9fc 873b c219 d53b 0000 0000
00000050: 0000 0000 6755 6d3a 2016 abbb cbdb 793b
00000060: d87a 3abb 5904 213b 9e38 fe3d 09cf 903c
00000070: 4710 513c c4b6 483a f05f bcbb 6b52 b23c
00000080: a6e3 bcbb 82eb 1f3e 3324 843c 0000 0000
00000090: b5e8 c53d 9911 5fbd 41fa 0a3d 0000 0000
000000a0: e7c9 88bb 6b74 e2bb 5c3c 8e3b 5a6b d0bb
000000b0: e14e a5bb 5aed acbb 810d 283c b8ab ce3b
000000c0: 0000 0000 6239 ae3b 789d 41bb 0000 0000
000000d0: e315 b63b cbdd 043c ad82 a4bb dee1 653c
000000e0: b4ef 053b d0aa bebb b988 a5bb 0000 0000
000000f0: 0000 0000 f504 673c 3f64 883b 2980 283c
0.0 0.0031475963 0.018200729 0.0050981664 0.0039904495 -0.005096806 0.009935918 0.00076573045
0.0 0.0020528645 0.007762834 0.01162897 0.0 0.005846394 0.0010628288 -0.005567981
-0.0006264128 0.0041500223 0.0065033147 0.0 0.0 0.00090535585 -0.0052211434 0.0038125392
-0.0028454568 0.0024569242 0.124131426 0.017676847 0.0127602285 0.0007656629 -0.0057487413 0.021767816
-0.0057644425 0.15617183 0.016130542 0.0 0.09663526 -0.05446014 0.033930067 0.0
-0.0041744593 -0.0069108508 0.0043406915 -0.0063604536 -0.0050448035 -0.005277318 0.010257126 0.0063070916
0.0 0.005316899 -0.0029543322 0.0 0.0055568083 0.00810952 -0.0050204606 0.014030902
0.0020437064 -0.0058187023 -0.005051699 0.0 0.0 0.014100303 0.004162341 0.010284462

model_6/conv1d_6/Conv1D f4 [64, 1, 1, 4]
00000000: 8cbe 063e 80a8 d1bc 8661 77be 05b3 80be
00000010: 1d76 8b3d 1b47 77be 0182 113e 5520 003e
00000020: 8155 9f3d 24e9 483e 7d35 9fbe f525 ce3d
00000030: b9fd ea3d 6517 6a3e ffab c0bd 3014 27be
00000040: d90f f03d 63b6 703e c0ef 93be 84a7 263c
00000050: 3b4c 72be 2eeb fe3d a2b8 5fbd ad7e 8abe
00000060: 05ed 50be 4565 463e b338 283e 17d9 a9bd
00000070: f92c d3bd 7056 41be b314 003e 689b 813e
00000080: 76e8 4bbe 72d8 8bbe dc19 893d 006d 7dbd
00000090: af07 cb3d 8bc7 77be 6da1 633d 0056 473e
000000a0: 67c8 68bd 2b94 273e 1d7a 043c 8578 41bd
000000b0: c11e 65bd 59f9 e83d 529a 053c d4f3 d53b
000000c0: ac3b 63bd 6adb a6bd 699b 0ebe 779b 48be
000000d0: 0661 e43d 3c06 143e 1aed 0b3e 90b0 94be
000000e0: 77f3 01be 55ba 403e 3a6c 253d 4843 97bc
000000f0: aeff 11be e53d 41be e264 d53d f523 b63d
00000100: 9599 31be f149 4dbe c351 363e 0de3 a93d
00000110: 4f33 05be ad72 023e ec5c 933e aebd 59be
00000120: f825 073e 68fe 0b3c 0b9a f23d e162 25be
00000130: 00b4 993d c255 27be b074 f1bd 214a 0fbe
00000140: 62a0 69be 9539 7fbe 101c 973c a039 8cbe
00000150: 4a79 81bd d851 64be 08c4 2f3e cf2b 623e
00000160: b83d 7c3e b332 87be ebcd f4bc b0ae d1bd
00000170: 8676 33be 0101 5f3e 1ea0 0d3e c8ed c1bd
00000180: c596 18be e7fe 493e 918f 38be 79ee 7d3d
00000190: 8124 0f3c 02f6 273e 9a7d 2b3e fc0b 82be
000001a0: c9a2 9ebe b8dc 4bbe fc03 59be 474d 103e
000001b0: 1907 a33d 8fdf 2cbe 4730 2a3e d38b 9d3c
000001c0: f027 efbd 4449 42be 1511 453e ae68 463e
000001d0: f5e3 463e 889d adbd 8a16 843e 5d23 89be
000001e0: 2803 04be 5712 0cbd 89b0 8fbd a354 1f3e
000001f0: 7493 1b3e e613 2fbe dac2 323e cf90 68bd
00000200: 8c0a 63be 039b 6fbe 6026 e03d ed2b 553e
00000210: 23a9 c3bd 61d5 91be 9fdc 72bd 576b fa3d
00000220: 4d03 68be b269 b43d 792b 3f3d e953 053e
00000230: 0001 d53b 162f 023e 15d1 5dbe 333f 57be
00000240: a593 c73d 0c5b 9ebe ec67 d9bd 9d08 973d
00000250: a9b2 9cbe 78a0 893e 6a2e e1bd 849e 033e
00000260: fc36 743a e4fc 183e 4560 dabd 6781 b33c
00000270: 5838 4dbe f279 16be 7c07 b63d 3292 c4bd
00000280: 5dea 44be a1ef f23d 37c8 5ebe c7d2 3c3e
00000290: 2d79 eabd 187e 6fbd b08e b03c a161 2c3d
000002a0: 2948 233d 18b6 343e 134f f23d b96a 86be
000002b0: 567f 673e 0086 10be 916d 4abe 17c3 7dbd
000002c0: 59bd 35be 604d da3a 525e 3a3e 6510 46be
000002d0: 24b7 7fbd 197a 853d b3af 17bd c660 34be
000002e0: 97bb 1f3b a268 03be 5882 6e3d f5dd 1a3e
000002f0: 2334 063e 6fa9 723e a865 c0bd 10cf 52be
00000300: e0cd 93bd 0cbb 9a3d 7b26 80be d8d2 aebd
00000310: e20a 523e 8dc6 89bb 8950 b43d 170d 46be
00000320: 7aa9 273e dcb5 08be 86c8 d93d f721 7bbe
00000330: fcc9 a0bd c228 26be 56d5 52be 04e1 2cbe
00000340: 65d6 323e f93f e13c ff7f 82be b670 083e
00000350: d623 5abe 58c3 313e 3e0c 6d3d e985 803d
00000360: 1025 65be 708e 1c3e 56db f8bd 19bb 12be
00000370: 4fda 9bbe aa4b 733d 8611 453e ac43 e53d
00000380: 63b2 33bd a0f9 85be 9c87 6d3e f9e1 2e3e
00000390: cec3 093d ab85 88be 416a ddbd 5a6a 8d3e
000003a0: b5c8 64bd f33f 333e 7e52 0ebe 15c1 45bc
000003b0: 5468 833e e2cf d6bd b0ce 67be a84c 2dbe
000003c0: 103b 84be 16af 34be b402 10be e404 c5bd
000003d0: 193d 00be c51e 513e e83c 11be dadd 013e
000003e0: b1d8 eb3d d511 373d 20fe 2fbe 4d79 c53d
000003f0: 5aeb 333d 2b2b 67bd 5ac3 a93c 6890 963d
0.13158625 -0.025593042 -0.24158296 -0.2513658 0.06809638 -0.24148218 0.14209749 0.12512334
0.077799805 0.19620186 -0.31095496 0.100658335 0.11474175 0.22860487 -0.09407806 -0.16316295
0.11721773 0.23507075 -0.28893852 0.010171775 -0.23661892 0.12447201 -0.05461944 -0.2704977
-0.20402916 0.19374569 0.16427879 -0.0829336 -0.10311312 -0.1888063 0.12507896 0.25313878
-0.19912896 -0.27313572 0.066943854 -0.06187153 0.09913575 -0.24197213 0.05557387 0.194664
-0.056831744 0.16365115 0.008085755 -0.047234077 -0.055937532 0.11375684 0.008154469 0.0065293107
-0.05547683 -0.08147319 -0.13926472 -0.19590555 0.11151318 0.14455503 0.13664666 -0.29040956
-0.1269053 0.1882108 0.040386416 -0.0184647 -0.1425769 -0.18871267 0.104196325 0.08893577
-0.17343743 -0.20047738 0.17804627 0.082952596 -0.13007854 0.12739058 0.2878183 -0.21263763
0.13198078 0.008544542 0.118457876 -0.16151 0.075050354 -0.16341308 -0.117898345 -0.13993122
-0.22815087 -0.2492431 0.018445998 -0.27387714 -0.06321962 -0.22296846 0.17164624 0.22087024
0.24632919 -0.26405868 -0.029883346 -0.10238397 -0.17525682 0.21777727 0.13830611 -0.09469181
-0.14901264 0.19726144 -0.18023516 0.061995003 0.008736731 0.16402438 0.16747132 -0.25399768
-0.3098357 -0.19908416 -0.21192926 0.14091979 0.07960338 -0.16882156 0.16619979 0.019231712
-0.11677539 -0.18973261 0.19244798 0.1937587 0.19422896 -0.08477312 0.25798446 -0.26784793
-0.12891829 -0.034197178 -0.07016093 0.1555963 0.15192968 -0.17097434 0.17457142 -0.056778725
-0.22171992 -0.23398976 0.109448195 0.20817538 -0.09553745 -0.28483108 -0.059292432 0.12227505
-0.22657509 0.08809222 0.046672318 0.1302029 0.0065003633 0.12713274 -0.2166179 -0.21020202
0.09744958 -0.30928838 -0.10615525 0.0737469 -0.30605057 0.2688024 -0.10995181 0.12853438
0.00093160546 0.1494022 -0.10662893 0.02191229 -0.20041025 -0.14694956 0.08888146 -0.09598197
-0.19230027 0.11862112 -0.21756063 0.1843978 -0.11448894 -0.05846986 0.021552414 0.042085294
0.03986374 0.17647588 0.118314885 -0.26253298 0.22607169 -0.14113617 -0.19768359 -0.06195363
-0.17748012 0.001665514 0.18200043 -0.19342192 -0.062430516 0.06517429 -0.037032794 -0.17615041
0.0024373287 -0.12832883 0.058229774 0.15123732 0.13105826 0.23697446 -0.093943894 -0.205868
-0.07217002 0.075552076 -0.25029358 -0.08536309 0.20511964 -0.0042045773 0.08804423 -0.19340931
0.16373244 -0.13350624 0.1063395 -0.24524675 -0.078510255 -0.16226485 -0.20589194 -0.16882712
0.17464598 0.027496325 -0.25488278 0.13324246 -0.21302733 0.17359674 0.057873003 0.06275541
-0.2237742 0.1528871 -0.1215121 -0.14329185 -0.30439994 0.05939833 0.19244966 0.11194548
-0.043871295 -0.2616701 0.23196262 0.17078389 0.033634 -0.2666448 -0.10811282 0.27620202
-0.05585547 0.17504863 -0.13898656 -0.01206996 0.25665534 -0.10488869 -0.22637439 -0.16923773
-0.2582631 -0.17644915 -0.14063531 -0.096200734 -0.12523307 0.20421894 -0.1418339 0.12682286
0.1151594 0.04469474 -0.17186785 0.09642277 0.04392562 -0.056437653 0.020723034 0.07351762

model_6/batch_normalization_7/batchnorm/sub f4 [128]
00000000: 5971 c0bd 997a 1dbf fc0c 90bc b141 a33e
00000010: 94f7 febd 4492 dcbd aa29 03bf 58c8 2abe
00000020: fa56 b13e 265b d43e 132a 413e c3ed b23e
00000030: f8db 4f3c cde7 b23e e0d1 2fbe c038 3cbd
00000040: 700e 80bc 3c45 bb3e 266d 01bf c877 4c3c
00000050: c3ac b6be a2f6 343f cef5 8f3e b07e 773e
00000060: c20b ac3e f431 acbe c6e4 8b3e b4fb d13e
00000070: 872d f23e 346f 6a3d a4e0 a9be c017 93be
00000080: 12c3 8bbe 1676 7ebe bfb6 ae3e a810 fd3e
00000090: 0f2e 2fbf 13d7 2d3d a8ce e1be 76c8 a33e
000000a0: 937e 11be d53b cb3e 2cb8 8abe 6046 b2bb
000000b0: 6cff 2f3e 5b96 d8be 3e6f 72be 8bad 2bbd
000000c0: f91b fa3d 6139 dfbe 4ac2 ae3e dd22 36be
000000d0: f669 ff3d fc5b 38be ad50 a23e 5ed2 cc3e
000000e0: 9a91 a23e e6ed 903e a983 683e efbb 993d
000000f0: 3644 8c3e 9034 fe3e 68ce 13bf 4912 863e
00000100: fc8d f43d bbc5 95be 302b 10bf 4d47 1ebf
00000110: 2031 a0be bbe5 9dbe dfa3 c23d ecf8 e53d
00000120: 649e 163e ca35 a3bd 09c5 5ebe 70ea 683e
00000130: 1734 68be 2e20 e73d 15ac a8be e482 d4be
00000140: 9655 f4be 30c7 5d3c 84b5 bcbe a39b b13e
00000150: dca2 70be 1ed4 8fbe 2e5a 863e 623a 51be
00000160: 9981 be3d 84cc 5c3e 788a fc3c 004a 47be
00000170: 9047 03bf bae7 fabe 6152 063f a8d3 b5bc
00000180: 1ac5 013e 19cd 1a3d 179e ce3d 7e85 aa3e
00000190: 1249 693e 2697 b7be 1184 c1be d28b 5dbe
000001a0: fbaf 0abf 6d61 d23d a8f9 e93c d16b 40be
000001b0: bcae c9bc bfb2 ca3e 965f c73d 39b6 d03e
000001c0: da38 24be b638 203e 32cc 97be 86d1 f03d
000001d0: e2a1 71be dc3a d33d ccce dbbe e40a 6dbd
000001e0: 72e7 cb3d 0a9f 2fbe 733c 853d c2e2 943d
000001f0: f6e7 073e 1836 f3bc 5cf4 303e 2980 21be
-0.09396619 -0.61515194 -0.017584316 0.31886056 -0.124495655 -0.107700855 -0.5123545 -0.16677988
0.3463667 0.4147579 0.18863706 0.34947023 0.012686722 0.34942475 -0.17169905 -0.04595256
-0.015631884 0.3657626 -0.5055717 0.01247973 -0.35678682 0.7068883 0.28117222 0.24169421
0.3360272 -0.3363186 0.27322978 0.41012347 0.4730036 0.057234958 -0.331792 -0.28729057
-0.27297264 -0.24849734 0.341238 0.4942677 -0.68429655 0.04244144 -0.4410298 0.31988877
-0.1420844 0.39694086 -0.27093637 -0.0054405183 0.1718728 -0.42302212 -0.23675248 -0.04191355
0.122123666 -0.43598464 0.34132606 -0.17786737 0.12471382 -0.18003839 0.31702176 0.40004247
0.3175171 0.28306502 0.22706474 0.075065486 0.2739579 0.49649477 -0.57736826 0.26185825
0.11941144 -0.2925242 -0.563159 -0.61827546 -0.3128748 -0.30839333 0.09503912 0.11229119
0.14708859 -0.07969244 -0.2175485 0.22745681 -0.2267612 0.11285435 -0.32943788 -0.41506112
-0.47721547 0.0135362595 -0.36857235 0.34689054 -0.23499626 -0.2809152 0.26240677 -0.20432428
0.093020625 0.21562392 0.030827746 -0.19461823 -0.5128107 -0.49004918 0.5246945 -0.022195652
0.12672845 0.037793253 0.10088747 0.3330497 0.2278178 -0.35857505 -0.3779607 -0.21635368
-0.54174775 0.10272489 0.028561428 -0.18791129 -0.024619453 0.39589497 0.097350284 0.40764025
-0.16037312 0.15646634 -0.29647976 0.117587134 -0.2359691 0.10313961 -0.4293121 -0.057871714
0.09956254 -0.17150512 0.065056704 0.07269813 0.1327208 -0.02968888 0.17280716 -0.15771545

model_6/batch_normalization_7/batchnorm/mul f4 [128]
00000000: 4f55 8140 1834 2440 42dc 0b40 030d b53f
00000010: 75fe bc40 13f1 5240 3107 4540 a851 2d40
00000020: 8a79 1a40 7f74 6f40 a266 9640 4dc9 0540
00000030: 2fcd 4840 5936 8e40 f415 7640 a773 0840
00000040: 84dc 4440 a947 f640 b9d0 cb40 3b8d 1240
00000050: a6cb 3640 9ab0 ad40 ea5a 1b40 8ca7 1840
00000060: b434 7940 77f5 1140 5e13 4840 8434 1540
00000070: dd2b df3f dc3e ac40 02b7 4440 a693 0d40
00000080: 91b0 2040 7f27 8340 768e 1940 5ce6 4340
00000090: e6c2 8640 77a9 4640 ed48 1f40 b261 2a40
000000a0: 1385 6640 845f 0e40 6846 e340 5f88 d03f
000000b0: 809c 7640 15d7 0640 eab7 b840 d043 7740
000000c0: c722 3340 de4c df3f 5136 1340 bfac a040
000000d0: b978 5a40 df04 6440 8383 3d40 d6b9 8740
000000e0: c3c2 aa40 6956 aa40 afd6 d23f 4912 6740
000000f0: 6a64 ce3f e6b7 9640 075e ab40 53fc 4540
00000100: a42b 8540 7d81 0940 f43d d23f 8ef3 0840
00000110: c1fa 1b40 b62e 8a40 d885 cc3f bb07 6c40
00000120: 31b3 3540 6f41 1640 bfb5 2740 3d95 3f40
00000130: 831f 6440 417e 5040 03bc a140 14e9 4740
00000140: aa54 f83f 29d3 c53f 08b0 5040 cbbe 0740
00000150: 06ce 0f40 6215 b140 bcec d33f 41aa e13f
00000160: 69cf 5440 cfe5 ba3f 72e9 8b40 468f ba3f
00000170: 35ed bd40 d8ee 7340 1c00 2040 82ae 7040
00000180: a445 5240 d753 1340 59b1 3640 9e8a cc3f
00000190: e6a2 963f b542 5740 e73e 4340 6fab f83f
000001a0: 45c8 3a40 b007 9140 0aa3 a540 af35 9e40
000001b0: 9b27 ca3f 9937 ac40 18f3 0640 0466 8140
000001c0: b3e6 7b40 da1d a740 322d 7d40 7bf7 9640
000001d0: 3474 8940 11df 0740 dace 5140 bf04 9a40
000001e0: 5bd8 a73f af6b 7940 e4f5 0f40 2352 f73f
000001f0: b5af 1a40 82b6 0040 3557 2940 656a 3040
4.0416636 2.5656796 2.1853185 1.4144596 5.9060616 3.295964 3.078564 2.708109
2.4136682 3.7414854 4.7000284 2.0904114 3.1375234 4.444134 3.84509 2.1320589
3.0759592 7.6962476 6.369229 2.28987 2.8561797 5.427808 2.427424 2.3852262
3.8938417 2.280607 3.126182 2.3313303 1.7435261 5.3826733 3.07367 2.2121367
2.5107768 4.0985713 2.3993201 3.060935 4.2112913 3.1040933 2.488826 2.6622128
3.6018722 2.2245798 7.1023445 1.6291617 3.853302 2.1068776 5.7724504 3.863514
2.7989976 1.7445333 2.3001902 5.021087 3.4136183 3.5627973 2.9611518 4.241435
5.3362746 5.323048 1.6471766 3.610491 1.6124394 4.7099485 5.355228 3.0935256
4.161577 2.1485283 1.6425157 2.1398654 2.4371798 4.318202 1.5978346 3.6879718
2.839062 2.3477437 2.620468 2.9934838 3.5644233 3.257706 5.0542006 3.123601
1.9400837 1.5455066 3.260744 2.12102 2.2469497 5.53386 1.6556621 1.7630082
3.3251593 1.4601382 4.3722467 1.4574974 5.935206 3.8114529 2.5000067 3.760651
3.2855005 2.3019922 2.8545744 1.5979803 1.1768463 3.3634465 3.0507143 1.9427317
2.9184735 4.5321884 5.176152 4.944053 1.5793337 5.381787 2.1085873 4.043703
3.9359558 5.222394 3.9558835 4.71771 4.295435 2.12299 3.2782502 4.8130794
1.3112901 3.8971975 2.249383 1.9321941 2.4169743 2.0111394 2.6459477 2.7564938

model_6/batch_normalization_6/batchnorm/sub f4 [64]
00000000: afaa 9739 5d8b 9abf e42d c0bf c837 abbf
00000010: 1d45 8abf 70f7 f7bb 1785 a5bf deb8 90bf
00000020: d4da 5aba 463b a7bf 6881 adbf 80d3 a7bf
00000030: 9d05 c4bb ce04 b0bf 7fa6 9dbf 0506 7339
00000040: 2770 023b c02f 99bf b7af c0bf 8ce6 a3b9
00000050: 1410 f33b 72ed adbf e3dc edbb a1df 98bf
00000060: f49c babb 921c 9ebf 089d 6abd ddef d0bf
00000070: ffc9 c0bf 39e5 a8bf d381 2dbb 76f8 e5bf
00000080: aa3d 603c 86ce a7be 360d abbf 061b e038
00000090: 4c05 14be 089b d7bb caa8 eabf a063 d03b
000000a0: b572 53bb b127 033b d541 a3bf 1df3 ebbb
000000b0: 493b 58bb 7628 813b 3ea8 b1bf e56d 87bf
000000c0: 312b 43ba 6eb3 b2bf 3103 133b 4a1c e63c
000000d0: 8650 9fbf 8d18 a9bf ebda 86bc 3eb0 a2bf
000000e0: cd6c 9bbf dfcc 053c 5284 acbb e550 67bb
000000f0: 4076 ca3b 3b92 a0bf 2fbe a2bf 76ad bdbf
0.00028928134 -1.207378 -1.5014005 -1.3376398 -1.0802342 -0.0075673386 -1.2931241 -1.1306417
-0.0008348648 -1.3064964 -1.3555117 -1.311142 -0.0059821145 -1.3751466 -1.2316436 0.00023176528
0.0019903274 -1.1967697 -1.5053624 -0.00031261554 0.007417688 -1.3588088 -0.0072589978 -1.1943246
-0.00569498 -1.2352469 -0.057278663 -1.63232 -1.5061644 -1.3194953 -0.0026475086 -1.7966449
0.013686577 -0.32774752 -1.3363407 0.00010686186 -0.14455146 -0.0065797605 -1.833276 0.0063595325
-0.0032264416 0.0020012672 -1.2754465 -0.007200612 -0.003299432 0.003941591 -1.3879468 -1.0580412
-0.00074450957 -1.3961008 0.0022432322 0.028089661 -1.2446449 -1.3210617 -0.01646181 -1.2710035
-1.2142578 0.008166521 -0.0052647972 -0.003529602 0.0061786473 -1.2544626 -1.271429 -1.4818561

model_6/batch_normalization_6/batchnorm/mul f4 [64]
00000000: 72fb fc41 3b27 ac41 77b1 c541 74ff be41
00000010: 9204 c741 f3f9 fc41 c755 cb41 6c81 ba41
00000020: 72fb fc41 01a6 af41 8019 c341 3a78 c041
00000030: 72fb fc41 7d92 b141 fe89 cd41 dcf8 fc41
00000040: 72fb fc41 9488 c141 f3f2 b141 72fb fc41
00000050: 72fb fc41 49e4 ba41 5ef3 fc41 c7d6 bd41
00000060: 67fb fc41 b22c b841 f438 0542 d6bc b041
00000070: c824 b941 3a6f ad41 2bfb fc41 4d10 b841
00000080: bcef fb41 ebdd cb41 83ac d541 72fb fc41
00000090: 50f0 c741 d123 0942 39d9 bc41 72fb fc41
000000a0: d8f7 fc41 6efb fc41 b4d3 b841 34fa fc41
000000b0: c1f5 fc41 dcf8 fc41 1785 b541 4c3f bc41
000000c0: 72fb fc41 b0ce ac41 f24b fd41 72fb fc41
000000d0: e82c c241 36a0 cd41 cffa fc41 e790 cf41
000000e0: b832 b841 0dfa fc41 12fa fc41 72fb fc41
000000f0: 72fb fc41 98e6 ce41 1b74 c141 8139 c441
31.622776 21.519156 24.711653 23.874733 24.877232 31.622046 25.416883 23.313194
31.622776 21.956057 24.387451 24.058704 31.622776 22.196527 25.692379 31.621513
31.622776 24.191689 22.243628 31.622776 31.622776 23.361467 31.618832 23.729872
31.622755 23.021824 33.30562 22.092205 23.14296 21.67931 31.62264 23.00796
31.492058 25.483358 26.709234 31.622776 24.99234 34.284977 23.606066 31.622776
31.621017 31.622768 23.10337 31.62217 31.619997 31.621513 22.689985 23.530907
31.622776 21.600922 31.662083 31.622776 24.271927 25.703228 31.622465 25.945753
23.024765 31.622095 31.622105 31.622776 31.622776 25.862595 24.181692 24.528078

model_6/dense_12/BiasAdd/ReadVariableOp f4 [4]
00000000: 4b71 dd3d 7570 d73d aa59 e03d 6340 da3d
0.108126245 0.10519496 0.10954602 0.10656812

model_6/dense_11/BiasAdd/ReadVariableOp f4 [128]
00000000: 6967 893c 5a0c 8fba d0f4 bc3d 5242 ecbd
00000010: 07a7 683b f46e 22be b558 033e ac0f 3f3c
00000020: 7dca dcbd 9710 303d 8fe0 dfbd 3c6d b33d
00000030: 9d2d 0d3d 58b5 3bbe 2f1e b3bd a417 cbbe
00000040: 4066 cdbd d225 17bc 917f 1fbd af97 6cbe
00000050: 5aef 2cbd 4c8c 183c 2c66 a6bd 7865 03bd
00000060: 8a97 0dbe 5e02 b4bb 7c99 4fbd 9fae 72be
00000070: 2522 acbd d646 14be 25a5 4fbd 0306 943d
00000080: d9f9 5dbd 1ad5 53bc 18a3 953d e369 b53d
00000090: bc3d b23d cc0f f93d 6b31 5b3d 9575 c8bc
000000a0: 70b4 38be 3957 b93d 1c3e 82bb 9829 90be
000000b0: 3cc0 043d 1cc1 25be fc43 cfbd f676 5dbd
000000c0: 2468 963c 991d 02bc eb40 073e ef94 9abd
000000d0: c409 2cbc da81 013d 5235 4cbd 8b7a 98bd
000000e0: 1068 91bd 75f6 c63b 046c cc3c 1044 7b3d
000000f0: 9836 e03c 6879 4e3d 9cf3 b8bd b73f 22be
00000100: add4 43bd f8ec 9bbc 1152 70bc 1bae a63d
00000110: 9187 06be 57c6 b5bc fe8d 9ebc ecf3 bd3d
00000120: 0321 283e c0cb 343d 6e5b 0abd c0cb 073d
00000130: a646 393c 6706 593d b566 f3bb 0501 88be
00000140: 3eac a83d e665 20bd 3ee6 9fbd eb06 193d
00000150: 9e45 b1bd 3d5a ecbb f211 bdbc 5d3b 1bbe
00000160: a478 703d 3750 68be 8250 30bd 4bd8 e8bc
00000170: b6d5 be3c 1f8b c73c 2a4f 35be 4476 dabb
00000180: 01f5 12bd 0e90 973d 684c 523d 1600 43bd
00000190: 484b a2be be6d 4dbd 6cee fe3d 2df3 b03c
000001a0: 7547 813c f5e0 ccbc 8b86 583c e7cf d03c
000001b0: 3e76 023e 5b5b f03d 05d3 f73c 6a97 ba3b
000001c0: fa20 4b3d 9660 823d fa28 3d3d 6dee 263d
000001d0: 2da3 303d f476 1f3d cf11 543c c2c4 863d
000001e0: 8ef5 823a db47 3d3d 8660 8b3d 4481 62bd
000001f0: e542 4a3c 725a 2a3d 8405 763d 6afa bb3d
0.016772943 -0.0010913715 0.09226382 -0.11536087 0.0035499947 -0.15862638 0.12826808 0.011661451
-0.10780809 0.04298457 -0.10931503 0.08761069 0.03446733 -0.18330896 -0.087459914 -0.39666474
-0.10029268 -0.009225326 -0.038940016 -0.23104738 -0.04222045 0.009310793 -0.081249565 -0.03207919
-0.13827339 -0.0054934463 -0.050683483 -0.23699425 -0.0840495 -0.14480147 -0.050694603 0.07227709
-0.05419335 -0.012929225 0.07306498 0.08858087 0.08703181 0.12161216 0.053513926 -0.02447013
-0.18037581 0.090498395 -0.003974689 -0.28156734 0.03240989 -0.16186947 -0.10120389 -0.054068528
0.018360205 -0.007941627 0.13208358 -0.07547938 -0.010500375 0.031617977 -0.049855538 -0.07445248
-0.070999265 0.0060718604 0.02495385 0.061344206 0.027369782 0.05040875 -0.0903084 -0.15844618
-0.047810245 -0.019033894 -0.014668004 0.08138677 -0.13137652 -0.022189302 -0.019354817 0.0927504
0.16418843 0.044139624 -0.0337786 0.033153296 0.011308348 0.05298462 -0.007428015 -0.26563278
0.082359776 -0.039159678 -0.07807587 0.037360113 -0.086558565 -0.0072129057 -0.023079846 -0.15159364
0.058708802 -0.2268685 -0.04304553 -0.028423449 0.023295265 0.02435833 -0.1770598 -0.0066669304
-0.035878185 0.07400523 0.051342398 -0.047607504 -0.3169806 -0.050153486 0.12447819 0.02160033
0.015781144 -0.025009612 0.013215671 0.02548976 0.12740418 0.11736175 0.03025199 0.0056943195
0.049591996 0.063660786 0.046181656 0.040754724 0.043124367 0.038931802 0.012943699 0.06580497
0.0009991394 0.046211105 0.0680552 -0.05529906 0.01234505 0.04159016 0.060063854 0.09178622

model_6/bidirectional_6/forward_lstm_6/Read_2/ReadVariableOp f4 [256]
00000000: 0c2d 193c c2a6 f0bd 4710 aebc c449 eb3d
00000010: 6689 05be 398c b6bd 2764 0c3e 482c 25bd
00000020: 1dc8 6b3c 3a37 08bd 599b 19bd d7db 96bc
00000030: c815 26be 747c e3bd 30eb 5dbd 722f 90bd
00000040: 4e5c dd3d ec28 8cbd 2425 c0bc 4222 863d
00000050: 4e5f 08bc 1874 343b 000e 73bd 753b 8bbd
00000060: c01f d0bd 1d13 c4bd 2dfa f2bd 8da9 31bd
00000070: 4909 d83c 0fd1 dcbd b7ed 813b bbc7 eb3c
00000080: 803d 1dba 2145 10be 5875 b33c d0f0 183b
00000090: 79b3 843c 7340 b8bc b925 b83d 7832 523b
000000a0: 3aba 60bd d298 21bd a798 98bd 337a a7bc
000000b0: 78be a2bd 1eb8 1f3e b684 e7bd b3c9 9fbb
000000c0: db2b 0e3c 4f78 eebc 008b f6bc 5080 383d
000000d0: 8b92 edbd 2fb6 213c 4fa2 13be 4815 36be
000000e0: 11ba b8bd 7d74 98bd 5f24 c93c f45a 6abd
000000f0: d149 f03c 6a1b 1cbd 4903 e73c aa68 eabc
00000100: 2395 863f 8cd9 733f 4496 5d3f a0e7 8a3f
00000110: 08ba 653f 271b 673f 59dd 863f 8a11 833f
00000120: d754 843f f9d0 8b3f 2053 753f 4aec 7f3f
00000130: 2b6c 5f3f c95a 6b3f d945 6b3f 5569 7d3f
00000140: 8e2b 8b3f 0b26 653f 6ce9 5f3f 469a 813f
00000150: a815 7f3f d0ab 8c3f 1d9b 853f a09a 603f
00000160: ff6d 7c3f 7880 873f 8986 553f b54d 703f
00000170: 6adb 813f 8744 623f da0c 873f d193 753f
00000180: 86e8 863f 3c8a 203f 97c7 643f 2b78 8f3f
00000190: 8588 723f f1ac 8b3f 2247 8a3f 8742 7e3f
000001a0: 71b1 703f d41b 7b3f b944 673f 380f 823f
000001b0: fd10 743f b994 9a3f d60e 793f 6960 853f
000001c0: 86d3 863f 2096 7e3f 446f 5d3f 071f 853f
000001d0: ca65 663f 40ed 843f 83c6 473f 7d6b 6d3f
000001e0: 4049 6e3f 6de7 713f 0962 7b3f 5897 703f
000001f0: 1a23 7f3f 5fc9 783f 1e9b 793f df5a 7c3f
00000200: 3d65 993c dfac a33c 3f59 d7bd 2557 cb3d
00000210: 49d5 ce3c be4c 06bc 57b1 9c3d e69c ccbd
00000220: 6d32 90bb 7e1b b0bc f1d0 e93c 68a6 123e
00000230: fae5 0fba 81b7 5abd fd81 3bbd 8dc9 71bc
00000240: 69be 0ebd 49a8 51bd 0e0c 773d 1117 42bc
00000250: e99b abbc 823a c1bd 3666 dfbc 89a7 9c3d
00000260: da64 f53c fd62 aa3c e977 123d 61b4 4bbd
00000270: f22f 91bc 5d2d 84bd f6c9 ca3d 3339 35be
00000280: de12 83bd bfe9 2bbd 230e e73d 0fcf eabd
00000290: 4592 dc3d d187 51bd 3e62 7c3d 9fe4 513d
000002a0: cbc1 64bd 4f15 713b f2b1 df3d 7b41 a33d
000002b0: 9ffe 933d a3b2 a23d fe83 12bd 8b4e 94bd
000002c0: cf85 d33d fc00 b2bd 2c4e 763d 1bf9 c8bd
000002d0: 9445 2dbe c907 0c3d 495b 7e3d fd48 b03c
000002e0: 5d0e 8d3d 242f a0bd 482d 123e de59 06be
000002f0: 8aae 873d 5233 6abd a1aa fc3d 4962 b6bd
00000300: 396b 35bd 7b4b 3abd 1baf 9ebc c6c4 853d
00000310: 3422 4dbe a379 bcbd 14e9 c13c 83a9 cbbc
00000320: 52c2 a0bb 5708 0bbe 64b2 9aba d1b7 8abc
00000330: bc04 94bd 20a2 8abd 1f13 91bc cb82 83bd
00000340: 5aa0 e53d faa4 b9be e985 1cbd 7847 bcbc
00000350: b1ee 86bd ed7d 25be fd9a 2abd 2fbb c2bd
00000360: 4c70 66bd 6641 2ebc d460 fdbd 3d96 41bd
00000370: 9d98 183d dd5e 0fbe 83b9 073c 8b9e e83c
00000380: 2ae8 8fbc 4fa9 1bbe d0c0 8d3d 29da cdbc
00000390: 991f 02be 8c73 1bbc 5500 8f3c ddc6 86bb
000003a0: 5024 4fbd e46b 04bd d915 f8bd 759c 22bc
000003b0: c40d 3a3b 036d 243e 7972 bebd 768b 2bbd
000003c0: 4306 e93a 2e01 fb3c 2770 7b3a d6cf babc
000003d0: 6056 47bd 4400 cbbd 754b 07be b6f9 2fbd
000003e0: 2a55 acbd 1627 8ebd 295a 3b3d 809b a2bd
000003f0: b3e2 90bb 1cbe c5bd 5c2f 9abb 380f 48bd
0.009349119 -0.117505565 -0.021247996 0.11488679 -0.13040695 -0.08913464 0.1371008 -0.040325433
0.014390972 -0.033255793 -0.037501667 -0.018415375 -0.16219246 -0.11107722 -0.05417937 -0.070402995
0.10808621 -0.06843743 -0.02345521 0.06549503 -0.008323504 0.0027535018 -0.059339523 -0.0679845
-0.10162306 -0.09573958 -0.118641235 -0.043374587 0.026371615 -0.10782062 0.0039651054 0.028781762
-0.0005998239 -0.1408887 0.02190654 0.0023336895 0.01619886 -0.02249167 0.0899157 0.0032073539
-0.0548651 -0.03945238 -0.07450991 -0.020444011 -0.07946485 0.15597579 -0.113046095 -0.0048763393
0.008677448 -0.029110102 -0.030095577 0.045044243 -0.116002165 0.009870096 -0.14417385 -0.17781556
-0.09019864 -0.074440934 0.024553476 -0.057215646 0.029332073 -0.03811208 0.028199809 -0.02861436
1.0514263 0.95253825 0.8655741 1.0851936 0.89736986 0.90275806 1.05363 1.0239727
1.0338391 1.0923148 0.95829964 0.99969923 0.87274426 0.919354 0.91903454 0.9898885
1.0872667 0.89511174 0.8746555 1.0125206 0.9964242 1.0989933 1.0437962 0.8773594
0.9860534 1.058608 0.8340841 0.9386857 1.0145085 0.88385814 1.0550797 0.95928675
1.053971 0.6271093 0.8936705 1.1208547 0.9473956 1.0912153 1.0802958 0.9932026
0.94020754 0.9808934 0.9033924 1.0160894 0.9533842 1.2076637 0.9728826 1.0420047
1.0533302 0.9944782 0.864979 1.0400094 0.8999907 1.0384903 0.7803728 0.9274214
0.9308052 0.9449375 0.98196465 0.9398093 0.99662936 0.9718227 0.97502315 0.9857616
0.018725032 0.019979892 -0.10515069 0.09928731 0.025248187 -0.008197008 0.076510124 -0.099908635
-0.0044005425 -0.021497484 0.028542014 0.14321291 -0.0005489286 -0.05339766 -0.045778263 -0.014757526
-0.034849558 -0.05118588 0.06031423 -0.01184632 -0.020948367 -0.094349876 -0.027270418 0.07649142
0.029955316 0.020799154 0.035758886 -0.04973257 -0.017723057 -0.06453965 0.09901802 -0.17697601
-0.06400083 -0.041970965 0.11281993 -0.114652745 0.10770086 -0.051154915 0.06161713 0.05124342
-0.055848878 0.0036786383 0.10922612 0.07971474 0.072262995 0.079442285 -0.03577041 -0.072415434
0.10328256 -0.08691594 0.060133144 -0.09813138 -0.16921073 0.034187112 0.062098775 0.021519179
0.06887505 -0.07821491 0.14275086 -0.13120219 0.066250876 -0.05717785 0.123372324 -0.08905465
-0.04429171 -0.04548214 -0.019370606 0.06531672 -0.20032579 -0.09202888 0.02367071 -0.024861103
-0.0049059773 -0.135774 -0.0011802432 -0.016933354 -0.072274655 -0.06769204 -0.017709313 -0.06421431
0.11212225 -0.3625868 -0.038213644 -0.022983298 -0.065884955 -0.16161318 -0.041651715 -0.09508359
-0.05625944 -0.010635709 -0.12371984 -0.04726242 0.03725492 -0.14001031 0.0082839755 0.028395912
-0.01756676 -0.15201305 0.06921542 -0.025128441 -0.12707366 -0.009487998 0.017456213 -0.004113062
-0.05057174 -0.032329455 -0.12113542 -0.009924998 0.0028389553 0.1605721 -0.09299178 -0.041881047
0.0017778355 0.030640211 0.0009591602 -0.022804182 -0.048666358 -0.0991216 -0.13212378 -0.042962752
-0.08414681 -0.06941049 0.04574028 -0.079398155 -0.004421556 -0.09655401 -0.0047053527 -0.04884264

model_6/bidirectional_6/backward_lstm_6/Read_2/ReadVariableOp f4 [256]
00000000: a264 73bb b42c 1bbd 3224 78bc 6568 39bd
00000010: ec5e 873d d84f 0abe 60e7 b7bd 4ec5 dabb
00000020: aef8 22bd a4da af3c 7f5b 14be e690 86bc
00000030: ccad 64be 212d 25bd cce7 88be 29f4 cdbd
00000040: 0585 673c 082d 45bb 42b4 3dbd 1fed c0bd
00000050: bfd7 05bd fb23 76be 376e b43c 783b fa3b
00000060: 4e43 8bbd 7100 833d cc2b 59be 2d37 00bd
00000070: b428 5cbe 331e 49be 13c5 273e 1b1c c8bd
00000080: 92a9 5ebd 061e 8fbd 37e1 1abe b243 9a3d
00000090: 4cb2 f33d 1a61 09bc e747 b43b f191 9fbb
000000a0: 602f c7bd 7609 00be f9ad 0bbe ada3 edbd
000000b0: a9cd 03be 53e0 f7bd 03ed 2cbd bec1 75be
000000c0: 63fc 6cbd fbf8 b0be 097e c4bd 08ba 88be
000000d0: d174 aebe b2eb 0ebd 02af 0ebe 0c11 5abe
000000e0: 718e 503c 19c3 47bd c827 d83d d9b1 203d
000000f0: ccad e2bd dccc 55bd 5ed9 f8bc 24c8 14be
00000100: cbf9 883f 485e 8b3f 7a67 973f cdae 913f
00000110: a19e 943f 36e0 723f 0e0b 843f b1e0 8a3f
00000120: 8a2d 893f 65e1 943f c09c 7b3f 39d5 8d3f
00000130: d980 713f 7e1c 8a3f 5934 473f 5b60 753f
00000140: e1b0 943f 4ec8 933f 8ea8 8e3f 1c66 873f
00000150: 3a1a 7f3f 2764 593f a77f 8d3f 1b9e 873f
00000160: 8864 8a3f 72bb 923f 560e 7f3f 808e 893f
00000170: a831 663f 89b7 5c3f 86ef 943f 06d4 883f
00000180: 3347 853f 8364 913f 8aa7 823f 8321 993f
00000190: 4ba2 8f3f 110a 7e3f 9372 8c3f 4ec7 883f
000001a0: 0b71 8f3f 53cf 833f 0946 823f abf5 853f
000001b0: 7381 643f 10a3 7a3f 4006 8f3f c7a4 7d3f
000001c0: f914 873f a746 773f 9881 7f3f 992f 653f
000001d0: b081 6b3f d953 8c3f 5145 8a3f 7fe6 553f
000001e0: c85c 883f 9a96 8f3f da45 9c3f 84b3 923f
000001f0: 8d16 863f d9c3 923f 1fb2 813f fa78 6d3f
00000200: a7ed 49bd 2c0c ad3c ea75 9cbd 085a 3d3d
00000210: ca32 afbc 5f23 743d 5c30 5f3d d3d4 523b
00000220: ffa5 8ebc 35d3 3d3d c687 42bc bbb0 463d
00000230: 79e9 8fbc 48d3 afbd a5ef 983d 4cc6 7c3c
00000240: daae 09ba ee0a f7bd fac7 943c 6329 d6bd
00000250: 411b cf3c ac71 6d3c 51e8 ecbc 3c91 843c
00000260: cf7d 813b fca3 4b3d aae4 ef3c 5ddf 98bd
00000270: c118 f83d 9d68 21bd 49ca 75bd 6b5e 5ebd
00000280: a2a5 01bd 9d39 b0bd ea4a a83d f39c b23c
00000290: 5d7c 95bd 1322 513c fd55 203d a204 d6bb
000002a0: 8985 e93d 1a0c 863c 2f54 0f3d 8805 4a3c
000002b0: 4b62 e0bd 74e1 f2bb bd37 ccbd 71b7 04be
000002c0: 078e 313d b75f b83c d129 07bd 95e4 84bd
000002d0: 041d 1f3d 8f25 833d aebd 393c ac0d db3d
000002e0: e5be aabd f9d0 1e3d c8cc 783b b6a8 c53b
000002f0: 97be d7bc ecdb cc3c 23ee a5bd 64a8 1bbe
00000300: cfe4 6dbc 7ca5 083d c06c b43d b406 4a3d
00000310: 8cf9 403d b191 a3bd 162b b4ba 234b 26bc
00000320: 2fdf 77bd 5ff5 113d e626 f0bd df88 fabb
00000330: f790 a9bd 9192 a9bc 0d95 53be 9498 823d
00000340: 1227 be3d 95f7 2a3b ce32 a2bc 5bf6 c13d
00000350: 1ad0 0d3b e83f 0ebe 710d b03d d05d b33d
00000360: 0eee 8fbd a119 b73d 62c2 99be 9cff 573c
00000370: 9843 e7bd 5794 13be cb51 0f3e 73bd cebc
00000380: b72b b8bd 8f3d 68bd a097 9cbd c615 063e
00000390: c697 b33d 8924 26bb 52c2 fabd bec5 963d
000003a0: a658 2b3d a393 d4bd 6a2f 56be 6fcc 12be
000003b0: 7fb5 03bb d592 39be 8082 66bd f154 14be
000003c0: 8821 eebd c8cc 0dbe 2165 b0bd 9f29 30be
000003d0: 4923 cdbd 4c35 78bd 5486 a3bd 1f7e 81be
000003e0: b773 ba3c 10e4 e5bd 540a f93d 1c92 003e
000003f0: 6be5 88bd c454 f93c 54c6 a43b 208d 60bd
-0.003713884 -0.03788443 -0.015145348 -0.045265574 0.06609902 -0.1350702 -0.08979678 -0.0066763526
-0.03978794 0.02146656 -0.14488028 -0.016426515 -0.22331923 -0.04032624 -0.26739347 -0.100563355
0.014130835 -0.0030086655 -0.046314485 -0.09420227 -0.032676455 -0.24037163 0.02202521 0.0076364838
-0.06799947 0.063965686 -0.21208113 -0.03130262 -0.21499902 -0.19640426 0.16383772 -0.09770986
-0.054360934 -0.069881484 -0.15124975 0.07532443 0.11899242 -0.008384967 0.0055017355 -0.0048696925
-0.09725833 -0.12503609 -0.13640584 -0.11603484 -0.12871422 -0.12103333 -0.04221822 -0.23999688
-0.057857882 -0.34564957 -0.09594352 -0.2670443 -0.340735 -0.034892745 -0.13933948 -0.21295565
0.012729273 -0.048770044 0.10554463 0.03923211 -0.110683054 -0.052197322 -0.030377086 -0.14529473
1.0701231 1.0888147 1.1828454 1.138147 1.161091 0.9487337 1.0315874 1.084982
1.0717022 1.1631285 0.98286057 1.1080695 0.9433723 1.0789945 0.7781425 0.9585015
1.1616479 1.1545503 1.1145189 1.0578036 0.99649394 0.84918445 1.1054581 1.0595125
1.081193 1.1463454 0.9963125 1.0746613 0.8991952 0.8621755 1.1635597 1.0689704
1.0412353 1.1358799 1.0207379 1.1963352 1.1221403 0.9923411 1.0972465 1.0685823
1.1206373 1.0297645 1.0177623 1.0465597 0.89260024 0.97905064 1.1173782 0.99079555
1.0553275 0.9659218 0.9980712 0.89525753 0.9199476 1.0963088 1.0802404 0.83554834
1.0653315 1.1217835 1.2208817 1.1461034 1.0475632 1.1466018 1.0132483 0.9276272
-0.04929891 0.021123968 -0.07639678 0.04622844 -0.021386523 0.059604045 0.05448948 0.003217031
-0.017413137 0.046344 -0.011873191 0.048508387 -0.017567383 -0.085852206 0.074675836 0.015428137
-0.000525219 -0.120626315 0.018161763 -0.10457113 0.02528155 0.0144924335 -0.02891937 0.016182534
0.003951765 0.049716935 0.02928384 -0.07464478 0.121140964 -0.039406408 -0.060007367 -0.054289263
-0.0316521 -0.08604739 0.08217414 0.021803355 -0.07299111 0.012764472 0.039144505 -0.006531314
0.11402423 0.016363192 0.034992393 0.01233042 -0.10956248 -0.00741213 -0.09971569 -0.12960602
0.04334834 0.022506578 -0.032998864 -0.06488911 0.03884603 0.06403648 0.011336727 0.10695967
-0.083371915 0.03877351 0.0037963856 0.006032075 -0.026335998 0.02500721 -0.081020616 -0.15200955
-0.014519884 0.033360943 0.08809805 0.0493228 0.047112986 -0.07986773 -0.0013745751 -0.01014975
-0.06051558 0.035634395 -0.11726169 -0.007645711 -0.08279603 -0.020699771 -0.20662327 0.06376758
0.09284796 0.0026087512 -0.019799616 0.09470817 0.002163893 -0.13891566 0.08596314 0.08758128
-0.07027827 0.08940435 -0.30031115 0.013183501 -0.11292189 -0.14412056 0.13996045 -0.02523682
-0.08992713 -0.05669933 -0.07646108 0.13094243 0.08769183 -0.0025351366 -0.12244095 0.07361935
0.04183259 -0.10379722 -0.20916525 -0.14335798 -0.0020097194 -0.18122418 -0.0562768 -0.14485528
-0.11627489 -0.13847649 -0.08613039 -0.17203377 -0.10016496 -0.060597703 -0.079846054 -0.25291535
0.022760255 -0.1122514 0.12160173 0.12555736 -0.06684383 0.030435927 0.0050285254 -0.054822087

model_6/dense_11/Tensordot/MatMul1 f4 [128, 128]
00000000: 2097 6a3e 190b 033e 9d1b 53be 1cd4 8f3d
00000010: 5013 753d f1e5 563d 9a5b 02be b674 5a3c
00000020: 8eaa d93d 30ba 39bc 860c 843d 7403 a1bc
00000030: 5795 a53d da81 63bd 55f5 00be f049 edbd
00000040: 75b3 07be a31d 093c 3092 cbbd cd3a a6bd
00000050: d6bf d03c 44f6 143c 8188 063d e13a d8bc
00000060: 53be 1cbd 2f78 50bd c9ce eb3d 4e62 573d
00000070: 525a 0fbb c48a 223d 0d87 643d 654f b13d
00000080: 7d88 f53d be6a bfbd 134f 213d 9d95 663a
00000090: 103b 3d3d 5d39 503d 9143 f23d 720e 15bd
000000a0: 897a 99bd 6f52 fd3a 9513 83bb c27e 17bd
000000b0: bdd3 94bd 7bd4 acbd 2486 8dbd b3f5 e03c
000000c0: ba44 54be cd42 6a3d d717 d33d 955f ab3b
000000d0: c9f4 3d3d ad52 013e e8ce 9c3d 5334 293e
000000e0: 1ea4 44be 326b 07bd 7eb6 9bbb 133e d1bd
000000f0: 08a4 c23d 78b0 ca3c 7969 1cbd 04e5 2cbc
00000100: 9e1c 833d 068b 21bd 6566 c43c 13ad 78bd
00000110: 4e75 e1bc 9039 9d3d b4b5 b13d 7321 c33d
00000120: 17a2 5c3d d023 a339 996c 80bd 3d39 8ebd
00000130: 03dd e8bd 45fb 62bd d9f8 7dbd de1f 15be
00000140: 0d30 1ebd 69c1 b43c 6309 5ebd f47b cd3c
00000150: ba13 8b3d 25fc 1c3d 47a1 89bd 4ea0 213e
00000160: e380 20be 381c b9bd 44da 0a39 ff10 913c
00000170: c4c8 da3c d426 74be ca0d 703d ad89 85bd
00000180: 394c b8bc f375 8a3d ea3a acbd 429a 06be
00000190: d634 8f3d 2eed e7bd 91c8 c3bb 7007 0b3e
000001a0: 8b16 9b3c bcba b9bc e90e 9ebd 754a 7a3b
000001b0: f617 e9bd 638a 0f3d 7ce6 f43d fa8c 37bc
000001c0: 766b c53d 2518 c13b f817 773d 2a13 b13d
000001d0: 11a1 af3d 3607 93bc ef8f 60bc ebad 95bd
000001e0: e6ec 213e f567 78bc e9c6 893d 08f5 6dbd
000001f0: 085e 893d 8cc5 aa3c abfc 4a3d 9118 33be
00000200: 4d64 08bd 1c54 2c3e 0a8c 56be 2f43 0cbc
00000210: a8bf 4a3d 8411 bd3d af59 bdbd 21d0 fd3d
00000220: 994d 2cbd ae87 d6bc fb14 c73c 170f 353e
00000230: de7a f43d 421c 353d a128 213d af79 0cbd
00000240: 8fed 143c 8938 04bd ac77 b5bd 00ce 94bd
00000250: 9723 9e3d e50b a63d 65ca debd 8f23 20bc
00000260: 36f0 03bd cfdc 3e3d 81df d13d c847 053e
00000270: 9f30 83bd 2dcf 193d d0e8 febd ab05 b3bd
00000280: bcdb 163d 1913 1cbe 4670 2c3d c0fa 6f3d
00000290: 84fb f8bd 1c21 443d 1868 923d 276f e5bd
000002a0: 1c2d ba3d 8d08 483e 86eb b13d 8089 4d3d
000002b0: 54cd 06bd c61d cbbd 6bb7 20bd 0d41 143e
000002c0: 3d55 643d 0fb7 fbbd 4021 2cbd 643c 83bd
000002d0: 7a5b 92bd 125a 053e 93d8 fc3d 70bc c83d
000002e0: 2b6e e1bd ffc6 723d 0c93 cd3c 8321 a63d
000002f0: 1943 dbbd 5f41 f23d 81b9 76be 1752 2abe
00000300: bf09 f13d fdcc 61bc 2aa2 273d 6a83 b5bc
00000310: 7984 a03d a2f9 fdbc 1ca6 4fbd c411 193d
00000320: 0e79 013e 9413 e63d 8d2b c03d eec8 5dbe
00000330: d8d0 09be f829 b8bd 449c b03d 0ace 95bd
00000340: f2ad 85bd 520c ad3d 58c1 a8bd 2f97 4dbd
00000350: 172a d5bc 19cd 423c ebca 043d bacf 7cbd
00000360: 76a0 a7bc 7670 d2bd af4c 403d c71f 6a3d
00000370: ff4e dfbd e57d 6ebb 0c56 803d 5ee4 ddbd
00000380: ed3c a83d c3d7 0bbe 440e 15bb 4f77 22be
00000390: 6b40 dd3c 67b3 023e 4208 923d 1530 d53c
000003a0: bd78 b33d ba29 c0bb d8a0 76bc 0f8e 93bc
000003b0: 4434 8e3d 23c6 2cbd 833b 533d 0c61 3b3d
000003c0: 8b9b 833d 4ae7 283d 79f5 0c3d f467 49bc
000003d0: 6b30 3e3e 3cb6 313e c897 4b3d 13fe 5a3d
000003e0: 8061 f4bc 177c cd3d 1be5 db3c 5ddf 9cbc
000003f0: f3c8 41be 0a30 353d a244 293c 8c90 ecbc
0.22909212 0.12797202 -0.20616002 0.070228785 0.05983287 0.052465383 -0.12730256 0.01333349
0.10628234 -0.011335894 0.06447701 -0.019654967 0.08085125 -0.055543758 -0.12593587 -0.11586368
-0.13252051 0.008368882 -0.099399924 -0.08116684 0.0254821 0.009091917 0.032845024 -0.026395263
-0.038267445 -0.050895866 0.115140505 0.052583985 -0.0021873903 0.03968312 0.055792857 0.086577214
0.11988924 -0.09346531 0.03938205 0.0008796098 0.046198905 0.050835956 0.118292935 -0.03639073
-0.07494075 0.0019326935 -0.004000137 -0.03698612 -0.07266948 -0.08438965 -0.06910351 0.027460909
-0.20729342 0.057192612 0.103072815 0.0052299 0.046376023 0.12629195 0.07656652 0.16523866
-0.1920323 -0.033061214 -0.0047519794 -0.10216918 0.09503943 0.02474235 -0.038186524 -0.010552648
0.06401943 -0.039439224 0.023974607 -0.06071193 -0.027521756 0.07676995 0.08677235 0.09527864
0.05386552 0.00031116465 -0.06270713 -0.06944511 -0.1137028 -0.05541541 -0.062004898 -0.14562938
-0.038620044 0.022064881 -0.05420817 0.02508352 0.06790872 0.0383264 -0.06720214 0.15783808
-0.15674166 -0.090385854 0.00013242016 0.0177083 0.02670706 -0.23842937 0.0586069 -0.065204
-0.022497283 0.06760778 -0.084096745 -0.13144782 0.069924995 -0.11324535 -0.005974837 0.13577056
0.018931648 -0.02267205 -0.07717688 0.0038191353 -0.11381523 0.035044085 0.11958024 -0.011203045
0.09639637 0.005892771 0.060325593 0.086462334 0.08575643 -0.017947774 -0.013706191 -0.07308563
0.15813026 -0.015161504 0.06727392 -0.058095008 0.06707388 0.02084615 0.04955737 -0.1748984
-0.03329878 0.1682896 -0.20951858 -0.00856094 0.049499184 0.092318565 -0.092456214 0.12393213
-0.04206619 -0.026187744 0.024301996 0.17681538 0.119374976 0.044216402 0.039345387 -0.034295734
0.0090898415 -0.03228048 -0.08860716 -0.07265854 0.07721632 0.081077375 -0.108784474 -0.009774103
-0.032211505 0.0465973 0.10247708 0.13015664 -0.06405758 0.037551094 -0.12446749 -0.087413155
0.03683065 -0.1524166 0.04209926 0.058588743 -0.12157348 0.047883138 0.071487606 -0.11202841
0.09090635 0.19534512 0.08687501 0.05017996 -0.03291066 -0.09917788 -0.03923742 0.1447794
0.055745352 -0.12290775 -0.042023897 -0.06408003 -0.07146354 0.1302264 0.12345996 0.098015666
-0.11007341 0.05927181 0.025094531 0.081118606 -0.10706157 0.11828875 -0.24094202 -0.16632877
0.11769437 -0.013781783 0.040926136 -0.02215739 0.07837767 -0.031002823 -0.050695524 0.03737046
0.12643835 0.11234203 0.09383307 -0.2165868 -0.13458574 -0.0899238 0.08623555 -0.073146895
-0.06527318 0.084496155 -0.082400024 -0.050193008 -0.026021047 0.011889719 0.03242008 -0.06172154
-0.020462256 -0.102753565 0.04694813 0.05715921 -0.10903739 -0.0036390957 0.06266412 -0.10834573
0.08214746 -0.13656525 -0.0022744099 -0.15865825 0.027008256 0.12763749 0.07130481 0.026023904
0.087632634 -0.005864349 -0.015052997 -0.018012075 0.069435626 -0.042181145 0.051570427 0.045746848
0.06426152 0.0412362 0.03441379 -0.012292851 0.18573157 0.17354673 0.049705297 0.05346496
-0.029831648 0.10033434 0.026842644 -0.019149477 -0.18924312 0.044235267 0.010331305 -0.02887752

model_6/dense_12/MatMul f4 [4, 2560]
00000000: d3c6 a4bb 7e4d edbd 6303 eabd 4c1a 19bd
00000010: 3590 b2bd 4a3c 1d3c f09d 00be 401b 63bd
00000020: 73df 903d c451 093e fed9 803d b007 a03d
00000030: 9daf ac3c 0059 5f3c a750 ebbd ae83 a5bb
00000040: 9117 05be a401 3e3c 8bdb e1bd b298 01be
00000050: 0b6e ba3c 3d39 e2bd fd3a 2e3e b8d4 8c3d
00000060: 7835 533d 0597 f3bd 89dc 943d d410 c73d
00000070: a6ef fe3d 7c83 6fbd 7c39 8d3b b0c9 afbd
00000080: 3bb3 d73c 6cd2 b2bd bcee 823d 9fed 3a3e
00000090: 0be6 5abe 83d3 33be c546 75bd 0880 bcbd
000000a0: ce32 07be 2663 b13d 11d6 bc3d a49a ffbd
000000b0: 22eb 83bc a6c1 cabc d98b 1a3d 8e5f 46bb
000000c0: d910 0fbd 9988 eebc 2c84 be3d 998c e0bd
000000d0: 7cb7 1ebd 028c 08bd 11b2 013e a9be 0d3e
000000e0: d772 b73d 1409 073d 5670 a13d 5cbf a5bd
000000f0: c5f3 b03c cbb9 cebd 15c4 463d 4f81 103e
00000100: d9a1 313c 2f7f 633d 5836 aabc b009 8f3d
00000110: f0af d53c b1ee c3bd 6337 d13d 1992 c33d
00000120: a10d 48bd b535 453d 2ac6 f93c 31f4 cfbc
00000130: 4c6d 4fbd 4442 69bd 4716 89bd 78fe 593d
00000140: 221d 94bd 5954 a6bc 54ff 463d 30b3 f3bc
00000150: 31f8 133d 6787 91bd 4674 71bd 2386 debc
00000160: be61 cd3c 0d57 d5bc 2560 b13d 6248 f03b
00000170: fffb 56bd b0c2 dcbc cf15 fc3c 4bbd e9bc
00000180: f827 1d3d b3be db3d 3f3a 5f3d 53ef 35bd
00000190: 2767 283d f092 8ebd fa16 d9bc 733f 283d
000001a0: 9644 18bd 4581 e0bc 8ed6 38bd f0b2 6d3d
000001b0: f737 acbc 93cc 973d d122 2dbd f494 8ebc
000001c0: aa9a 2abd b798 573d e3af d6bd 649f be3d
000001d0: a0ef 353d a1ce 013d 4fd4 bdbd 9a59 c13d
000001e0: 4d57 ee3c 4571 823d 102d efbc 4904 88bd
000001f0: 4f09 f63c 711f 37bd 7088 d33c 7d00 60bb
00000200: bd66 933d 7373 81bd 913e e1bd 5fc4 46bd
00000210: 92f1 66bd 70dd 993d 0c0e 8bbd d622 80bc
00000220: 1f04 593d 1318 e33d 2a83 0d3d 194e d33d
00000230: 5f5c 493c b2f4 d6bd d52e e3bd e1e0 9bbd
00000240: 8c72 ccbd 487d ab3c 9e02 07be b739 a9bc
00000250: 7ecc 923c 6400 94bd 2e0a 9d3d 7e7b 133c
00000260: 886d 023e 879c 08be 6ce1 963d 255c e83d
00000270: 97d4 873d 2240 593d c1d1 cb3c da98 c3bd
00000280: d694 783d 134a 1bbd d585 d83c ba0f 863d
00000290: bb91 05be 50cc 70be b063 8abd 1208 64bd
000002a0: af3f 9cbd faa4 a33d aabe 443d 62a3 1bbd
000002b0: 3a67 f4bc a19b 07be 9f94 6ebd ab4b 45bd
000002c0: c009 1dbd defe 7cbc 14c4 a23d 34a5 c7bd
000002d0: e495 f9bc 7570 b13b bb60 d93d 4638 e63d
000002e0: efc3 383d 421c 763d 69a2 633d c2c6 12bd
000002f0: 8c5b 623c a71c 0fbd 1024 a13d 2ae4 d13d
00000300: 8f9a e93c 5436 5b3d 3174 03bd 760a 8a3d
00000310: 1611 2b3d 2cd8 aebc 9f9a a13d fca3 573d
00000320: 9d9a 7cbd 5260 9e3d 0e8b 003d 0084 8abd
00000330: 5e75 4cbd 7e77 69bd ff0c 62bd 2a67 283d
00000340: 6d3e afbd 179a 08bd 23d8 1a3d 1dc7 84bc
00000350: f880 ea3c d34c 35bd c4ab 36bd 62e9 2ebd
00000360: b73f d43c 1de0 2fbd 9773 fc3c c370 c83c
00000370: ac20 4ebd 8901 7abd af4f 123d b74c 3ebd
00000380: 776e 3a3d 3381 643d 9c92 fe3c d951 67bd
00000390: 8678 443d 72bf 14bd c06d 13bd d536 263d
000003a0: 6171 48bd 0957 4abd 57fc 01bd 1a14 023d
000003b0: 8152 90bc 1840 8e3d 8e23 cabd b8e9 b5bb
000003c0: 98ed 4bbd 9f44 e53b d814 8bbd bd6c a63d
000003d0: 6cdc d83c e3b2 623d ef66 b0bd d291 443d
000003e0: 1f7c 2f3b c101 573d 5613 a4bc 5adc cbbc
000003f0: a365 083d b714 88bd b049 063d 2a44 b9bc
-0.0050285845 -0.11587046 -0.11426427 -0.037378594 -0.087189116 0.009596894 -0.12560248 -0.05544591
0.070738696 0.13410097 0.06291579 0.07813966 0.021079833 0.013632059 -0.114899926 -0.005051098
-0.12997271 0.011597071 -0.110282026 -0.12655905 0.02275755 -0.110460736 0.1701469 0.068765104
0.051564664 -0.11894039 0.07268626 0.097200066 0.12448053 -0.058475003 0.004309831 -0.08583391
0.026330581 -0.08731541 0.06393191 0.18254708 -0.21376817 -0.17561154 -0.059881944 -0.092041075
-0.13202974 0.08661489 0.092205174 -0.12480667 -0.016103331 -0.024750542 0.037731025 -0.0030269357
-0.034928177 -0.02911787 0.093025535 -0.10964317 -0.038749203 -0.033336647 0.12665583 0.13842262
0.08957451 0.032967642 0.078827545 -0.080931395 0.021600613 -0.10094031 0.048526842 0.14111827
0.01084181 0.055541214 -0.020777866 0.069842696 0.02608487 -0.09567011 0.10215642 0.0954935
-0.048841123 0.048146922 0.03049 -0.025384994 -0.050641343 -0.05694796 -0.06693702 0.053221196
-0.07232119 -0.020303892 0.048583344 -0.02974853 0.036125366 -0.07105904 -0.058948778 -0.02716357
0.025071021 -0.026042486 0.08660916 0.0073328475 -0.052486416 -0.026948303 0.030772118 -0.028532645
0.038368195 0.10729732 0.054498907 -0.04441769 0.041114 -0.0696162 -0.026500214 0.041076135
-0.037174784 -0.02740539 -0.04512649 0.058031976 -0.02102278 0.07412066 -0.04226953 -0.01740501
-0.041651405 0.052635875 -0.104827665 0.09307745 0.044417977 0.031691197 -0.0926901 0.09440918
0.029094363 0.06369261 -0.029196292 -0.06641442 0.030033736 -0.04470772 0.025821894 -0.0034179979
0.0719733 -0.06320848 -0.10998262 -0.048527118 -0.056382723 0.07512939 -0.067897886 -0.015641611
0.052982446 0.11088576 0.034548916 0.1031763 0.012290089 -0.10495891 -0.11092917 -0.076112516
-0.099827856 0.020933762 -0.13184592 -0.020657403 0.017919775 -0.07226637 0.07667957 0.009001611
0.12737095 -0.1334096 0.073672146 0.113457 0.06632345 0.053039677 0.024880292 -0.095506385
0.060688816 -0.03791244 0.026431004 0.06545968 -0.13043873 -0.23515439 -0.06757295 -0.05567176
-0.07629334 0.07990451 0.048033394 -0.03799761 -0.029834379 -0.13242961 -0.058247205 -0.048167866
-0.038339376 -0.015441624 0.07947555 -0.09748307 -0.030466981 0.0054150173 0.10614153 0.11241202
0.04510873 0.060085543 0.05557481 -0.03583408 0.013815772 -0.034939434 0.078682065 0.10248597
0.028516082 0.05351861 -0.03209323 0.067402765 0.04176434 -0.021343313 0.0789082 0.052646622
-0.06167089 0.077332154 0.031382613 -0.06763458 -0.049916618 -0.056998722 -0.055188175 0.04111401
-0.08556829 -0.033350077 0.03780378 -0.016208226 0.02862595 -0.04426272 -0.044597402 -0.04270304
0.025909288 -0.04293834 0.030816836 0.024467831 -0.050324127 -0.06103662 0.035720523 -0.04645988
0.045515504 0.055787276 0.031075768 -0.05647454 0.047966503 -0.03631539 -0.035993338 0.040579636
-0.04893625 -0.04939941 -0.03173479 0.03175745 -0.017617466 0.06945819 -0.09870063 -0.005551543
-0.049787134 0.0069967057 -0.06791085 0.08126209 0.026472293 0.05534638 -0.08613383 0.047990628
0.0026776863 0.052491907 -0.020028751 -0.024885345 0.033300053 -0.06644576 0.032785118 -0.022615511
